results/drn/checkpoints/mlp_1.ckpt (torch, 144072 bytes, 18 tensors)

model.model.0.weight f4 [512, 15]
000000 94 a1 09 3e 40 b1 50 3d 13 9f 9a bd da 5c 44 3e
       0.13440543 0.05095029 -0.07549872 0.19176045
000010 7f e4 8a be 4c a1 b9 bd 0a 9a 54 bc 4f c0 dc 3d
       -0.27127454 -0.09063968 -0.012976179 0.107788675
000020 80 6c 34 bc b5 bb 3f bd 59 22 00 3d e4 ce 98 3d
       -0.011012197 -0.04680987 0.031282756 0.07461336
000030 b8 4e 21 bd fc e2 87 bb 7f a3 cb 3d 73 e6 96 3d
       -0.039381713 -0.0041469317 0.09943294 0.073681735
000040 3b ca a0 3b 4b 7b 36 bd 0b fa fb 3d 83 03 69 3c
       0.0049069203 -0.044551175 0.12303551 0.014222029
000050 63 f2 0b 3d 71 d0 74 3d f2 80 b7 bd 97 6e 1e 3d
       0.034166705 0.059769098 -0.08960141 0.038679685
000060 2e bc 2c bd 8f 8c ba bc 33 f7 db 3c 57 38 6c 3c
       -0.04217165 -0.022772102 0.026851272 0.014417729
000070 d5 66 a1 bb 65 ee 3a 3d fd cd a2 3c 97 c2 35 3d
       -0.0049255886 0.045637507 0.019873613 0.04437503
000080 78 20 c9 3d 30 95 ea bd 94 10 1b be 41 d5 d2 bc
       0.09820646 -0.114542365 -0.15143043 -0.025736453
000090 d2 7f ce 3c 8d ec 9d 3d 81 27 18 3d 27 ed b5 bd
       0.025207434 0.07711134 0.03714705 -0.08883124
0000a0 80 c5 cd bb b7 e4 13 3d 16 7c a1 bc 4c aa 48 bd
       -0.0062796474 0.03610679 -0.01971249 -0.048990533
0000b0 7e ba 78 3d 64 00 78 3e e3 9c a0 be 58 bd 32 3e
       0.060724728 0.24218899 -0.31369695 0.17455041
0000c0 f5 af 22 be 98 fc 85 be e9 7c 88 be 6c 3d 89 be
       -0.15887435 -0.26169276 -0.266578 -0.26804674
0000d0 74 d7 97 be f5 9d 1d 3d 67 9e 9b 3e 79 25 ee bc
       -0.29656565 0.038480718 0.3039429 -0.029070603
0000e0 0f e5 36 bd f2 30 8a 3d 28 03 2d be 64 0a 40 3e
       -0.04465204 0.06747617 -0.16895735 0.18753964
0000f0 bb 4a 46 be 52 74 f9 bd 44 a8 f1 bd 20 cb b7 3d
       -0.19364445 -0.121803895 -0.11799672 0.0897429
000100 ad 0f a1 bc fb e3 b9 bd 0d 02 36 3d c9 19 2b be
       -0.019660795 -0.09076687 0.04443555 -0.16709055
000110 33 e6 45 3c 3e 6c c5 bd f7 ad cc 3b c3 10 88 bd
       0.01207881 -0.09639786 0.006246324 -0.06643822
000120 b6 f6 ec bd 18 3a 08 be da 95 c9 3c 74 9a f8 3c
       -0.11570494 -0.13303411 0.024607588 0.030347086
000130 e7 8d f4 3c 97 3c b6 3d 10 89 25 be a5 5b e0 bd
       0.02985282 0.08898275 -0.16165566 -0.1095498
000140 d2 72 31 3d 56 02 a2 bd b0 6c c4 3d f2 8b 8f 3d
       0.04332239 -0.07910602 0.09591043 0.07009114
000150 8d fc 88 bd df ee 37 3b f2 7d 2b 3d eb 20 31 3d
       -0.06688795 0.0028065962 0.041868158 0.043244284
000160 2c c6 07 3d 4d 69 1f 3d 78 e2 e2 3d 57 1e b4 ba
       0.033147976 0.038918782 0.11078352 -0.0013741952
000170 3d 75 d7 3b d3 c9 88 3e 58 90 8c be 9f 6b 8e 3e
       0.006575255 0.2671648 -0.27453876 0.27816483
000180 21 c7 6c 3a f9 12 9b 3e 30 6a 9f 3e 91 a6 59 bc
       0.0009032358 0.30287912 0.31135702 -0.013284341
000190 70 2b 87 3e 58 f0 a5 bd b6 c2 05 3e 8f a6 46 bd
       0.26400328 -0.081024826 0.13062558 -0.048498686
0001a0 b7 88 26 be f0 90 a9 be 7f c2 58 3c 15 df 0b 3d
       -0.1626309 -0.3311839 0.013229965 0.034148294
0001b0 6a 7f 04 3e 39 87 bd 3b 8f 3b db 3d 9d 8c a0 3d
       0.1293923 0.005783942 0.10704719 0.0783932
0001c0 a8 9d 0c be 46 df 9c bd b9 8f be 3c e6 55 dd 3c
       -0.13732016 -0.076597735 0.023261892 0.027018499
0001d0 b9 ec 89 3d a6 4f 5a bd 55 db c4 bc e9 1b 6c 3c
       0.067346044 -0.053298615 -0.024030367 0.014410951
0001e0 c4 e5 04 be d3 56 ef bc 58 a6 01 3e 7d 15 1b be
       -0.12978274 -0.029216206 0.12661111 -0.15144916
0001f0 39 3f 49 3e 85 7e a1 bc c9 3e 39 3c 46 0e ba bd
       0.19653024 -0.01971365 0.011306473 -0.09084754
000200 b1 51 10 bc 72 1a 6e 3d 71 e3 6f 3b db f3 ed 3d
       -0.008808539 0.05813069 0.0036604072 0.11618777
000210 7f 52 07 3e 00 c4 89 3d 6b 4c c7 bc c3 cd cf 3e
       0.13215064 0.06726837 -0.024328431 0.4058667
000220 b3 30 ae 3b 6a de fd 3c 6e 72 56 be 82 77 20 be
       0.005315864 0.030989844 -0.20942089 -0.15670589
000230 dd 0f 42 bc bd be 2a 3d b6 1b 92 3d 08 e2 5a bd
       -0.011844602 0.04168581 0.07134192 -0.053438216
000240 01 92 90 bd 22 83 bd 3c 9c cc 00 3d c3 44 b8 b9
       -0.07059098 0.023133818 0.03144513 -0.00035146446
000250 49 d9 48 3d 0c 28 bf bb 5b cb ee bd c8 24 61 3e
       0.049035344 -0.0058336314 -0.11659881 0.21986687
000260 5b 67 06 be 6e d0 a2 3b 51 ba 6c be 05 cb 05 bf
       -0.13125364 0.0049686944 -0.23117949 -0.5226291
000270 df 8c 57 3e 02 17 72 3e 18 a9 e4 3d 20 db 82 be
       0.21049832 0.2364159 0.111650646 -0.25557804
000280 97 c0 55 be bc 06 12 bd 6e 47 8f 3e 0f 4b 10 3d
       -0.20874248 -0.035650954 0.27984184 0.03522783
000290 a3 22 39 3c cb c4 6d 3e 08 61 46 bd 69 e7 a6 3d
       0.011299762 0.23219602 -0.04843238 0.08149607
0002a0 d5 9a ff bd 7a a0 60 3d b5 a2 68 bc 17 4f 22 3d
       -0.12480704 0.054840542 -0.014198949 0.039626207
0002b0 f1 fe 7e 3c b7 16 a6 3d c4 d1 cc bd 9c 38 db 39
       0.015563712 0.08109801 -0.10000947 0.00041813112
0002c0 2d 6d c7 bc b7 08 61 3c 38 a6 95 bd 8b 0f 3b 3d
       -0.024344051 0.013734988 -0.07307094 0.04566912
0002d0 d3 b3 ed bd 93 c5 5a bd ef e7 44 be c9 74 29 3d
       -0.116065644 -0.053411078 -0.192291 0.04137114
0002e0 53 b2 0b be b1 3d ba bc ff 8c 1f 3d 7c 96 2b be
       -0.13642244 -0.022734495 0.038952824 -0.16756624
0002f0 8f 6d 1f 3d 76 2e a0 3c 40 6e 2b 3e 3b 93 1d 3d
       0.038922843 0.019553404 0.16741276 0.038470488
000300 32 6d 6e bb e8 07 1a bd 14 85 46 bd a2 25 84 be
       -0.0036381003 -0.037605196 -0.048466757 -0.25809962
000310 8b 34 9b 3a 0a c0 9b bd 2d 74 ff 3d f8 c6 a0 bd
       0.001184122 -0.07604988 0.12473331 -0.0785045
000320 e1 b5 ef 3c e5 4f 3e bd a3 da bf bc a9 5a c2 bd
       0.029261531 -0.046462912 -0.023419684 -0.09489948
000330 02 8c 21 3e 60 9e 25 bd 1c d1 1f bd 50 dd 94 3d
       0.15776065 -0.04043424 -0.03901778 0.072687745
000340 21 1b 8e 3b 7f 86 e0 bc 19 9a fb 3d 4d 8d b3 bc
       0.00433673 -0.027407883 0.12285251 -0.021917963
000350 60 79 0d be 76 1e a8 3d 36 69 e3 bc 10 5d ca bc
       -0.13815832 0.08208935 -0.02776013 -0.024702579
000360 91 5e 71 bd 67 be a4 bd 9e f8 c2 bc 1d 93 b8 3d
       -0.058928076 -0.08044129 -0.02380019 0.09012435
000370 5f 1f 4b bd 41 de bd 3c fc 14 9e 3c 11 4a e6 ba
       -0.049590465 0.023177268 0.019297116 -0.0017569681
000380 4f 5f 1b 3d 5f c2 9c be d9 df 48 3e a4 cf 95 3d
       0.03793269 -0.30617043 0.19616641 0.07314995
000390 c8 01 44 3e 93 18 ad 3d 9f b7 d4 bc a5 81 09 be
       0.19141304 0.08451953 -0.025966464 -0.13428362
0003a0 17 6e 83 be a0 07 41 be 18 6d cb be 43 e1 d8 bd
       -0.2566993 -0.18850565 -0.3973167 -0.1058984
0003b0 82 fd bf be a4 bf 83 3e 00 2b a3 be 9b 77 f4 3c
       -0.374981 0.25732148 -0.31868744 0.029842189
0003c0 d1 a1 99 be c4 b8 31 bd 30 70 6c 3d 06 16 dc 3d
       -0.3000627 -0.043389097 0.057724178 0.10746388
0003d0 83 7b 36 bc 19 89 dd 3d 40 90 56 3d 94 fd 06 be
       -0.011137846 0.10817165 0.05238366 -0.1318267
0003e0 54 9b 54 bd 79 08 fd bb 20 f0 74 bb ae 92 7d bc
       -0.051905945 -0.0077219573 -0.003737457 -0.015476866
0003f0 dd 44 29 3d 07 d2 0b 3c 46 dd 78 bb b9 8e 09 be
       0.04132544 0.008533961 -0.0037973686 -0.1343335

model.model.0.bias f4 [512]
000000 0e 1c 22 3d 1b 80 b2 3d ea 13 82 3d be 20 e5 be
       0.039577536 0.087158404 0.063514546 -0.44751543
000010 8c 04 17 3d a7 1c 84 3d 65 11 50 bf 7c fd 43 3d
       0.03686957 0.064507775 -0.8127654 0.047849163
000020 be 4a bc 3d 04 9d f3 3c 3e 06 6b bf bc 77 9c bc
       0.091939434 0.029737957 -0.918064 -0.019100063
000030 c1 b3 1c 3d 21 d5 d2 3d f1 f0 ba 3c 34 66 5b be
       0.038257364 0.10294557 0.022819968 -0.21425706
000040 d7 52 db 3b bb 39 1b 3d 38 f9 11 bf 2f 60 22 bf
       0.006693225 0.037896853 -0.570209 -0.63428015
000050 be ee 88 3c 66 ef 23 bd ec c8 29 bf 09 47 f7 3d
       0.016715404 -0.04002323 -0.6632221 0.12074096
000060 32 0c b9 bd e2 45 6e 3c ed f2 62 bf 6d 9d dc 3d
       -0.09035529 0.014543029 -0.88651925 0.10772214
000070 a3 d2 1f bf 7c 7e 35 bf 23 92 05 bd af 9d 7c bf
       -0.6243078 -0.70896125 -0.03261007 -0.98678106
000080 a5 48 02 3c 0b 38 8d bd 32 f3 b2 bb 48 71 87 3c
       0.00795189 -0.06895455 -0.00546112 0.016533509
000090 4b df 59 3d b3 42 a4 3d f9 76 e1 be 8a 1c 7c bf
       0.053191464 0.08020534 -0.4403608 -0.9848105
0000a0 ed 53 34 3d 18 06 d1 bd 20 5a 08 bf 6d 0c c4 3d
       0.04402535 -0.102062404 -0.5326252 0.095726825
0000b0 e1 b4 13 bd 4c 57 ae 3d 88 ca 8a bd f7 1d ff bc
       -0.03606117 0.08512744 -0.06776911 -0.031142218
0000c0 79 2e 96 3d 3e 05 13 be bf c4 fc 3b 22 32 91 3c
       0.07333083 -0.14357468 0.0077138836 0.0177241
0000d0 6c ec 8d 3c e9 9e 52 bf 64 ae 16 3d c8 f9 b6 3d
       0.017324649 -0.8227373 0.036787406 0.08934361
0000e0 9f 8e 9a 3d 3c 07 d3 3d 9e f2 91 3d f8 f1 7e 3b
       0.07546734 0.10304114 0.07126354 0.0038901549
0000f0 8a cb 92 3d 8e 67 0f bf dd 43 c1 3d 2d da 3b 3c
       0.07167728 -0.56017387 0.09436772 0.011465591
000100 7a 43 2f 3e b1 f8 84 be 88 c5 9e be 4b b6 9f 3d
       0.17115584 -0.25970986 -0.3101008 0.077984415
000110 28 51 88 be e1 06 1a 3e a0 3f 05 3e c1 37 4f 3d
       -0.26624417 0.15041687 0.13012552 0.05059028
000120 5b 8c 1f bd aa b6 61 be 9b 0f 38 be 9e 9b ce 3d
       -0.038952213 -0.22042337 -0.17974703 0.100882754
000130 a8 6f 0b bd ea d4 0a 3e ac 47 5f bf bc 25 6e bd
       -0.03404203 0.13557783 -0.8721874 -0.058141455
000140 4f fe d9 3d 51 12 48 bd 60 47 3b bf e2 e8 39 3d
       0.10644209 -0.048845593 -0.73155785 0.04538811
000150 35 06 d3 3d 3d eb 41 be 9d 4e f5 bd 35 1a 1a 3c
       0.10303918 -0.18937393 -0.11977885 0.009405662
000160 67 70 c1 bd 05 f7 b5 be 59 cf 5f 3d b8 46 53 bd
       -0.09445267 -0.35540023 0.0546411 -0.051581115
000170 b3 f0 a1 3d 63 79 43 bc a6 d5 b9 3d b4 8a d9 3d
       0.07907238 -0.011930796 0.09073953 0.10622159
000180 02 be a8 bd e7 d1 82 3d 08 b8 2e bd 77 58 6f 3d
       -0.08239366 0.06387692 -0.042655975 0.058433976
000190 15 1c 0c 3e 5f 5e 41 bf 8c 49 b1 bc ef c6 94 3d
       0.13682587 -0.75534624 -0.021641515 0.07264506
0001a0 34 4d 9b bf 0c b6 1b 3c e8 3a d5 3d 6c 44 34 3d
       -1.2132936 0.009503853 0.10411626 0.044010565
0001b0 b2 9b d5 3c 89 01 1e bf af 09 94 3d 76 fb 43 be
       0.026075218 -0.6172109 0.072284095 -0.19138893
0001c0 84 bb 7d be 55 d0 92 be 9c 05 7d be d2 85 39 3d
       -0.24778563 -0.2867457 -0.24709171 0.045293637
0001d0 3c 27 4d bf 35 0c 69 be 35 44 d5 bd e5 0f f1 be
       -0.8013799 -0.22758563 -0.104134 -0.4708244
0001e0 ea af 81 3d 2a a3 a2 3c 14 f5 22 bd 12 fa 66 be
       0.06332381 0.019853193 -0.039784506 -0.22556332
0001f0 11 e0 22 bf ae 3d 4d 3c ef e9 26 3d 7f 04 6f 3d
       -0.6362315 0.012526913 0.04075044 0.058353897
000200 19 c6 02 bf 82 5f 74 bd 92 71 00 be 5a 93 12 3d
       -0.51083523 -0.059661396 -0.12543324 0.035785057
000210 c5 35 27 bf c9 3e 69 bb cc 75 ce 3c 47 13 d1 3d
       -0.6531642 -0.0035590401 0.025202654 0.10208755
000220 df 8f 26 bf 64 da b3 bd 1c f7 1f be 87 ba 25 3d
       -0.6506328 -0.08781889 -0.15621608 0.04046109
000230 75 ba 4c bd a2 63 19 bf 80 ac 59 3b 08 18 ba bc
       -0.049982507 -0.5991765 0.003321439 -0.022716537
000240 a1 a8 78 be b1 85 55 bc d1 d7 69 bf 3a 3f 3b 3d
       -0.24283077 -0.013032363 -0.91344935 0.045714594
000250 49 be a6 3d 03 3d 6a bf 5a 60 98 3d 7a d9 ca 3b
       0.08141763 -0.91499346 0.074402526 0.006190476
000260 ca e0 cf 3d 51 09 60 bf 6a 0f f1 3d 93 5d 81 3d
       0.10150297 -0.87514216 0.11770518 0.06316676
000270 15 48 0d 3e 60 52 d0 3c 0e 92 a2 3d 48 fc a8 be
       0.13797028 0.025429904 0.07938014 -0.33004975
000280 d0 89 a9 3d 85 08 9d 3c 00 11 0e 3e 99 b3 df bc
       0.08278239 0.019169101 0.13873672 -0.027307319
000290 a0 39 0d bf 2d 41 f6 3d 5a dc e9 3d 78 5a 85 3d
       -0.55166054 0.1202415 0.11418982 0.06511396
0002a0 e5 80 e2 be 39 77 ed 3d 69 e2 7c bd 3f 95 e5 bb
       -0.44238964 0.115950055 -0.06173936 -0.007006317
0002b0 b9 19 ae bd 7b 7b e0 3d df 85 be 3c 77 bd 33 3d
       -0.08501 0.10961052 0.023257194 0.04388186
0002c0 5e de 2b 3e 47 c4 09 3e 48 c0 5a bd 18 a5 34 3b
       0.16784045 0.1345378 -0.05340603 0.0027564224
0002d0 db 46 27 be d8 c5 82 3c 8f 9b 5f be 9c 86 15 3d
       -0.16335623 0.01596348 -0.21836685 0.036505327
0002e0 d0 7d 5b be 67 ce 4b bd c6 68 50 bd 18 b5 13 bd
       -0.21434712 -0.049757387 -0.05088117 -0.036061376
0002f0 a9 8d 43 be 6c f3 cc be da 35 22 ba ad f5 e0 3d
       -0.19097008 -0.40029466 -0.0006187834 0.10984359
000300 47 43 6f 3d 61 a1 d8 be be 5f 2f be 41 3a b4 3c
       0.05841377 -0.42310622 -0.17126366 0.022000434
000310 c7 ac e2 3d 33 ea 0d 3d 5e 76 33 bd a7 b0 df bd
       0.11068111 0.034647178 -0.043814056 -0.10922366
000320 d9 1d f7 bc f3 1f 3a bf 2b 8e de 3a bf 4c db bd
       -0.0301656 -0.72705 0.0016979625 -0.107079975
000330 43 aa 44 bf 70 00 35 3d 85 a8 c8 3d 13 ad 93 3d
       -0.768223 0.04418987 0.097977675 0.07210746
000340 eb 2e 18 3d ba 58 50 bf a1 67 19 be 7f 10 eb be
       0.03715412 -0.81385386 -0.14980938 -0.45911023
000350 0f d1 c6 3d 47 c4 5d bd 65 d4 bf 3d 60 be b0 3c
       0.097078435 -0.054142263 0.09366683 0.021575153
000360 52 0c a8 3c f8 66 1b be c1 4a b3 3d c2 b7 1a be
       0.020513687 -0.15175998 0.087544926 -0.1510916
000370 b6 c6 09 be 29 76 7c bd 63 b2 e3 be 5d b0 88 bc
       -0.13454708 -0.061636124 -0.44472036 -0.016685659
000380 a6 bf 47 be a7 24 82 3d 59 a6 d1 ba 3f b6 aa 3c
       -0.19506702 0.06354647 -0.001599501 0.020838855
000390 6c 8f 0f be 3e 5c 82 bd cb 38 29 be 24 c3 5c be
       -0.14019555 -0.0636525 -0.16525571 -0.21558815
0003a0 77 80 b9 3c 06 29 b4 3d 92 c0 c3 be cb 48 0b be
       0.022644265 0.08796887 -0.38232857 -0.13601987
0003b0 b1 61 96 bf 05 1f 27 bf 29 3f 1e 3d 7a 4e 70 bf
       -1.1748563 -0.6528171 0.038634453 -0.93869746
0003c0 13 b2 ca 3d c0 ef 3b bf 04 27 69 be 93 ae f1 bc
       0.09897246 -0.73412704 -0.2276879 -0.029502189
0003d0 6e 7d 24 bf 16 92 a9 be 86 b1 de be b1 ce 7e be
       -0.6425389 -0.33119267 -0.43494815 -0.24883534
0003e0 ac c5 b2 3d 4d a2 b2 bd 17 51 54 bf 7c ae cf be
       0.08729109 -0.08722363 -0.82936233 -0.4056281
0003f0 ee 3a 0e 3d 49 36 17 3e 7d 76 45 be 11 f3 81 bd
       0.03472417 0.14766802 -0.19283481 -0.06345189

model.model.3.weight f4 [2, 512]
000000 a2 21 c6 3c 35 33 bb 3c 17 0c df bc ba 28 1a 3d
       0.02418596 0.022851566 -0.027227445 0.037636496
000010 c5 ec 05 bd 9c f6 ce bc be 87 4d be b9 c3 bb bc
       -0.032696504 -0.025264077 -0.20071313 -0.022920476
000020 60 0a bf bc 61 33 c3 3c d3 2e 5b 3d 43 2d ce 3c
       -0.023320377 0.02382821 0.053511452 0.025168067
000030 54 b1 df bc ac a2 c6 bc 7a 66 b6 3c 38 c0 38 bd
       -0.027306236 -0.02424749 0.022265662 -0.04510519
000040 8d dd f0 bc 09 e5 e8 bc a1 e8 cb 3d 16 bd 0d 3e
       -0.029402519 -0.028429525 0.0995648 0.13841662
000050 3e 90 ae 3c 78 50 f6 bc 6b 18 7f 3d c3 7b cb bc
       0.021309014 -0.030067667 0.062279146 -0.024839288
000060 50 0a f5 bc c4 04 b9 3c f7 57 6b be 48 86 b7 bc
       -0.029912144 0.02258528 -0.22982775 -0.022402897
000070 55 28 ad bd 22 99 0d be aa ff b6 3c 8b 9f 79 3f
       -0.08454958 -0.13827947 0.022338707 0.9750907
000080 b7 31 c9 3c d9 57 be 3c 13 d5 b1 3c 3a e0 e5 bc
       0.024559839 0.023235248 0.021708047 -0.028061021
000090 c2 cc a8 3c f7 52 ed bc 27 5b 6b bc da 7a 17 be
       0.020605449 -0.028970225 -0.014364994 -0.14792958
0000a0 c8 ed c4 3c f7 07 d8 3c 48 9f 49 bd c2 00 bb bc
       0.024039164 0.026370985 -0.049224168 -0.02282751
0000b0 87 8a e8 bc 99 e6 9b 3c 3a dd c4 3c 61 a6 f8 bc
       -0.028386367 0.019030856 0.02403127 -0.030352773
0000c0 0e ed 97 3c 35 5c c8 3c 9a ee b1 3c 34 61 b7 3c
       0.018545654 0.02445803 0.02172022 0.022385217
0000d0 13 9f e4 bc d9 0f 6f 3f b0 3b c3 3c 3a 41 d2 bc
       -0.027907884 0.93383557 0.023832172 -0.025665868
0000e0 97 1d b0 3c e1 a9 c2 bc cf 8e d2 bc 6c 55 c7 bc
       0.021498485 -0.023762645 -0.025702862 -0.024332725
0000f0 c7 4a c8 bc 16 ea 9f 3c 97 46 d9 bc 18 4c b1 3c
       -0.02444972 0.0195208 -0.026522918 0.02164273
000100 8f 8d a8 bc f2 57 25 bd b8 ce 1d bd 11 a5 a4 3c
       -0.020575313 -0.040367074 -0.03852722 0.020098241
000110 0c e4 13 bd 9c f1 cf bc 12 23 af bc 79 4c d3 bc
       -0.036106154 -0.025383763 -0.021379028 -0.025793301
000120 b4 7b b1 3c 08 14 23 3d cc ac 05 bd c9 2e d3 bc
       0.021665432 0.039814025 -0.032635495 -0.025779145
000130 a9 92 dc bc 30 6c c3 bc c7 02 c2 bf e4 28 bf 3c
       -0.026925402 -0.023855299 -1.5157098 0.023334928
000140 44 21 b3 3c 50 98 b6 3c 53 e2 8c 3e f5 b5 d7 bc
       0.021866448 0.022289425 0.27516422 -0.026331881
000150 5e 96 ae 3c bb 7e 27 bd c0 5a d8 3c 1f 9b b2 3c
       0.021311935 -0.040892344 0.02641046 0.021802483
000160 9b 72 04 bd cc 83 3b 3d fc 7e bc 3c b9 1d d8 3c
       -0.03233586 0.04577999 0.02300977 0.02638136
000170 85 e1 b0 3c a6 c3 ca 3c 40 4a a8 3c 30 16 9d 3c
       0.021591911 0.024751496 0.020543218 0.019175619
000180 03 d6 a1 3c 62 e6 c1 bc 6a 91 ef bc 6f db be bc
       0.019755369 -0.023669425 -0.029244144 -0.023297993
000190 11 17 d4 bc d2 8e 69 3e 2f f9 bc 3c 2c 71 b4 3c
       -0.025889905 0.22808388 0.023068039 0.02202662
0001a0 a0 e9 77 3f 91 de ca 3c 13 2c bc 3c 0e 88 d6 bc
       0.9684086 0.024764331 0.022970235 -0.026187923
0001b0 ea 9a b2 3c 98 2b 7a 3d 5f 80 e3 bc 3c 52 bb 3c
       0.021802384 0.06107673 -0.027771173 0.02286636
0001c0 ce b8 22 bd ea ac 24 bd df af 18 bd a6 23 f4 bc
       -0.039727025 -0.040203966 -0.0372771 -0.029802155
0001d0 e5 3c 51 3f 26 96 2c bd a3 4c bf 3c 59 aa 9c bd
       0.8173354 -0.04213538 0.023351973 -0.07649679
0001e0 90 d9 b2 3c 64 4c d3 bc 15 99 d2 3c 68 bc bc 3c
       0.021832258 -0.025793262 0.02570776 0.023039058
0001f0 f2 c3 ae be 26 02 a9 3c ba d6 c1 3c 2f 72 ae 3c
       -0.3413387 0.020630907 0.02366196 0.021294681
000200 79 7f ab bd 10 8c b1 3c c0 6e c9 bc 87 79 b3 3c
       -0.08373923 0.021673232 -0.024588943 0.021908535
000210 92 4e 11 be da 5f ae 3c e5 0e a3 3c bd ac da bc
       -0.14190128 0.02128594 0.019904563 -0.026693696
000220 7d 1a b8 be b8 08 02 bd 05 ae bc 3c a6 3c b1 3c
       -0.3595771 -0.031746596 0.023032198 0.021635365
000230 9c bb d9 3c 32 c0 d9 bd 2e cc d6 bc e1 43 d0 3c
       0.026578717 -0.106323615 -0.026220407 0.025422992
000240 ec 4e f0 bc da b0 c6 3c 3f ca ee be 15 49 b1 3c
       -0.029334508 0.024254251 -0.46638677 0.021641294
000250 5b 8c cd bc 47 a5 9e 3e 44 2a a0 3c e0 ee a8 3c
       -0.02509134 0.30985472 0.019551404 0.020621717
000260 b1 0d d7 bc 05 48 09 3e 15 ee d1 bc 7d e3 bd bc
       -0.026251646 0.1340638 -0.025626222 -0.023179764
000270 4e c9 be bc 32 74 d8 bc e1 41 dc bc 69 4f 09 bd
       -0.023289349 -0.026422594 -0.026886882 -0.033522997
000280 75 39 b4 3c c7 c8 b3 3c 37 6e be bc 85 58 bd 3c
       0.022000054 0.021946324 -0.023245914 0.023113498
000290 f2 36 cb bd d3 3c e4 bc dd 67 c5 bc e8 f3 de bc
       -0.09922589 -0.027861034 -0.024097377 -0.027215913
0002a0 cb 97 38 bd 6a aa c7 bc f1 ef b3 3c 20 56 0c bd
       -0.045066636 -0.024373252 0.021964999 -0.034261823
0002b0 fa 80 ac 3c 6a 1f a7 3c ac 36 b9 3c fe 8c bb 3c
       0.021057595 0.020400722 0.022609077 0.022894379
0002c0 9b 87 c7 bc a7 b4 c4 bc c0 61 c3 3c ea 78 ba 3c
       -0.024356654 -0.024011923 0.023850322 0.022762734
0002d0 b4 07 c0 3c ac b7 dc bc e3 68 bf 3c 0a db bc 3c
       0.023441173 -0.02694305 0.023365444 0.023053665
0002e0 8a e5 f2 3c cf 55 b1 3c 64 f0 c1 3c 65 c2 b3 3c
       0.029650468 0.021647362 0.023674197 0.02194328
0002f0 a7 b3 bd 3c 99 0f 67 bd 98 95 eb bc 2a 2b e8 bc
       0.023156954 -0.05641136 -0.028757855 -0.028340895
000300 83 39 c3 3c 4e 41 87 3d e4 ee bc 3c db db c5 3c
       0.023831135 0.06604253 0.02306313 0.024152687
000310 6f 44 cc bc 5e 3a cb bc c8 3e 99 bc f6 8e 10 bd
       -0.024934975 -0.024808105 -0.018706694 -0.03529259
000320 cf df af 3c 3f 53 fa bd 74 77 e6 bc d7 ba be 3c
       0.021469025 -0.12222909 -0.028133132 0.023282452
000330 e4 5e 97 3e 3e 5f bf 3c f9 4a ce bc 0b fb ae 3c
       0.29564583 0.023360845 -0.025182234 0.021359941
000340 9a 22 e5 bc 9b 50 dd 3e c6 5f d1 3c 97 d6 bc bd
       -0.0279706 0.4322556 0.025558364 -0.09220617
000350 a3 57 c6 bc b0 70 b5 3c a6 18 f6 bc 6d cb d5 bc
       -0.02421171 0.02214846 -0.03004105 -0.026097978
000360 68 18 bf 3c ae 1d ca 3c 18 82 d8 bc 98 41 b4 3c
       0.023327067 0.024672356 -0.026429221 0.022003934
000370 e7 dd d5 bc 21 9c c3 3c 50 9c 6e bd fc 19 fd 3c
       -0.026106788 0.023878159 -0.05825454 0.03089618
000380 23 01 6e bd 7d 2e b8 bc 60 31 d7 3c b3 25 d8 bc
       -0.058106553 -0.022483105 0.026268661 -0.026385164
000390 10 6f c8 3c 8a 32 c2 3c ce 0a ce 3c 46 bd 20 bd
       0.024467021 0.02370574 0.025151636 -0.039243005
0003a0 02 ba 08 bd 84 37 bd 3c 33 09 58 3d 96 15 02 bd
       -0.033380516 0.023097761 0.052743148 -0.031758867
0003b0 32 c7 bb be c5 c9 8a be f1 ba d2 bc f6 05 6f bf
       -0.3667541 -0.27107063 -0.025723906 -0.9336847
0003c0 1b 05 d7 bc 6c 7f de 3d 49 4d be 3c cf 5d e1 bc
       -0.026247552 0.108641475 0.023230212 -0.027510552
0003d0 75 b6 14 be 51 e5 f8 bc d8 24 78 3d 02 39 51 bd
       -0.14522727 -0.030382784 0.060582012 -0.051079758
0003e0 05 7a d1 bc 8a 19 b3 3c 54 55 4e bf 52 c7 c4 bc
       -0.025570879 0.021862764 -0.8059895 -0.024020825
0003f0 fa d3 bb 3c ed 83 bb bc e6 3f d9 bc ba 7d d2 3c
       0.022928227 -0.022890056 -0.026519727 0.025694717

model.model.3.bias f4 [2]
000000 c3 2f 87 3e ca f9 b2 bf
       0.26403627 -1.398248

model.lat_embed.weight f4 [160, 5]
000000 04 42 59 3f 87 07 91 3e f6 45 3a 3f 78 e2 c7 ba
       0.84866357 0.28326055 0.72763 -0.0015249988
000010 3b d5 45 be be 06 5e 3f 72 25 d5 bc e3 81 33 3f
       -0.19319622 0.8672904 -0.026018832 0.70120066
000020 53 16 80 bd 29 aa aa be 65 67 61 3f 71 ba 73 be
       -0.06254258 -0.33332947 0.8804839 -0.2380159
000030 b1 45 46 3f 39 90 c7 bb b4 3e b4 be f8 6e 68 3f
       0.7745009 -0.0060901907 -0.3520409 0.90794325
000040 a1 37 14 3e 92 cb 15 3f f8 c1 2b 3e 4c 2a ee bd
       0.14474346 0.5851375 0.16773212 -0.11629161
000050 ef 48 4a 3f 7a a8 d9 bd 01 b4 58 3f b2 9b ee 3c
       0.7901754 -0.106278375 0.84649664 0.029126976
000060 8d 5e 78 be e9 18 20 3f b6 48 17 be 72 db 91 3f
       -0.24254818 0.6253801 -0.14773831 1.1395094
000070 55 9c 85 3d 9a 89 c2 be ff 9a 2f 3e 48 4b 6f be
       0.065239586 -0.37995607 0.1714897 -0.23368561
000080 b0 c7 9f 3f 7c ee c2 3d 1b bd 09 bf 41 6c f8 3c
       1.2482815 0.095181435 -0.5380418 0.030325057
000090 ec fd cb be 8a bc 94 3f 82 93 37 3e 78 44 dc be
       -0.39842165 1.1620038 0.17927364 -0.43020988
0000a0 71 cd 91 3d 8b ee bc bc 09 20 92 3f df 2a f3 bd
       0.07119263 -0.023062965 1.1416026 -0.118734114
0000b0 8a a7 6d be c1 82 9a bd 26 40 fc 3d 98 a5 8d 3f
       -0.23208442 -0.075444706 0.12316923 1.106616
0000c0 dd 65 07 be 9f 0d 9d bd d4 7c 55 be 30 b8 b5 be
       -0.13222452 -0.07668614 -0.208484 -0.35492086
0000d0 ac 18 9a 3f 64 96 98 bd 71 93 84 be dc 8d 9b be
       1.2038779 -0.0745056 -0.2589374 -0.30381668
0000e0 80 ce c3 be 57 e8 9b 3f 27 c1 a4 bc 5e c7 6e be
       -0.38243484 1.218028 -0.020111633 -0.2331824
0000f0 b9 66 ea be 93 6b a8 be bd 9d 9e 3f 51 da c3 bd
       -0.45781496 -0.32894573 1.2391888 -0.09563125
000100 ae 5c 78 be 40 d2 e1 be f7 b8 96 be b1 c3 99 3f
       -0.24254104 -0.4410572 -0.29437992 1.2012845
000110 07 f4 39 be 52 86 6b be 19 a6 f6 be 1b ec 6f be
       -0.18159495 -0.23000458 -0.48173597 -0.23429911
000120 31 ee 93 3f 90 95 79 be 86 46 ac be bc b1 11 bf
       1.1557065 -0.2437346 -0.33647555 -0.56911826
000130 78 58 b2 be 70 57 8e 3f 50 b9 a3 be 41 3e 6f be
       -0.3483312 1.1120434 -0.3197732 -0.23363592
000140 fb da 0e bf 3b 95 18 bf ab fc 95 3f 7d ec 62 be
       -0.5580289 -0.5960271 1.1717733 -0.22160526
000150 c7 f3 c0 be c6 97 e5 be 20 51 8b be ea ff 8f 3f
       -0.37685987 -0.44842356 -0.2721033 1.1249974
000160 6c 17 f3 be 10 61 20 be cc db 06 bf 3f 32 4b be
       -0.47478807 -0.15662026 -0.52679133 -0.19843386
000170 88 7c 77 3f 49 9f 09 bf 93 6c 80 be 9c 56 04 bf
       0.96674395 -0.53758675 -0.25082836 -0.51694655
000180 9e b0 d6 be e1 32 7c 3f 7f fd 0b bf 87 63 a3 be
       -0.41931623 0.98515135 -0.5468368 -0.3191187
000190 0f f0 e3 be 7c 72 b2 be e3 40 78 3f 1d 4f 1c bf
       -0.44519088 -0.3485297 0.9697401 -0.6105822
0001a0 8a d1 2b be 78 98 b5 be f2 a9 b0 bd ba 48 72 3f
       -0.16779152 -0.35467887 -0.086261645 0.9464222
0001b0 f3 8b 11 bf d3 8e 3a 3e 5a cd 00 bf 86 02 ac be
       -0.5685417 0.18218546 -0.5031334 -0.33595675
0001c0 d4 a2 72 3f 00 94 11 bf 10 5e 5a bb ae 29 f9 be
       0.94779706 -0.56866455 -0.0033320226 -0.48664612
0001d0 32 88 c9 be 33 24 5b 3f b4 18 b5 be 12 7f 4d 3e
       -0.3936172 0.8560211 -0.3537041 0.20068005
0001e0 04 4d 99 be 46 4a dc be e5 43 7d 3f c2 3d 9e bd
       -0.2994157 -0.43025416 0.98931724 -0.07726623
0001f0 97 c7 dc 3e e9 54 ba be 74 e2 17 bd ed 9c 76 3f
       0.43121025 -0.36392906 -0.037081197 0.963332
000200 c4 76 70 be 92 41 0e 3f 98 aa 9e be ab ba 4a bc
       -0.23482805 0.555688 -0.30989528 -0.012373607
000210 33 74 6f 3f 60 a8 46 be ec ca 21 3f 58 3d 9d 3c
       0.9353668 -0.19400167 0.6320026 0.01919429
000220 be 1d 42 3d 7f b6 95 3f 0c 19 a7 3d 58 d2 23 3f
       0.047391646 1.1696318 0.08159074 0.63992834
000230 36 a3 7d 3d c2 15 21 be fe 0b 9b 3f 27 63 5e 3d
       0.06192323 -0.15730956 1.2113035 0.054293778
000240 01 1c 1a 3f 6d 74 ce 3e e9 fa bc be f0 02 75 3f
       0.6019898 0.403232 -0.3691018 0.9570761
000250 8e d6 12 3e a7 01 26 3f d5 dc 92 39 d4 ca 8b 3c
       0.14339659 0.6484627 0.00028011823 0.01706449
000260 41 15 74 3f 3c 06 b9 3e 4a 4b 4a 3f 7d 69 70 3e
       0.9534493 0.3613757 0.7902113 0.2347774
000270 07 38 71 bf 31 38 73 3f 34 b0 aa 3d 31 04 73 3e
       -0.94226116 0.95007616 0.08334389 0.23732068
000280 8a ed 32 3f bf f1 83 bf 65 74 42 3f e3 c3 a0 3e
       0.69893706 -1.030815 0.75958854 0.3139945
000290 13 1f de 3e d8 b5 0f 3f a6 af 06 bf 9d 7f 3d 3f
       0.43383083 0.56136847 -0.5261177 0.7402285
0002a0 49 42 05 3f 44 65 47 3f eb 75 88 3e 9e c2 cd 3a
       0.5205427 0.77888894 0.26652464 0.0015698259
0002b0 7e 8b 50 3f ef e1 07 3f 0a 56 87 3f 07 96 62 3e
       0.8146285 0.5307912 1.0573132 0.22127543
0002c0 55 47 8d 3e 19 64 51 3f 69 b5 d9 3e 77 2b 8f 3f
       0.27593485 0.8179336 0.42521217 1.118514
0002d0 4f 33 19 3e e5 92 d3 3e 06 33 55 3f a6 16 9a 3e
       0.14960979 0.4132301 0.8328098 0.30095404
0002e0 47 0b 99 3f 91 ec 45 3e 5c a4 0c 3f 35 fb 37 3f
       1.1956567 0.19328524 0.5493829 0.71867687
0002f0 b8 a8 b9 3e b1 2d a2 3f 70 30 65 3e b7 13 1a 3f
       0.36261535 1.2670194 0.22381759 0.6018633
000300 3f 55 15 3f 1a 22 c3 3e 0f aa 9f 3f 14 06 bc bb
       0.583332 0.38111955 1.2473773 -0.0057380293
000310 df 18 2b 3f 3c ff 02 3f ae b7 78 bd 61 10 83 3f
       0.66834825 0.51170707 -0.060722046 1.0239373
000320 8b d7 12 be 5f e3 36 3f a2 24 ab 3e 71 21 c6 be
       -0.14340036 0.7144069 0.33426386 -0.3869739
000330 41 d1 5d 3f 52 55 fc 3e 76 0b 8a bf dd 0c 49 3e
       0.8664742 0.49283844 -1.0784748 0.19633813
000340 7d f7 f3 be 62 d7 dc bd 24 c4 8b be bd d3 50 3f
       -0.47649756 -0.107832685 -0.2729808 0.81573087
000350 7e 29 fb 3e c4 7a 80 bf 6f 6e 10 3f 01 ed 13 3f
       0.49055094 -1.0037465 0.5641851 0.57783514
000360 01 0c 84 bf 52 5f d4 3d 71 9f e8 be 4d 84 28 be
       -1.0316163 0.103697434 -0.45434144 -0.16456719
000370 0b 2b 0c 3f bc 96 84 bf 7d c8 4d 3d 60 07 08 bf
       0.5475318 -1.03585 0.05024003 -0.53136253
000380 6c 16 18 be df 67 23 be 5c 30 7f 3f 1d b9 d9 3e
       -0.14852303 -0.15957592 0.99683166 0.42524043
000390 5e b1 2c bf c9 97 38 3f d4 8f 09 3f 60 c8 79 bf
       -0.6745814 0.72106606 0.5373509 -0.97571373
0003a0 aa 06 94 3d e6 c0 27 bf 5b 57 74 be c6 21 69 be
       0.072278336 -0.65528715 -0.23861448 -0.2276679
0003b0 d2 89 61 3f 0b f5 52 3e e0 3d 78 bf d3 f5 00 3f
       0.8810092 0.20601289 -0.96969414 0.503751
0003c0 aa c0 09 3f 8b 1f 72 bf e3 37 d6 3d af 31 27 bf
       0.5380961 -0.9457938 0.10459878 -0.65310186
0003d0 ec 82 84 be 66 23 d4 3e 9a 0a 61 bf 7a c5 86 3d
       -0.25881135 0.41433257 -0.879068 0.065806344
0003e0 19 a1 50 bf d0 9b 8c be 44 4c 28 be 13 68 0f 3f
       -0.81495816 -0.27462626 -0.16435343 0.5601818
0003f0 f3 59 a7 bd fc 03 9c bf 32 05 bb 3e f0 0e 5a 3e
       -0.08171453 -1.2188716 0.365274 0.2129476

model.lon_embed.weight f4 [220, 5]
000000 fa dc 1b 3e 09 59 2b 3e 1c f8 74 bf c4 58 69 3f
       0.15221015 0.16733183 -0.95691085 0.9115107
000010 4f 39 8e 3e 55 3f b5 be 4d 24 34 3f d5 9f 90 3f
       0.27778098 -0.3539988 0.7036789 1.1298777
000020 0f e5 3c c0 23 31 10 3d f3 e5 e3 3f 6e 28 f1 be
       -2.9514806 0.03520311 1.780455 -0.47101158
000030 f2 91 e0 be ba de a0 be ad 4a b8 3f 74 8c 4e 3f
       -0.43861347 -0.31419927 1.4397789 0.80683064
000040 7c d4 3d 3f 99 c2 5d 3f d9 aa 53 bf 37 d3 98 bf
       0.7415235 0.8662506 -0.8268257 -1.1939458
000050 8d d7 58 be 62 de c4 3f 7a c2 25 3e c9 24 a7 bf
       -0.21175976 1.5380366 0.16187468 -1.3058101
000060 29 8b 5f 3e 81 50 ab 3f 67 12 4f 40 aa 64 db 3e
       0.21830429 1.3383943 3.2354982 0.42850238
000070 3d 43 81 bf 0a 19 79 be d5 97 68 3c 88 6d a8 bf
       -1.0098644 -0.24325958 0.014196356 -1.3158426
000080 a1 74 59 3e f5 bd 7c 3f 60 01 98 be 6a 4a ba bf
       0.21235897 0.9872735 -0.2968855 -1.4553959
000090 12 7a 5a bc d6 6c 33 3f 5b dd a3 3f d6 e4 a1 3f
       -0.013334768 0.70087945 1.2801927 1.264796
0000a0 1e cf a4 3e 59 85 5f bf ba 89 e0 3f 50 69 a9 3e
       0.32189268 -0.8731285 1.7542031 0.3308816
0000b0 2b 8d 35 bf 27 43 f3 be c3 75 69 3f 6e 33 72 3f
       -0.7091853 -0.4751217 0.91195315 0.94609725
0000c0 45 b4 cf bf 85 c3 fc bd 74 31 aa bd 0d e4 3f bf
       -1.6226889 -0.1234198 -0.08310214 -0.7495735
0000d0 cc b9 2f bf 2c 57 0f bf 68 bd 8f bf 8d 36 9b be
       -0.6864288 -0.5599239 -1.1229677 -0.30315056
0000e0 32 c7 44 be b4 57 b3 bf 85 a5 34 bf 3e 3a f3 be
       -0.19216612 -1.401114 -0.7056506 -0.47505373
0000f0 74 67 8e 3e c0 33 89 bf 8d 4c 78 bf 55 1f 50 bd
       0.27813303 -1.0718918 -0.9699181 -0.05081113
000100 83 47 57 be 9e 89 87 3f d2 fe 65 bf b5 fd d1 be
       -0.21023373 1.0588872 -0.8984195 -0.41013876
000110 c2 4d dd be 6e 36 41 bf b9 98 40 be 2a e5 48 3e
       -0.43223387 -0.7547368 -0.18808259 0.19618669
000120 64 67 c3 bf 31 6f 14 bf 38 a4 d7 be a1 16 70 3f
       -1.5265927 -0.57982165 -0.42117476 0.9378453
000130 07 28 50 bf e1 7a 46 bf 0c eb 51 bf c9 b8 04 bf
       -0.81311077 -0.7753125 -0.8199928 -0.5184446
000140 da 13 70 3f 34 c5 62 bf bb c2 1b bf 6d e2 e3 be
       0.9378029 -0.8858216 -0.6084401 -0.44508687
000150 7c eb c4 be 66 0f 55 3f 05 40 6d bf 83 74 41 bf
       -0.3846091 0.8322662 -0.9267581 -0.7556841
000160 82 ca 9e be b6 18 c1 be 85 2c 78 3f 99 fa 78 bf
       -0.31013876 -0.37714165 0.9694293 -0.9725738
000170 67 49 3e bf 36 b9 8a be 3a 74 9f be 26 c8 a3 bd
       -0.74330753 -0.2709443 -0.3114336 -0.0799716
000180 3e 21 d8 3d 8f 2f a6 bf d3 da be be 96 f9 2e bf
       0.105532154 -1.2983264 -0.37276325 -0.6834959
000190 15 9b 44 3f 83 2d 45 bf 01 d6 44 bf 63 0d 6d be
       0.76799136 -0.7702257 -0.76889044 -0.23149638
0001a0 4b 19 06 bf f5 9d 32 3f 3c 73 37 bf 80 25 3f bf
       -0.52382344 0.69772273 -0.7166021 -0.74666595
0001b0 a8 c6 47 be 89 26 16 bf 8f f3 15 3f 07 42 24 bf
       -0.19509375 -0.5865255 0.58574766 -0.6416325
0001c0 75 33 32 bf a7 31 88 be 2e bb 3d bf 95 ed a0 be
       -0.6960977 -0.26600382 -0.7411374 -0.3143126
0001d0 f8 70 7b 3c 35 5c 97 bf 39 3e 91 be 9a 67 6d bf
       0.015346758 -1.1825014 -0.28367785 -0.9273621
0001e0 40 6c 02 3f 9a e0 39 bf f3 ac 49 bf 01 9b 8e be
       0.50946426 -0.7260834 -0.78779525 -0.27852634
0001f0 e5 c0 4d bf 82 a2 ea 3e 4d 57 31 bf 35 9c 61 bf
       -0.8037246 0.4582711 -0.69273835 -0.8812898
000200 92 4d 2a be a2 5c 4b bf 0b f5 b7 3e 23 ea b6 be
       -0.16631153 -0.7943822 0.3592914 -0.35725507
000210 71 fa 62 bf 64 8f d4 be 3b ca 78 bf 71 1c ea be
       -0.88663393 -0.41515648 -0.9718358 -0.45724824
000220 95 40 d1 3e 9c c4 ad bf b6 55 9c be 1c 84 68 bf
       0.40869585 -1.3575625 -0.30534142 -0.9082658
000230 61 5c 3c 3e 1e ce d1 be b3 84 48 bf dc 4b a6 be
       0.18394615 -0.40977567 -0.7832748 -0.3247975
000240 34 0f 8a bf 0f ed 30 3e 5a aa ce be 75 8a 5b bf
       -1.078589 0.1727793 -0.40364343 -0.85758144
000250 af 94 a9 be b6 b7 89 bf 45 8f 80 3e 28 00 e2 be
       -0.3312125 -1.0759189 0.25109306 -0.44140744
000260 df 37 52 bf 37 7d b5 be 27 d3 8a bf 5c 2b 97 3e
       -0.821165 -0.35447094 -1.0845689 0.29525268
000270 56 22 0b bf 51 32 4f bf 2a 91 da be d7 99 87 bf
       -0.5434927 -0.8093615 -0.42688876 -1.0593823
000280 65 ed a6 3e bb 3b 1b bf eb 99 38 bf ec 5b e6 be
       0.32602993 -0.60638016 -0.7210986 -0.44992006
000290 ed 19 88 bf a1 22 9d 3e 49 04 48 bf 30 9d 3d bf
       -1.0632912 0.30690482 -0.7813154 -0.74067974
0002a0 39 a2 14 be 7c 87 52 bf de c2 80 3e 35 3b 62 bf
       -0.14515008 -0.8223798 0.25148672 -0.8837159
0002b0 cb 84 40 bf b8 6f 2f be ff eb 63 bf aa bd 41 3e
       -0.75202626 -0.17132461 -0.89031976 0.18920007
0002c0 10 e0 5e bf 69 4f 48 bf 9b 8c 4e be 52 12 38 bf
       -0.8706064 -0.7824617 -0.20170824 -0.71902955
0002d0 90 73 bc 3d fb 41 60 bf 27 a0 4d bf d0 b7 10 be
       0.09201729 -0.8760068 -0.803225 -0.14132619
0002e0 17 54 39 bf 8a 72 be 3b 08 8c 38 bf 77 d6 52 bf
       -0.72393936 0.005811994 -0.7208867 -0.823585
0002f0 af 7c cb be 96 6b 75 bf 68 e4 0e 3d be 10 5d bf
       -0.39743564 -0.9586729 0.034885794 -0.8635367
000300 4b 27 3f bf 67 42 4a be b5 30 62 bf 5a 1e 34 bc
       -0.7466933 -0.19751893 -0.8835557 -0.0109935645
000310 24 b4 50 bf 05 91 3e bf 1b 29 86 be 94 0d 5c bf
       -0.8152487 -0.7444003 -0.26203236 -0.8595822
000320 4e c2 86 bc de 42 4a bf 8b 16 37 bf ad c0 9b be
       -0.016450074 -0.7900828 -0.7151877 -0.30420437
000330 5f 6b 6b bf 68 fd 83 bd 0c 21 26 bf 04 49 26 bf
       -0.9196071 -0.06444818 -0.64894176 -0.64955163
000340 e0 15 7f be 26 d3 51 bf 9b 97 99 3d 79 93 48 bf
       -0.24910688 -0.8196281 0.074996196 -0.78350025
000350 c6 18 22 bf 34 1f c2 be 98 cd 4d bf d4 6c 80 bd
       -0.6331905 -0.3791443 -0.80391836 -0.06270757
000360 a3 f4 96 3e e2 3c 9f bf ca 03 40 bf 61 d8 1d bf
       0.29483518 -1.2440455 -0.7500578 -0.61658293
000370 d4 79 be 3e 85 12 23 be 01 2a 69 bf 37 25 49 bf
       0.37202322 -0.15925033 -0.9107972 -0.7857241
000380 c0 6c 34 bf b3 4d ca 3d 66 7c 2c 3e 31 03 9d bf
       -0.7047844 0.09878101 0.16844329 -1.2266599
000390 c1 41 49 bf db f0 0e bf 97 2c a2 3d 76 13 22 3e
       -0.7861596 -0.55836266 0.07918661 0.15827736
0003a0 a7 59 83 bf 9e cd 47 bf 7e b4 37 bf 5d ee 4f 3c
       -1.0261735 -0.7804812 -0.71759784 0.012691108
0003b0 b3 e3 84 3e 43 27 81 bf fb 3e 4b bf 43 f6 32 bf
       0.2595497 -1.0090107 -0.79392976 -0.69907016
0003c0 90 6b f1 3d d4 5a 7b 3e 2a d7 7d bf b3 ed 4f bf
       0.11788094 0.24546367 -0.9915644 -0.81222075
0003d0 e7 ab 27 bf 2b bd 10 3e 0f 25 f7 3d f4 54 68 bf
       -0.6549668 0.14134662 0.12067615 -0.9075463
0003e0 50 43 4c bf c0 33 17 bf ea 60 0d 3e 85 17 ba 3d
       -0.7979021 -0.5906334 0.13806501 0.09086517
0003f0 e2 49 6a bf d8 8e 51 bf 1b d6 11 bf 88 f4 65 3e
       -0.91518986 -0.8185859 -0.56967324 0.22456563

exp_avg f4 [512, 15]
000000 ef 68 ad b8 f6 c9 10 38 a4 af 1e 38 91 e0 be b8
       -8.268828e-05 3.4520366e-05 3.7833714e-05 -9.101735e-05
000010 9a 43 02 b9 5a ef c4 37 77 77 54 b8 f7 a3 87 b8
       -0.0001242295 2.3476478e-05 -5.0656e-05 -6.4678425e-05
000020 16 55 51 b8 ff c8 ff b4 29 1c b1 38 49 8f 85 38
       -4.9908725e-05 -4.7643695e-07 8.445263e-05 6.368623e-05
000030 ec 1c e1 36 b4 1b 11 b7 3a 5b b9 b7 df bc 5d b8
       6.7088895e-06 -8.649124e-06 -2.20962e-05 -5.2866406e-05
000040 ba 88 20 b8 53 8e 98 37 56 18 81 b8 b6 86 a4 b8
       -3.827431e-05 1.8186087e-05 -6.155732e-05 -7.845221e-05
000050 24 6d 78 37 40 1e 82 b5 5a b0 8a b7 18 5b 0b b8
       1.4807363e-05 -9.694559e-07 -1.6533002e-05 -3.322502e-05
000060 3f 05 f4 b7 38 ea fc 37 61 39 67 38 5a 00 b5 36
       -2.908951e-05 3.0149808e-05 5.512813e-05 5.3942613e-06
000070 cc c4 51 36 d5 38 3a 36 2e 19 2f b8 1b d2 15 b8
       3.1257978e-06 2.774924e-06 -4.17467e-05 -3.5720044e-05
000080 0e 62 65 37 c9 ff 82 b7 54 72 02 39 2d db 2a b6
       1.3672294e-05 -1.5616317e-05 0.00012440357 -2.545955e-06
000090 bf 5b 2e 38 6f 91 d0 37 f2 70 1a b7 2d ec 13 b7
       4.1570278e-05 2.4863255e-05 -9.205412e-06 -8.816872e-06
0000a0 ae 31 f2 b7 b8 ff 84 b7 80 5d e7 37 43 e9 44 b8
       -2.8871782e-05 -1.5854705e-05 2.7580885e-05 -4.6947283e-05
0000b0 41 14 26 38 5a 8a d7 b8 62 e4 9b 38 2c 53 75 b8
       3.9596347e-05 -0.00010277769 7.4335156e-05 -5.849001e-05
0000c0 c2 07 13 b9 a0 35 f6 b8 05 fc df b6 89 f6 7f b7
       -0.00014021902 -0.000117401825 -6.675257e-06 -1.5256585e-05
0000d0 10 0e 3b 37 e3 9c 82 37 94 56 ad b6 8e e2 14 37
       1.1149343e-05 1.5570264e-05 -5.165881e-06 8.874236e-06
0000e0 d5 f4 41 36 5d ac fa 37 f8 3a cb b6 ed 58 ea b7
       2.8901752e-06 2.9882585e-05 -6.0567363e-06 -2.7936383e-05
0000f0 b5 78 7c 38 7e 72 06 b9 e7 25 bd b7 68 1a a9 38
       6.01939e-05 -0.00012821888 -2.2548205e-05 8.0634665e-05
000100 b6 24 1b 39 01 e1 ee b7 6d 64 01 38 73 eb df 36
       0.00014795628 -2.8476587e-05 3.0849526e-05 6.673328e-06
000110 d3 0a cf b8 2b c4 c1 35 12 ab 22 b8 6b 38 c0 b7
       -9.872545e-05 1.4436713e-06 -3.878313e-05 -2.2914455e-05
000120 a1 b8 9b 38 fc b3 28 b8 1e 51 df 37 17 c6 4a b7
       7.425366e-05 -4.0221945e-05 2.6621445e-05 -1.208626e-05
000130 16 6a e3 b6 30 92 3e b8 c0 fd 56 b7 bb 7e bb 38
       -6.777477e-06 -4.5435678e-05 -1.2814475e-05 8.94046e-05
000140 0f 3a 16 36 2c 19 fb 37 d9 3b 70 b6 f5 09 41 b7
       2.2385536e-06 2.9933253e-05 -3.5797623e-06 -1.1506015e-05
000150 a8 a7 7c b6 ba 40 16 b8 43 22 b2 b6 e9 cb f2 35
       -3.7648515e-06 -3.5823068e-05 -5.308802e-06 1.8089751e-06
000160 f8 70 c5 b6 90 08 80 38 dd 2f 29 39 3c d2 b3 b7
       -5.884209e-06 6.1051105e-05 0.00016134926 -2.143636e-05
000170 18 ae 64 b7 3c a1 02 39 bf 1f ab 38 f7 0c c7 38
       -1.3630393e-05 0.0001245783 8.1598286e-05 9.491474e-05
000180 a8 59 be b6 6a 4d 01 38 61 f4 5a 38 4b 38 e8 38
       -5.6728786e-06 3.0828094e-05 5.2202846e-05 0.000110731075
000190 29 88 9d b7 15 af 34 b8 88 ad bf b7 26 c6 b3 b7
       -1.8779263e-05 -4.3078402e-05 -2.2849781e-05 -2.1430733e-05
0001a0 67 65 9a b8 50 23 32 b7 e6 b3 57 b8 25 cb 02 38
       -7.36218e-05 -1.0617849e-05 -5.1427538e-05 3.118361e-05
0001b0 2c d9 04 36 7e 3d 88 38 e8 00 c7 b7 42 9f 58 38
       1.9795943e-06 6.496439e-05 -2.372307e-05 5.1646733e-05
0001c0 ea 09 41 b8 55 4f d9 b7 07 0c b0 b6 1f 50 c7 b7
       -4.602402e-05 -2.5905358e-05 -5.246609e-06 -2.3759958e-05
0001d0 2b 71 87 b7 66 c4 10 38 40 1c 92 b7 5a 2b 0a 35
       -1.6145952e-05 3.4515186e-05 -1.7417711e-05 5.147209e-07
0001e0 a6 41 23 b8 48 f9 a5 b7 ce c2 05 38 49 ac d4 b7
       -3.892337e-05 -1.9785613e-05 3.1891097e-05 -2.5352596e-05
0001f0 40 60 47 38 52 c4 50 37 1f 1d be b6 f3 53 ab b7
       4.7534937e-05 1.24434755e-05 -5.6658314e-06 -2.042388e-05
000200 46 e6 13 b7 19 9a bf b6 a9 23 21 b8 a1 50 93 b7
       -8.8154975e-06 -5.710183e-06 -3.8418602e-05 -1.7561311e-05
000210 45 cd 16 b8 52 1a 5f b8 2f bd 23 38 0f da ca 35
       -3.595396e-05 -5.3191856e-05 3.903842e-05 1.5113636e-06
000220 be e5 a2 b7 e5 75 2c 38 3b 9f a8 b7 72 e5 b9 b7
       -1.9418887e-05 4.1117793e-05 -2.0101308e-05 -2.2160562e-05
000230 9b c4 8a 37 89 1b 49 b8 c1 82 97 b8 e5 4b bb b8
       1.6542434e-05 -4.794778e-05 -7.224596e-05 -8.930991e-05
000240 87 f5 ae 37 0f a4 93 38 d0 d4 36 38 d4 7d c1 35
       2.0856749e-05 7.0400645e-05 4.359038e-05 1.4416241e-06
000250 e8 d6 c1 b7 cb a7 2d b7 03 70 d3 b9 a2 41 81 38
       -2.3107466e-05 -1.0350671e-05 -0.0004032851 6.1634244e-05
000260 3d 34 4f b8 f6 8c 9d b9 03 a4 c4 b9 41 74 ef b7
       -4.9401297e-05 -0.00030050398 -0.00037506231 -2.8545155e-05
000270 5f df 46 38 3a 7b 11 b8 a8 9f 8d 38 49 0b ca b8
       4.741491e-05 -3.4685458e-05 6.753142e-05 -9.6342126e-05
000280 c4 e0 61 b7 70 fc 83 37 38 06 75 38 fa 79 c3 37
       -1.3463377e-05 1.5733967e-05 5.8418344e-05 2.3302611e-05
000290 4a 52 d1 35 86 2c 19 b7 10 cb 55 b8 fa 5f d1 b6
       1.5595663e-06 -9.129877e-06 -5.0972274e-05 -6.2398585e-06
0002a0 5c df 26 b8 de 15 81 b8 c9 d2 b9 37 d2 74 03 b8
       -3.9785504e-05 -6.1552724e-05 2.2151873e-05 -3.134163e-05
0002b0 d1 d6 3b b8 5d f7 81 b8 a0 ef b2 b8 34 ca 3d 38
       -4.4784338e-05 -6.197274e-05 -8.532335e-05 4.5249428e-05
0002c0 68 98 8c 38 e1 8f 17 38 10 26 c2 37 0d 4e 6c b4
       6.704108e-05 3.6135203e-05 2.3144326e-05 -2.2007607e-07
0002d0 42 c8 9c b7 ca 16 00 b9 5c f5 be 36 b3 39 c1 36
       -1.8689901e-05 -0.00012215521 5.691005e-06 5.7585653e-06
0002e0 32 6a f8 38 a7 10 a9 b5 67 1d 33 37 44 1f 8f 36
       0.00011845342 -1.2596328e-06 1.0676077e-05 4.265372e-06
0002f0 df 90 85 b8 72 a8 73 35 41 a7 32 36 85 0c 35 b7
       -6.3689185e-05 9.0769674e-07 2.6621422e-06 -1.0791356e-05
000300 79 ed 8c b6 8d cd ba b7 33 69 94 37 5d 53 33 38
       -4.1999706e-06 -2.2268645e-05 1.7691962e-05 4.2754564e-05
000310 a1 d7 66 b8 07 89 14 b8 57 9c 97 37 c2 38 a2 38
       -5.5037093e-05 -3.5413566e-05 1.8073404e-05 7.735334e-05
000320 28 1d 5c 35 29 c3 f1 37 ef 21 d6 b6 73 01 9f b7
       8.1998814e-07 2.8820317e-05 -6.3816474e-06 -1.8954952e-05
000330 db d4 4e b7 b9 0a 86 b8 4f 7b da b7 40 93 2d 38
       -1.2328116e-05 -6.391615e-05 -2.6045045e-05 4.138355e-05
000340 0d 01 83 b6 af 2b 2d 38 62 00 22 b8 83 30 1c 37
       -3.9042266e-06 4.1287098e-05 -3.8624166e-05 9.30962e-06
000350 0f 9f 86 37 f2 23 83 b8 28 8d 8d b8 b2 4a 66 b7
       1.6048112e-05 -6.253262e-05 -6.749696e-05 -1.372646e-05
000360 96 99 c8 37 e0 ab 82 b7 5e 86 2e b8 9d fd e2 36
       2.3913377e-05 -1.5577243e-05 -4.1609972e-05 6.7648493e-06
000370 53 2a f7 37 07 84 87 38 53 10 24 38 a0 7e ad b7
       2.9464403e-05 6.461894e-05 3.911585e-05 -2.0682171e-05
000380 5c 6a 5b b7 44 a2 be b8 d1 e2 e7 b7 b2 cf cc 37
       -1.3078181e-05 -9.09013e-05 -2.7642966e-05 2.441541e-05
000390 1a 11 01 b8 de f1 cb 38 82 61 c8 b6 fc 45 c7 38
       -3.0771924e-05 9.7248456e-05 -5.971816e-06 9.502095e-05
0003a0 bb 79 22 38 6e e0 34 38 fc dc 70 b8 69 60 c4 b7
       3.873718e-05 4.312436e-05 -5.7426267e-05 -2.3409915e-05
0003b0 68 b2 72 37 6a 7d bd 36 6a b6 b4 b8 39 28 8f 37
       1.44658625e-05 5.647239e-06 -8.617046e-05 1.7065659e-05
0003c0 01 7c 97 37 d7 d4 d1 b8 e1 c9 88 36 e6 67 df 37
       1.8058347e-05 -0.00010005541 4.0766176e-06 2.6632053e-05
0003d0 30 a4 12 39 9f 94 2a 35 84 a1 d8 36 d0 de 21 b7
       0.0001398481 6.354621e-07 6.4561045e-06 -9.648225e-06
0003e0 a2 38 97 b8 fd 40 d8 b6 5a bf 04 b8 23 8b 41 36
       -7.21079e-05 -6.4448673e-06 -3.1649462e-05 2.884023e-06
0003f0 48 0c e8 37 15 2a 4d b8 9d 05 21 37 81 c8 ba 38
       2.7662274e-05 -4.8915e-05 9.597655e-06 8.906518e-05

exp_avg_sq f4 [512, 15]
000000 ab 2d b5 34 6d 5b 7d 33 53 4c 6d 33 4b 4a 61 34
       3.3747105e-07 5.8989304e-08 5.525028e-08 2.0981786e-07
000010 19 63 38 34 b5 15 ab 32 65 47 d4 32 b1 47 82 33
       1.7172387e-07 1.9916891e-08 2.4712515e-08 6.066637e-08
000020 2c 32 3b 33 a5 2e 0d 33 96 09 04 33 44 ed 86 32
       4.358496e-08 3.2871544e-08 3.0742363e-08 1.5707549e-08
000030 20 ec 61 33 ab bc f2 32 79 c9 07 33 14 63 92 34
       5.260165e-08 2.8258304e-08 3.1615375e-08 2.7266708e-07
000040 4e e0 55 33 1b 52 45 33 ff 93 29 34 ec 59 01 34
       4.979693e-08 4.594231e-08 1.5793192e-07 1.2046775e-07
000050 f4 e7 8d 32 d7 32 b5 32 ac 47 40 33 04 6d 20 33
       1.652004e-08 2.1094293e-08 4.476867e-08 3.7352052e-08
000060 48 dd f9 32 57 d3 d8 32 e3 6e 5d 32 71 3f 35 33
       2.9088042e-08 2.5241816e-08 1.2889106e-08 4.2200046e-08
000070 2d a7 d3 32 45 e3 e5 32 06 4f 3c 34 7b 8b 7c 33
       2.4639656e-08 2.6762459e-08 1.7537613e-07 5.880018e-08
000080 dd 4f 82 33 cf f7 0a 34 8a e4 07 34 84 31 98 32
       6.068124e-08 1.2942404e-07 1.2655997e-07 1.7717646e-08
000090 d5 9e a7 32 68 69 1b 33 30 0e 04 33 2f e4 0b 33
       1.9513587e-08 3.6184616e-08 3.074655e-08 3.257099e-08
0000a0 34 e5 e2 32 db fe 48 32 30 da 3c 33 fa 2f d1 32
       2.6414092e-08 1.169948e-08 4.39706e-08 2.435262e-08
0000b0 65 7f e2 32 09 8b 25 34 1e dd 8e 33 99 92 80 33
       2.6367795e-08 1.5417403e-07 6.652611e-08 5.9871304e-08
0000c0 66 2a dd 33 38 68 d7 33 0c a5 0c 32 5c 64 0f 32
       1.0298827e-07 1.0030675e-07 8.1866e-09 8.346515e-09
0000d0 bf d6 ca 32 b5 f7 cd 32 02 11 63 32 ea 41 b0 32
       2.361355e-08 2.3977785e-08 1.3217006e-08 2.051907e-08
0000e0 82 2c e6 31 19 d2 01 33 22 9f 4f 32 48 b7 de 32
       6.698941e-09 3.0226236e-08 1.2085168e-08 2.5927548e-08
0000f0 af 28 92 34 51 de a1 33 4c 02 a0 33 3a 43 55 34
       2.722422e-07 7.537586e-08 7.4509984e-08 1.9861628e-07
000100 00 e7 4c 34 85 12 c2 32 d4 12 dc 32 e9 5c 24 33
       1.9083018e-07 2.2592994e-08 2.5619933e-08 3.8268727e-08
000110 d6 e4 5f 33 e8 d5 37 33 5a 30 33 33 90 90 aa 32
       5.212936e-08 4.2802554e-08 4.172066e-08 1.9856344e-08
000120 30 ec 8c 33 b3 02 14 33 93 6d 2c 33 f6 c7 34 34
       6.56222e-08 3.446139e-08 4.0146528e-08 1.6836552e-07
000130 3d 0d 78 33 37 85 81 33 d5 79 04 34 5d 49 ff 33
       5.775404e-08 6.031262e-08 1.233778e-07 1.18877075e-07
000140 e7 ce 9f 32 72 43 b6 32 42 f4 18 33 5e 21 e1 32
       1.8604124e-08 2.121826e-08 3.561241e-08 2.6208621e-08
000150 7a 9f 06 33 52 a1 d3 32 1c 48 33 32 04 6c 2b 33
       3.134435e-08 2.4636993e-08 1.0435567e-08 3.991228e-08
000160 50 ad c5 32 d7 59 d4 32 0c 6d 0b 36 70 af f5 33
       2.3012632e-08 2.4720903e-08 2.0776088e-06 1.14406134e-07
000170 c8 6b f2 33 2b ab d2 35 da 4b 46 35 2b ae 00 34
       1.12886084e-07 1.5696036e-06 7.3871126e-07 1.1984291e-07
000180 ac 0e 71 33 bc 6a bb 34 61 ec b3 32 83 0f f5 33
       5.612553e-08 3.4909124e-07 2.0945835e-08 1.1411523e-07
000190 6d 22 e6 33 dc 9e 89 33 f0 6c 59 34 7e 77 8c 33
       1.07164716e-07 6.408456e-08 2.0249331e-07 6.5409935e-08
0001a0 08 01 dd 33 75 8c 03 34 47 a1 35 33 55 26 3b 33
       1.0291302e-07 1.2251424e-07 4.2289027e-08 4.3574193e-08
0001b0 19 d1 c8 33 0d 2d c5 33 b6 5c 3f 32 28 65 7b 32
       9.3512604e-08 9.181722e-08 1.1138743e-08 1.4633123e-08
0001c0 12 6c 9f 32 52 99 fa 32 60 4e c6 32 1b 6f b5 32
       1.855918e-08 2.9173552e-08 2.3085875e-08 2.1121698e-08
0001d0 a0 77 23 32 5c 96 09 33 95 1e 9c 32 0b 14 9e 32
       9.515048e-09 3.203455e-08 1.8174697e-08 1.8402735e-08
0001e0 d7 d1 3f 34 6e 27 71 33 5d 52 7a 33 35 39 fd 33
       1.78646e-07 5.6148046e-08 5.828257e-08 1.17916365e-07
0001f0 e5 96 f3 33 88 80 7c 32 7d dd a9 32 ac 84 03 33
       1.1343017e-07 1.4697555e-08 1.977491e-08 3.062148e-08
000200 3c b2 29 33 80 bf 0e 33 50 9a d5 32 36 be 32 32
       3.9510482e-08 3.323612e-08 2.4866637e-08 1.0404213e-08
000210 e8 74 23 33 1d 87 d4 32 3a e6 bf 32 3c 8f ab 34
       3.805772e-08 2.474149e-08 2.2340021e-08 3.195545e-07
000220 39 eb 89 33 d0 6e 7b 33 b6 10 50 34 92 ca 2b 34
       6.4223464e-08 5.8541275e-08 1.9377589e-07 1.599931e-07
000230 88 92 a3 32 f3 70 cb 32 60 2c 63 33 81 d5 48 33
       1.9042332e-08 2.3683674e-08 5.2892915e-08 4.676031e-08
000240 67 9f 0e 33 14 66 f3 32 25 8e 87 32 f8 3d 60 33
       3.3206927e-08 2.8335343e-08 1.5780708e-08 5.2210424e-08
000250 e3 15 ff 32 bd 12 0a 33 f5 1f c1 34 ee 1e 41 33
       2.969586e-08 3.214767e-08 3.5972303e-07 4.4964445e-08
000260 2c ae 48 33 30 c6 85 34 bb 16 c8 34 4c 97 ae 32
       4.6724537e-08 2.491738e-07 3.7269442e-07 2.0325068e-08
000270 5d ea 82 32 99 f4 0a 32 00 13 99 32 44 60 3b 33
       1.5240568e-08 8.088272e-09 1.7820184e-08 4.3626883e-08
000280 76 6d 70 32 2e 43 87 31 78 8c 08 33 7b 72 83 32
       1.3994727e-08 3.9366546e-09 3.1792723e-08 1.5302467e-08
000290 9b eb bb 32 e4 14 c6 34 34 7d 5b 33 fc be 5c 33
       2.1876806e-08 3.6895574e-07 5.1103783e-08 5.139644e-08
0002a0 ae b0 65 34 41 ec 29 34 7a ec a6 32 d7 58 bf 32
       2.1391563e-07 1.58253e-07 1.943248e-08 2.2275726e-08
0002b0 02 25 75 33 4f 0a 21 33 9b c0 04 33 90 93 ee 32
       5.7077166e-08 3.749511e-08 3.090882e-08 2.777395e-08
0002c0 43 60 80 32 11 2d 56 33 e1 da d1 32 cd 50 0f 33
       1.4944936e-08 4.9866745e-08 2.4430337e-08 3.336827e-08
0002d0 26 35 45 34 17 7c 84 33 ff 35 69 33 7d df 12 34
       1.836639e-07 6.169301e-08 5.429865e-08 1.3678614e-07
0002e0 02 ec 0e 34 00 79 82 32 b6 02 96 32 b2 b3 d8 32
       1.331064e-07 1.5189016e-08 1.7463531e-08 2.5227425e-08
0002f0 54 dd 1a 33 e6 62 08 33 43 44 ed 32 f8 ed 5a 32
       3.6057216e-08 3.1754915e-08 2.7621473e-08 1.2743378e-08
000300 b4 83 44 33 f8 25 c3 32 d6 a0 c3 32 9d fa 1c 34
       4.575459e-08 2.2718254e-08 2.2774127e-08 1.4619805e-07
000310 b4 84 6b 33 9a 17 59 33 00 b4 f4 33 55 2f f0 33
       5.4835894e-08 5.0545715e-08 1.1394877e-07 1.11844805e-07
000320 af 7e 6a 32 98 c3 af 32 86 f1 03 33 3c 8d 1d 33
       1.3649397e-08 2.0461627e-08 3.072048e-08 3.6682863e-08
000330 2e 35 04 33 23 54 ca 32 49 c9 3d 32 26 6b 21 33
       3.078201e-08 2.3554156e-08 1.1047015e-08 3.7583185e-08
000340 f7 2b ba 32 62 46 d2 32 31 b8 95 34 ba 8e 43 33
       2.1673243e-08 2.4479224e-08 2.788743e-07 4.5531785e-08
000350 7a ad 30 33 9a 59 31 34 8c b3 01 34 d4 07 73 32
       4.113597e-08 1.6517006e-07 1.207938e-07 1.41462415e-08
000360 8f c7 a7 32 5c 31 3f 33 16 14 20 33 bd ae d6 32
       1.9532107e-08 4.4515545e-08 3.727117e-08 2.499234e-08
000370 ab 36 c2 32 c3 b7 52 32 d9 37 2b 33 ad e7 c3 32
       2.2609433e-08 1.2265391e-08 3.9864833e-08 2.2806342e-08
000380 6c 46 e1 32 93 e8 ae 34 ed 58 c9 33 f8 9b be 33
       2.6225472e-08 3.2579246e-07 9.3759674e-08 8.875935e-08
000390 24 b4 64 34 c4 aa 59 34 52 7f e2 32 34 fe 0f 33
       2.129969e-07 2.0271824e-07 2.6367761e-08 3.352598e-08
0003a0 a1 cc 26 33 b6 b4 7c 33 41 52 68 33 cf b5 eb 32
       3.8835996e-08 5.8837678e-08 5.409152e-08 2.7440278e-08
0003b0 52 7f 4b 32 1f a4 8b 33 b3 50 b1 32 71 78 57 33
       1.18451045e-08 6.502545e-08 2.064221e-08 5.016813e-08
0003c0 ac 63 3d 34 de b3 5c 33 fb 4d 58 33 af 68 0c 34
       1.7638257e-07 5.138633e-08 5.0362342e-08 1.30766e-07
0003d0 c3 bb 09 34 e2 14 6e 32 9b 02 99 32 17 55 b5 32
       1.2827427e-07 1.38581715e-08 1.7812729e-08 2.1109868e-08
0003e0 5a 36 12 33 83 d9 fd 32 0b 3b c8 32 f6 8e 1d 32
       3.4042706e-08 2.955199e-08 2.3309914e-08 9.171108e-09
0003f0 ad f6 0c 33 28 77 a5 32 94 1f bf 32 cf ef 4c 34
       3.282064e-08 1.9262714e-08 2.2249687e-08 1.9086222e-07
