results/drn/checkpoints/mlp_2.ckpt (torch, 144008 bytes, 18 tensors)

model.model.0.weight f4 [512, 15]
0	0x3e3d12f3	0.1846426
1	0xbd760291	-0.06006104
2	0xbdd4ad98	-0.10384673
3	0xbcc915c4	-0.024546511
4	0x3d521fd2	0.051299877
5	0xbd66d4f5	-0.056355435
6	0xbb810c69	-0.003938247
7	0xbdefc994	-0.1170837
8	0xbd44a085	-0.048004646
9	0xbe28ab48	-0.16471589
10	0xb9532cbd	-0.00020139194
11	0xbc6010b1	-0.013675855
12	0xba635ccf	-0.00086731924
13	0x3b27e58f	0.0025619005
14	0xbc245915	-0.010031004
15	0x3e7784f6	0.24171814
16	0x3d61d7d7	0.05513748
17	0xbd1f083e	-0.03882622
18	0xbddb0c95	-0.10695759
19	0x3db41039	0.08792157
20	0xbda0fa6e	-0.07860266
21	0x3d6c20fa	0.057648636
22	0xbd77a430	-0.060459316
23	0x3a5a5aa7	0.0008329548
24	0xbdbb0b3d	-0.09133003
25	0x3d074468	0.03302422
26	0xbcb010fa	-0.02149247
27	0xbc1e546c	-0.009663682
28	0x395ab068	0.00020855817
29	0x3b883a70	0.004157357
30	0xbe985609	-0.2975314
31	0x3e19c5de	0.15016887
32	0x3dd7c73d	0.105360486
33	0x3e0ebbaf	0.13938783
34	0x3dbb60e4	0.0914934
35	0x3d80871a	0.062757686
36	0xbb247b9a	-0.0025098086
37	0x3de315db	0.11088153
38	0x3d9fbf40	0.0780015
39	0xbb5d6f76	-0.003378836
40	0xbe15c9aa	-0.1462771
41	0xbe75ee5a	-0.24016705
42	0x3e12153f	0.14265917
43	0x3d8516e5	0.064985074
44	0x3d23d6c7	0.03999975
45	0x3e5a0300	0.21290207
46	0x3d1232f9	0.035693143
47	0xbbb11b1a	-0.005404842
48	0xbc121249	-0.008915492
49	0x3d29ae1c	0.04142581
50	0x3dba7a7a	0.09105392
51	0x3d947721	0.072492845
52	0x3dafcaa9	0.08583576
53	0x3cd32bf2	0.02577779
54	0x3ddbe2e3	0.107366346
55	0x3c0b15a3	0.008489045
56	0xbca94870	-0.020664424
57	0x3c68322d	0.014172119
58	0x3d409a6d	0.047022272
59	0xbca8ec29	-0.020620422
60	0x3d118bb0	0.035533607
61	0xbdfcdb6c	-0.12346539
62	0x3dae40c6	0.08508448
63	0x3e819d40	0.25315285
64	0x3e175a02	0.14780429
65	0x3d4f6819	0.050636385
66	0xbcf0c761	-0.029391946
67	0xbaac25ec	-0.001313386
68	0x3c9dd2cc	0.019265555
69	0xbcfa9fa8	-0.030593708
70	0xbc1a21c1	-0.009407462
71	0xbcdb1a33	-0.026745891
72	0xbd0fbe31	-0.03509349
73	0xbd802ac5	-0.06258158
74	0xbd3b1a51	-0.045679394
75	0x3e69029f	0.22754906
76	0xbd1f9915	-0.03896435
77	0xbcd3c084	-0.025848635
78	0x3ca3c456	0.019991081
79	0xbb1be494	-0.0023787366
80	0xbcab02b6	-0.020875316
81	0x3d4095b3	0.047017764
82	0x3c820466	0.015871238
83	0x3d5206e3	0.0512761
84	0x3cd680ea	0.026184518
85	0xbd3bd233	-0.04585476
86	0xbc1706e9	-0.009217956
87	0x3bd613d0	0.0065331236
88	0xbca8f2c9	-0.020623581
89	0xbd27a3b2	-0.040927596
90	0x3dc9bd22	0.09850527
91	0xbe137c11	-0.14402796
92	0x3ca2eac7	0.019887341
93	0xbd31ec71	-0.04343838
94	0x3e1c59a5	0.15268572
95	0x3e5cb1ca	0.21552196
96	0xbcf9d624	-0.030497618
97	0xbd208ebb	-0.03919862
98	0xbceb3ded	-0.028716052
99	0xbde231b4	-0.11044636
100	0xbd35db72	-0.044398732
101	0x3e00b988	0.12570775
102	0xbe9d51e7	-0.3072655
103	0x3d52f389	0.051501784
104	0x3e358242	0.1772547
105	0x3e9fbdb9	0.31199434
106	0x3d76ddb4	0.060270026
107	0x3d820fd5	0.06350676
108	0xbe5415da	-0.2071146
109	0x3decfd22	0.11571719
110	0xbb943784	-0.0045232195
111	0xbdba03a0	-0.09082723
112	0x3d33e023	0.043914925
113	0x3c45e956	0.012079557
114	0x3d27b18c	0.040940806
115	0xbd4dabb7	-0.05021259
116	0xbd01f70f	-0.031729754
117	0xbd428acd	-0.047495652
118	0xbd2f1768	-0.04274693
119	0xbcfa7978	-0.030575499
120	0x3e3f284f	0.1866772
121	0x3dcaeb60	0.099081755
122	0xbbd1b976	-0.0064002825
123	0x3de3cabf	0.11122655
124	0x3d88ecb3	0.06685772
125	0xbdfaec13	-0.12252059
126	0xbc97427c	-0.01846432
127	0xbcb75398	-0.022378728
128	0x3d1422d5	0.03616603
129	0xbe3d14ee	-0.18465015
130	0x3aafc2c9	0.0013409491
131	0x3d7010d8	0.058609813
132	0x3ca802f7	0.020509226
133	0x3c969efe	0.01838636
134	0x3d31aaab	0.043375652
135	0x3e2b8155	0.16748555
136	0x3d5647a5	0.05231442
137	0x3cf463a1	0.029832663
138	0x3e2de8f2	0.16983393
139	0xbd96bc80	-0.07360172
140	0x3d2b793a	0.041863658
141	0x3d2fc4a1	0.04291213
142	0x3da1fc87	0.07909494
143	0x3d621208	0.055192977
144	0x3d849c9b	0.064751826
145	0x3dd439fb	0.103626214
146	0xbda5fea4	-0.081052095
147	0x3ca3bf91	0.019988807
148	0x3d9467bf	0.072463505
149	0x3cc4f070	0.02404043
150	0x3e5a7929	0.21335281
151	0xbd1f8684	-0.038946643
152	0xbcc2c049	-0.02377333
153	0x3d59a212	0.053133078
154	0x3c05bdb6	0.008162906
155	0xbd8fc024	-0.0701907
156	0xbdd5861d	-0.10425971
157	0xbccae296	-0.024766248
158	0x3c27f3ac	0.010250967
159	0x3d78bb40	0.06072545
160	0x3a1bf790	0.00059496704
161	0xbca1b8ff	-0.019741533
162	0xbda4b311	-0.08041967
163	0xbda0b7de	-0.0784757
164	0xbc90fa9d	-0.017697627
165	0x3e124d65	0.14287336
166	0xbdcc0685	-0.09962181
167	0xbd25c7c3	-0.04047371
168	0xbe7824e7	-0.24232827
169	0xbe80b1ec	-0.25135744
170	0x3c13eea9	0.009029069
171	0x3d2f3b64	0.04278125
172	0x3beeae71	0.0072839786
173	0x3dfb4593	0.122691296
174	0xbd660112	-0.056153364
175	0xbc6505bc	-0.013978418
176	0x3d14c4c2	0.036320455
177	0x3d87fdef	0.06640231
178	0x3d4e2376	0.050326787
179	0x3c35fbbb	0.0111073805
180	0xbe754921	-0.23953678
181	0xbe090031	-0.1337898
182	0x3a3bb05e	0.00071597646
183	0x3ded1d8e	0.11577903
184	0xbd7f317e	-0.06230306
185	0xbce1504e	-0.027504113
186	0x3d39ddae	0.045377426
187	0x3d80bc76	0.06285946
188	0x3d8aa4ef	0.0676974
189	0xbc9b8f44	-0.018989213
190	0xbd25988f	-0.040428694
191	0xbe38e45e	-0.18055865
192	0xbe0cb369	-0.13740315
193	0xbdf3e4d5	-0.119088806
194	0xbddeedd5	-0.108852066
195	0xbea1947c	-0.31558597
196	0x3e09a498	0.13441694
197	0xbe5d543a	-0.21614161
198	0x3debb9b0	0.115100265
199	0xbd53667d	-0.051611412
200	0x3bd6baba	0.0065530213
201	0xbd697b58	-0.057002395
202	0xbddb9b51	-0.10722984
203	0xbe0ab0c4	-0.13543993
204	0x3d47e513	0.048802447
205	0x3c4fd9b4	0.012686182
206	0xbb87e5a1	-0.004147247
207	0xbc3e2770	-0.011606082
208	0xbb8437dc	-0.0040349793
209	0xbd1a34b3	-0.037647914
210	0xbe1f88eb	-0.15579574
211	0x3d1e60e6	0.03866663
212	0xbc149ef3	-0.0090711
213	0xbc45d9ac	-0.012075823
214	0xbde00d05	-0.10939983
215	0xbdd9ed7b	-0.10640999
216	0xbb8f6b81	-0.004376829
217	0xb9fe1013	-0.00048458631
218	0x3be1d0ad	0.006891331
219	0x3d94a7e3	0.07258584
220	0x3d0443ad	0.032291103
221	0xbd740156	-0.059571587
222	0x3d8b9652	0.06815781
223	0x3e0d6a45	0.1381007
224	0x3b8137ad	0.0039434046
225	0xbe61017c	-0.21973222
226	0xbdacb232	-0.084324256
227	0xbc9447ad	-0.018100584
228	0x3dc34f2d	0.09536586
229	0xbd9507e1	-0.072768934
230	0x3d60300b	0.054733317
231	0x3b90c9fc	0.0044186097
232	0xbcc63d00	-0.024199009
233	0xbc01ec6c	-0.0079299025
234	0x3cf84163	0.030304616
235	0x3cfa81ad	0.030579412
236	0xbe177d00	-0.14793777
237	0xbdfe4401	-0.124153145
238	0xbd99adde	-0.07503866
239	0xbd8de766	-0.069289014
240	0xbe61edde	-0.22063395
241	0xbe0470cb	-0.12933652
242	0xbd7b5e2c	-0.061369106
243	0xbe2f6720	-0.17129183
244	0x3e4cd651	0.2000363
245	0xbc2bf3ba	-0.010495121
246	0x3dfd1702	0.12357904
247	0xbcbcc17c	-0.02304148
248	0x3dd8052a	0.1054786
249	0xbafe6d19	-0.0019411176
250	0xbe78379a	-0.2423996
251	0x3d06d8b4	0.032921508
252	0xbdcc42fa	-0.09973712
253	0xbe7f53c9	-0.24934305
254	0xbdf90b9b	-0.12160417
255	0x3e1e0c8b	0.15434472

model.model.0.bias f4 [512]
0	0x3d437070	0.04771465
1	0x3cac9380	0.021066427
2	0xbeac0914	-0.33600676
3	0x3daf4f61	0.08560062
4	0xbe963fc0	-0.29345512
5	0x3e2c0a8e	0.16800901
6	0xbe92da63	-0.2868224
7	0xbd2ee378	-0.0426974
8	0xbe0c6d0d	-0.13713475
9	0x3d200b77	0.039073434
10	0x3c856b6b	0.016286572
11	0xbe0c57d4	-0.13705379
12	0xbf1c8448	-0.61139345
13	0xbd1c6a9a	-0.0381876
14	0x3e177479	0.14790525
15	0x3d7fc0ef	0.062439855
16	0xbe7e99ba	-0.2486333
17	0x3d36dcfe	0.04464435
18	0x3de3ba6f	0.11119544
19	0x3dea145e	0.11429666
20	0x3dccbe7f	0.09997272
21	0x3d55a6e5	0.052161116
22	0x3cb756f8	0.022380337
23	0xbd17384f	-0.036918934
24	0xbd776491	-0.060398642
25	0xbd4b6ff9	-0.049667332
26	0xbe8b6511	-0.27225545
27	0xbe93f442	-0.2889729
28	0x3b9cf4d8	0.00478993
29	0xbdbb13c6	-0.09134631
30	0xbebd8b8b	-0.37020525
31	0xbce4e18f	-0.027939586
32	0xbea2367d	-0.31682196
33	0x3d208377	0.039187875
34	0xbea6b76a	-0.3256181
35	0xbd2f9eb0	-0.042875946
36	0x3e4472f4	0.19184476
37	0x3dd85692	0.10563387
38	0x3e21cd2f	0.15800928
39	0x3d1c6d66	0.038190268
40	0xbc0fedf4	-0.00878476
41	0x3dae3b59	0.085074134
42	0x3c897f01	0.016784193
43	0x3dac09b9	0.08400292
44	0x3d6d4ddb	0.057935577
45	0x3e08ab36	0.13346562
46	0x3c535b76	0.012900224
47	0x3d90e210	0.07074368
48	0x3cf9d095	0.030494967
49	0x3e18d9b9	0.14926805
50	0xbe28ed89	-0.16496862
51	0xbc0c0088	-0.008545049
52	0xbdeb0091	-0.114747174
53	0xbedeb977	-0.43500873
54	0xbdb5424b	-0.08850535
55	0xbeb5ada4	-0.3548404
56	0xbc65552b	-0.013997356
57	0xbcf9a43d	-0.030473823
58	0x3e090ab6	0.13382992
59	0x3de6677d	0.112502076
60	0xbeed5551	-0.46354154
61	0x3db7410d	0.08947954
62	0xbdd3a31b	-0.10333844
63	0xbe13934c	-0.14411658
64	0x3e5367de	0.20645091
65	0xbe4121e4	-0.18860584
66	0xbe3ba3b1	-0.18324162
67	0x3dc42216	0.09576814
68	0xbeb67530	-0.35636282
69	0xbe23506c	-0.15948647
70	0x3d982293	0.074284695
71	0xbe06236f	-0.13099454
72	0x3b8f67d5	0.0043763914
73	0x3b6a95e5	0.003579491
74	0xbede3b5a	-0.43404657
75	0x3dce4b8c	0.10073003
76	0x3e08c509	0.13356413
77	0xbe7957fe	-0.24349973
78	0x3d141569	0.03615323
79	0x3e5af4dc	0.21382469
80	0x3e240130	0.16016078
81	0xbe390737	-0.18069158
82	0xbe8c549a	-0.27408296
83	0x3dd79340	0.105261326
84	0x3d3f3cdd	0.046688903
85	0xbed43a57	-0.4145076
86	0xbea1f1ca	-0.31629783
87	0xbd48d6c9	-0.04903296
88	0x3dfb57c0	0.12272596
89	0x3d8d1c29	0.06890137
90	0xbda94262	-0.08264615
91	0xbea74ec3	-0.32677278
92	0x3df84c28	0.12123901
93	0x3e0e6893	0.1390708
94	0x3e081709	0.13290037
95	0x3e07e320	0.13270235
96	0x3e34bada	0.17649403
97	0xbe992c93	-0.2991682
98	0xbcfa87ef	-0.030582396
99	0xbd46dfd4	-0.048553303
100	0xbe94be70	-0.29051542
101	0x3e0637e4	0.13107258
102	0xbe8bfd0b	-0.27341494
103	0xbd769f06	-0.06021025
104	0x3e007c3d	0.12547393
105	0xbee91032	-0.4552017
106	0x3cbf2082	0.02333093
107	0xbd942c68	-0.07235032
108	0x3ccbb62e	0.024867143
109	0xbcebd06d	-0.028785909
110	0x3d0eb050	0.034836113
111	0xbcd8d3d6	-0.026468199
112	0x3df4a0dc	0.11944744
113	0xbea3e89f	-0.32013413
114	0xbcaa26a5	-0.02077038
115	0xbe3d1a4d	-0.18467064
116	0x3e0a2729	0.13491501
117	0xbd8d3987	-0.06895738
118	0xbd23dd4e	-0.040005974
119	0xbe03746f	-0.12837385
120	0x3d395eb8	0.045256346
121	0x3d90a977	0.07063573
122	0xbe12f117	-0.14349781
123	0x3d2e549b	0.042561155
124	0xbd53a7ed	-0.05167382
125	0x3c83af04	0.016074665
126	0xbd15a283	-0.036531936
127	0x3d3f559f	0.046712514
128	0xbb82874a	-0.003983413
129	0x3d482c42	0.048870333
130	0x3d96a71d	0.07356093
131	0xbbcb2d3e	-0.0062004616
132	0x3d2bf5ec	0.041982576
133	0x3df385ae	0.11890732
134	0xbd6b4b4a	-0.057444848
135	0xbdb6730d	-0.08908663
136	0x3e00ae4d	0.1256649
137	0x3d139b46	0.036036752
138	0xbe7e6947	-0.24844848
139	0x3d9f0119	0.07763881
140	0xbe4555cd	-0.19271012
141	0xbdaaae04	-0.08333972
142	0xbefd4eec	-0.49474275
143	0x3df3f9e6	0.11912899
144	0xbea27570	-0.31730223
145	0xbe440d68	-0.19145739
146	0xbde93d44	-0.113886386
147	0x3e2242e5	0.1584583
148	0xbe7aa604	-0.24477392
149	0x3d459030	0.04823321
150	0xbb585c9a	-0.003301418
151	0x3dbcb857	0.092148475
152	0x3dfd2c1c	0.12361929
153	0x3c4b2b0a	0.012400398
154	0x3ca09b48	0.019605294
155	0xbea39392	-0.31948525
156	0xbe68328b	-0.2267553
157	0xbf03225e	-0.51224315
158	0xbe9b429e	-0.30324262
159	0xbc863b2a	-0.016385633
160	0x3e28183c	0.16415495
161	0x3e1ae1fc	0.15125269
162	0xbda058be	-0.07829426
163	0xbcffe9f7	-0.031239493
164	0x3d817e21	0.06322885
165	0xbd110a12	-0.035409994
166	0x3dc3cffe	0.09561156
167	0xbed8018c	-0.4218868
168	0xbe4917f9	-0.19638051
169	0x3e1afc90	0.15135407
170	0xbe1239f5	-0.14279921
171	0x3db33afd	0.087514855
172	0xbd0efc09	-0.03490833
173	0xbf02a539	-0.5103336
174	0xbec85e54	-0.39134467
175	0xbcdd57f0	-0.02701947
176	0xbe84b5b3	-0.25919876
177	0xbeb623da	-0.35574228
178	0x3dbeae58	0.09310597
179	0x3d0f52d1	0.03499109
180	0x3d068605	0.032842655
181	0x3d702de0	0.0586375
182	0xbe030ecc	-0.12798613
183	0xbc1bc45b	-0.009507264
184	0xbf28ecaa	-0.6598612
185	0xbeb23c19	-0.34811476
186	0xbdd7211b	-0.10504361
187	0xbb53fe5f	-0.0032347662
188	0x3d7ccd4a	0.061719216
189	0x3d720029	0.059082184
190	0x3dcafaa0	0.09911084
191	0x3d8ee247	0.06976753
192	0x3c569d11	0.013098971
193	0x3e4c6ca6	0.19963321
194	0x3dc820bc	0.097718686
195	0x3d67f676	0.056631528
196	0x3d6a9b17	0.05727681
197	0xbd3d7187	-0.046250846
198	0x3c6c341a	0.014416719
199	0x3dbf9f86	0.093565986
200	0xbd5aae39	-0.053388808
201	0xbdbaac40	-0.09114885
202	0xbe320da7	-0.1738802
203	0x3db6df01	0.08929253
204	0x3b4e09c4	0.0031438926
205	0xbe9a9785	-0.30193725
206	0xbe1a9388	-0.15095341
207	0x3ce6cf69	0.028175073
208	0x3db0271f	0.08601212
209	0x3e06b2a2	0.1315408
210	0x3e051a37	0.12998281
211	0xbf0216ca	-0.50816023
212	0x3e041b45	0.12901028
213	0xbe915845	-0.28387657
214	0x3d7a785b	0.061149936
215	0x3d0cb54b	0.034352582
216	0xbdc77fa5	-0.09741143
217	0xbee79441	-0.45230296
218	0x3d58ec4a	0.052959718
219	0xbd5a2652	-0.0532592
220	0x3c1ac7b8	0.009447031
221	0x3e2ba353	0.16761522
222	0xbd862db0	-0.06551683
223	0x3dfcf1ff	0.123508446
224	0x3db9df72	0.09075822
225	0xbe17802a	-0.14794984
226	0xbf10708c	-0.5642173
227	0x3e47ebf8	0.19523609
228	0xbe6d91fd	-0.23200221
229	0xbf25f661	-0.6482907
230	0x3e63cd3f	0.22246264
231	0xbf0cf26f	-0.55057424
232	0x3cf3ebaf	0.029775469
233	0x3e135de2	0.14391282
234	0x3d99094c	0.07472476
235	0x3df71d58	0.12066144
236	0x3d2b703a	0.041855074
237	0x3d7f8649	0.062383924
238	0x3d89844f	0.06714689
239	0xbd0ccad1	-0.03437311
240	0xbd455c9e	-0.04818403
241	0x3e203dc0	0.15648556
242	0xbe8c68f0	-0.2742381
243	0x3dc33c20	0.09532952
244	0xbedb4915	-0.42829195
245	0x3d25045e	0.040287368
246	0xbe14fd13	-0.14549665
247	0x3df632ea	0.1202143
248	0xbdaddbb7	-0.08489173
249	0xbd603575	-0.05473848
250	0x3dbf4d8a	0.09340961
251	0x3e2d8a9f	0.16947411
252	0xbe3726af	-0.1788585
253	0x3e1f4f77	0.15557657
254	0x3cb053c0	0.02152431
255	0xbdb4f445	-0.08835653

model.model.3.weight f4 [2, 512]
0	0x3c87ff29	0.016601162
1	0x3c930a96	0.017949384
2	0xbcef8b4f	-0.029241232
3	0x3c76b6e5	0.015058254
4	0x3cd34058	0.025787517
5	0x3c88080d	0.016605401
6	0x3cf850fb	0.030312052
7	0x3cbc6532	0.022997472
8	0x3ca8ed40	0.020620942
9	0x3c7452c0	0.014912307
10	0x3c836e53	0.016043818
11	0xbcf7f016	-0.03026585
12	0xbe58ffa8	-0.21191275
13	0xbc8abc45	-0.016935477
14	0xbc8bccbc	-0.017065398
15	0xbca5902d	-0.02021035
16	0xbcdd9b81	-0.02705169
17	0x3c96d801	0.018413546
18	0x3c4f8952	0.012667017
19	0xbc7227a5	-0.01477996
20	0xbc97c286	-0.018525373
21	0x3c860c17	0.016363187
22	0xbcaaaf36	-0.0208355
23	0xbcb3c823	-0.021946019
24	0x3cb7c9ce	0.022435095
25	0x3ca869df	0.020558296
26	0xbca49c2e	-0.020094004
27	0x3ca16222	0.019700114
28	0x3c90a650	0.017657429
29	0x3cac007d	0.020996327
30	0xbe1ccb18	-0.15311849
31	0xbcd811b4	-0.026375629
32	0xbdaec932	-0.08534469
33	0xbca1d293	-0.01975373
34	0x3c06fe4d	0.008239341
35	0x3c9db27e	0.01925015
36	0xbc513d7f	-0.0127710095
37	0x3c8ac9fe	0.01694202
38	0xbca6842b	-0.020326694
39	0xbca12bb2	-0.019674156
40	0x3c9651ec	0.01834961
41	0x3ca90208	0.020630851
42	0x3c89eeda	0.016837526
43	0xbcc815fa	-0.024424542
44	0x3c6916fc	0.014226671
45	0x3c58adba	0.013225013
46	0x3c6accf8	0.014331095
47	0xbcaa9844	-0.020824559
48	0x3c8c0574	0.017092444
49	0xbc9ca0d8	-0.019119665
50	0x3ca8f63c	0.020625226
51	0xbcc73916	-0.024319213
52	0x3c97296d	0.01845237
53	0xbda7fa90	-0.08202088
54	0x3c8b95c6	0.017039191
55	0xbd4d215e	-0.05008065
56	0xbcaf64b9	-0.021410333
57	0x3c8fa4b5	0.017534593
58	0xbcd5fda0	-0.026121914
59	0x3c886fbb	0.01665484
60	0x3d6e6942	0.05820585
61	0x3c85cd13	0.016333139
62	0x3cc25478	0.023721918
63	0xbbe5aee0	-0.007009372
64	0xbc9e4359	-0.019319223
65	0xbcd1b33b	-0.025598159
66	0xbc94bf46	-0.018157613
67	0xbca7b25b	-0.020470789
68	0x3dd6d793	0.10490336
69	0x3cc4bb6b	0.02401515
70	0x3c8c1ef1	0.017104598
71	0xbc9ae96f	-0.018910138
72	0x3c9c9b33	0.019116974
73	0xbca3829c	-0.01995974
74	0x3d91bcc5	0.07116083
75	0x3c797d57	0.015227637
76	0xbc9e7070	-0.019340724
77	0xbcb58209	-0.022156732
78	0xbc6b40bc	-0.014358696
79	0xbc625742	-0.013814749
80	0x3c4a6992	0.0123542715
81	0x3c9cc66c	0.019137584
82	0xbd02a779	-0.031897996
83	0xbc65d6c9	-0.01402826
84	0xbc8513c8	-0.016244784
85	0xbb5109d5	-0.003189673
86	0xbd6098b3	-0.054833125
87	0x3c8db474	0.01729796
88	0xbc7a04ae	-0.015259905
89	0xbc955bee	-0.018232312
90	0xbca3ac73	-0.019979691
91	0xbcc72efb	-0.024314394
92	0x3c7abfc2	0.015304508
93	0x3c82deba	0.015975345
94	0xbcba4083	-0.02273584
95	0x3c354a0b	0.0110650165
96	0xbc8f9918	-0.017529055
97	0xbd3fed85	-0.046857376
98	0xbc91a89e	-0.017780598
99	0x3c80eede	0.0157389
100	0x3d173edc	0.03692518
101	0xbcb014b6	-0.02149425
102	0xbce771ef	-0.02825257
103	0x3c84f285	0.016228924
104	0xbcbc0050	-0.022949368
105	0xbd2eaac8	-0.04264334
106	0x3cad2868	0.021137431
107	0x3c8f3387	0.017480625
108	0x3c918307	0.017762674
109	0x3c78082d	0.015138668
110	0xbca85f2e	-0.020553198
111	0x3c9b7b1d	0.018979603
112	0x3c7cde4b	0.015433858
113	0x3d0b3f3b	0.03399585
114	0xbca84abf	-0.020543454
115	0xbcd9d076	-0.02658866
116	0xbca831ce	-0.020531561
117	0x3cabdbf5	0.020978907
118	0xbcab63f2	-0.020921681
119	0xbc765773	-0.015035498
120	0x3c8e902d	0.017402733
121	0xbcb44fd9	-0.02201073
122	0x3cb8be44	0.022551663
123	0x3ca2f01b	0.019889882
124	0xbcda41ff	-0.026642798
125	0xbce7eb48	-0.028310433
126	0xbcab5e36	-0.020918947
127	0x3c99e261	0.018784704
128	0xbcc6bd03	-0.02426005
129	0x3c936a54	0.017995037
130	0x3c4e903b	0.012607629
131	0xbccd7cd0	-0.02508393
132	0xbccdb899	-0.025112437
133	0x3c8034e5	0.015650222
134	0xbcb1f821	-0.021724762
135	0xbcc84f26	-0.024451803
136	0xbc4c81c4	-0.01248211
137	0x3c8638e5	0.016384551
138	0x3ca022a4	0.019547768
139	0xbcac3c03	-0.02102471
140	0x3c824606	0.01590253
141	0xbcc01266	-0.023446273
142	0xbd7d6fe1	-0.061874274
143	0x3c833b69	0.01601954
144	0xbcd754d4	-0.026285566
145	0x3d1b1b79	0.037867997
146	0xbc96ae43	-0.018393641
147	0xbc89a370	-0.016801566
148	0x3cf4a5a4	0.02986414
149	0x3ca0b28d	0.01961639
150	0xbcc42940	-0.02394545
151	0x3c801be1	0.015638294
152	0xbcb065e7	-0.021532966
153	0xbcb0e63d	-0.021594161
154	0x3ca0c49e	0.019625004
155	0xbd30ea64	-0.043192282
156	0xbd5da6e0	-0.054114223
157	0xbd636dc9	-0.05552462
158	0x3d1e75cf	0.03868657
159	0xbcbe7e64	-0.023253627
160	0xbc8ac1ba	-0.01693808
161	0xbc87c2ab	-0.016572317
162	0x3c7add4c	0.01531155
163	0x3ca2e03a	0.01988231
164	0x3cbb8eba	0.022895206
165	0xbc579f85	-0.013160591
166	0x3c8b52c5	0.017007241
167	0xbdb35d0a	-0.0875798
168	0xbc4e3335	-0.012585451
169	0xbcbbcea1	-0.022925677
170	0xbd02d56d	-0.03194182
171	0x3c5a49e8	0.013323285
172	0xbc90bac5	-0.017667184
173	0xbdcbd4fb	-0.09952732
174	0xbe18689b	-0.14883654
175	0xbcb34430	-0.0218831
176	0x3c88b50e	0.016687896
177	0xbc3a9f1e	-0.011390476
178	0xbc91ce3e	-0.01779854
179	0xbc6b1310	-0.014347807
180	0x3c93454c	0.01797738
181	0xbcc9a6d7	-0.024615688
182	0xbca5ed77	-0.020254834
183	0xbcae7b39	-0.021298992
184	0x3e5396e5	0.2066303
185	0xbd278669	-0.040899668
186	0xbca330f5	-0.019920805
187	0x3ca7ece3	0.020498699
188	0x3c99164e	0.018687394
189	0x3c7d590b	0.015463124
190	0xbce9ac93	-0.028524673
191	0xbcb0034d	-0.021485949
192	0xbc9cc91c	-0.019138865
193	0xbcb34b85	-0.021886596
194	0x3c7cff41	0.015441717
195	0xbc993b73	-0.018705105
196	0x3ca68a55	0.020329634
197	0x3c9f3f9d	0.019439513
198	0x3c76bf3c	0.015060242
199	0x3c8ddc82	0.01731706
200	0xbc86384c	-0.016384266
201	0xbcf41e6d	-0.029799664
202	0x3cf86fd5	0.030326763
203	0x3c7812c8	0.015141197
204	0x3c86797d	0.016415352
205	0xbc6dc006	-0.014511114
206	0x3cf12ea5	0.029441187
207	0xbce3efb8	-0.027824268
208	0xbc8c867d	-0.017153973
209	0xbc5d33a8	-0.013501085
210	0x3c806b7c	0.015676253
211	0xbe6f98af	-0.23398088
212	0x3c7aa9d0	0.0152992755
213	0x3cf7ef72	0.030265544
214	0x3ca48c45	0.020086417
215	0xbc8fcca0	-0.017553627
216	0x3c97a447	0.01851095
217	0x3df125af	0.11774766
218	0xbc95ce52	-0.018286858
219	0x3ca8d19c	0.020607762
220	0x3c8630cd	0.016380692
221	0xbc9ccb71	-0.019139977
222	0xbcbd1d73	-0.023085332
223	0xbce7b6e3	-0.02828545
224	0xbca3d0d7	-0.019997044
225	0x3cdaafe1	0.026695194
226	0xbe19e1ad	-0.15027495
227	0xbc80dd36	-0.015730482
228	0xbd8a8463	-0.06763532
229	0x3ea18746	0.31548518
230	0xbc965282	-0.01834989
231	0x3e1b76de	0.15182063
232	0xbcdb7adb	-0.02679198
233	0xbc953eda	-0.018218447
234	0xbc619b79	-0.013769978
235	0xbc658320	-0.014008313
236	0xbca39277	-0.0199673
237	0x3cb2789e	0.02178603
238	0x3bf5c993	0.007500836
239	0xbcb5b8f0	-0.022182912
240	0xba33f46d	-0.00068647304
241	0xbc912fce	-0.01772299
242	0x3cdcfbd4	0.02697555
243	0x3c683384	0.0141724385
244	0xbd815ec1	-0.06316901
245	0xbc91c969	-0.017796235
246	0xbc9a8a4f	-0.018864779
247	0xbc8fb4f7	-0.017542345
248	0x3c677b2d	0.0141284885
249	0xbcaf5a31	-0.021405311
250	0x3c7c7eaf	0.015411063
251	0xbc659e01	-0.014014722
252	0x3cc749ac	0.024327122
253	0x3c505366	0.012715196
254	0x3c901bd7	0.0175914
255	0x3caab3f9	0.02083777

model.model.3.bias f4 [2]
0	0x3e2c9f41	0.16857626
1	0xbf6dc2ae	-0.9287518

model.lat_embed.weight f4 [160, 5]
0	0xbda0b720	-0.07847428
1	0xbf2892f1	-0.65849215
2	0xbe02bcee	-0.12767383
3	0x3eed0117	0.46289894
4	0x3f9c8e6f	1.2230967
5	0xbef7a974	-0.4837147
6	0x3f0802dd	0.5312937
7	0xbf88c620	-1.0685463
8	0xbd3df7cd	-0.0463789
9	0x3ee5a1ec	0.448501
10	0xbf81da6c	-1.0144782
11	0x3f368fc5	0.71313125
12	0xbf23f7e3	-0.6405012
13	0xbf3949ef	-0.7237844
14	0x3e4bdf2a	0.19909349
15	0xbf09679f	-0.5367374
16	0xbf46c26c	-0.77640414
17	0xbf39f650	-0.7264147
18	0x3e7bf7d9	0.24606265
19	0x3f82ee26	1.0228927
20	0xbfaf43ef	-1.3692607
21	0x3f374c06	0.7160038
22	0xbf4b4786	-0.7940601
23	0x3d4a0c53	0.04932816
24	0x3e49b08c	0.19696254
25	0x3e449196	0.19196162
26	0x3e79efa5	0.24407823
27	0x3f54dfec	0.8315418
28	0x3f898c91	1.0746022
29	0x3eb79f00	0.35863495
30	0xbf8c45ca	-1.0958798
31	0x3f42ddb6	0.76119554
32	0xbf8ae6c4	-1.0851674
33	0x3f1aa927	0.60414356
34	0xbf344f54	-0.70433545
35	0xbfbf8cc8	-1.4964838
36	0x3f204fad	0.62621576
37	0xbf75e774	-0.96056294
38	0x3ef5830c	0.47951543
39	0xbf123c6d	-0.5712345
40	0xbf8fb6b6	-1.1227634
41	0x3ed17039	0.40905932
42	0xbfd2032a	-1.6407216
43	0x3f8c6403	1.0968021
44	0xbe9eafe4	-0.3099357
45	0xbebf5351	-0.37368253
46	0x3ef3ccc7	0.4761717
47	0x3e74e659	0.23915996
48	0x3f3b4b13	0.7316143
49	0x3f75937a	0.95928156
50	0xbf5ecba3	-0.87029475
51	0x3e974c47	0.29550382
52	0xbcd86792	-0.026416574
53	0x3f67f407	0.9060673
54	0x3f3d9262	0.7405149
55	0xbde069d7	-0.10957687
56	0x3f6d2946	0.92641103
57	0x3f0a5d1e	0.54048336
58	0x3f400c2b	0.75018567
59	0x3f1fabe8	0.62371683
60	0xbe297dc2	-0.16551879
61	0x3f810516	1.0079677
62	0x3e9a04b7	0.30081722
63	0x3f451c34	0.7699616
64	0x3f37e8ce	0.71839607
65	0xbf8441c9	-1.0332576
66	0x3f413a30	0.7547941
67	0xbe8b7397	-0.27236626
68	0x3e859a24	0.26094162
69	0xbe5873f0	-0.21137977
70	0xbf371597	-0.7151732
71	0x3f4690f9	0.7756496
72	0xbe02c0a5	-0.127688
73	0x3f334ad7	0.7003607
74	0xbf5e8851	-0.8692675
75	0xbf8f2e2c	-1.1185966
76	0x3f0b531a	0.5442368
77	0xbe47faae	-0.1952922
78	0x3f322a6d	0.69595987
79	0x3edd5957	0.43232223
80	0xbf08a838	-0.5338168
81	0x3f652b48	0.89519167
82	0xbee3fa34	-0.44526827
83	0x3f44b6ee	0.7684163
84	0x3e9b5db3	0.30344924
85	0xbfa305cc	-1.2736144
86	0x3ecd78a4	0.40131104
87	0x3f18a44a	0.59625685
88	0x3efbc611	0.4917455
89	0x3f5d8346	0.8652843
90	0xbfb0460e	-1.3771379
91	0x3f022bde	0.50848186
92	0x3f3daa48	0.74087954
93	0x3e2e7c40	0.17039585
94	0x3f1220f0	0.5708151
95	0xbf82a225	-1.0205733
96	0x3f3a9763	0.7288725
97	0xbe557d05	-0.20848472
98	0x3f010e79	0.5041271
99	0x3ecf77e0	0.40521145
100	0xbf8f1557	-1.1178387
101	0x3f34405c	0.70410705
102	0xbe1e7afd	-0.15476604
103	0x3f3bb0f5	0.7331689
104	0x3ecaa14d	0.39576188
105	0xbf90f2a5	-1.1324049
106	0x3f801d48	1.0008936
107	0x3ed8ea54	0.42366278
108	0x3cbaf764	0.022823043
109	0xbe2e3f0b	-0.17016236
110	0xbe8ce1a2	-0.27515894
111	0x3fc83c63	1.5643429
112	0xbf044b3d	-0.51677305
113	0x3f0ccf6d	0.55004007
114	0xbee3ed1b	-0.44516835
115	0xbf0d7794	-0.55260587
116	0x3fa67707	1.3005074
117	0xbed9b520	-0.42521
118	0x3f100d84	0.56270623
119	0xbe984ea6	-0.29747504
120	0xbe50d5f7	-0.20394121
121	0x3f4e7b51	0.80656916
122	0xbf097e6f	-0.5370855
123	0x3fa38f05	1.2778021
124	0xbec9baef	-0.39400432
125	0x3f552dfe	0.83273304
126	0xbd5c6131	-0.053803626
127	0x3f1d9ab6	0.61564195
128	0x3fe25b06	1.7684028
129	0x3e006ac4	0.12540728
130	0x3f1100a1	0.56641585
131	0x3e876035	0.26440588
132	0x3ff93321	1.9468728
133	0xbef14a97	-0.4712722
134	0xbf9d7b2a	-1.2303212
135	0x3ef45fde	0.4772939
136	0x3f162765	0.5865386
137	0x3f8ff95c	1.1247973
138	0x3f17658b	0.5913932
139	0xbf24b1b9	-0.64333683
140	0x3de7e29f	0.113225214
141	0xbef0e48c	-0.47049367
142	0x3f2bd520	0.6712208
143	0x3fc3dc00	1.5301514
144	0x3e52f907	0.20602809
145	0x3f63ae07	0.8893742
146	0x3f691d26	0.910601
147	0x3f3530f7	0.7077784
148	0x3f4bd1ed	0.79617196
149	0xbf43e6c8	-0.7652402
150	0x3e12acc0	0.14323711
151	0x3eecb767	0.46233675
152	0x3f166174	0.5874245
153	0x3f5fe5b5	0.8745988
154	0xbf7729e2	-0.96548283
155	0xbeaf24d6	-0.3420779
156	0x3f8624d9	1.0479995
157	0x3f05aed9	0.5221992
158	0xbd80b316	-0.06284158
159	0xbedf1547	-0.4357092
160	0x3f6b5ac9	0.919354
161	0x3f78784a	0.97058547
162	0xbf4f2b54	-0.8092549
163	0x3f800c37	1.0003728
164	0x3e31b8fe	0.17355725
165	0x3f1ba70f	0.60801786
166	0x3e97fa33	0.29683074
167	0xbf6666e6	-0.9000076
168	0x3fd3c32b	1.6543936
169	0xbe21397c	-0.15744585
170	0x3f2a4b2f	0.6652097
171	0x3f0d80d6	0.55274713
172	0xbec9a634	-0.39384615
173	0x3fb50616	1.4142482
174	0xbec10715	-0.37700716
175	0x3f844d0a	1.033601
176	0x3e777695	0.24166329
177	0xbf7ba162	-0.98293126
178	0x3f9d9a10	1.2312641
179	0x3c790c47	0.015200681
180	0x3f970cd5	1.1800791
181	0x3f2cfb54	0.67570996
182	0xbf565be1	-0.83733946
183	0x3f4b8024	0.794924
184	0x3edf523e	0.43617433
185	0x3fa20ff6	1.2661121
186	0x3e8973b3	0.26846084
187	0xbdf072a4	-0.11740616
188	0x3f5944d3	0.8487064
189	0x3de15e99	0.11004371
190	0x3f95f965	1.1716734
191	0x3db3d6e5	0.08781222
192	0xbdf4cd0d	-0.11953173
193	0x3f52f3f1	0.82403475
194	0x3c7d0e4c	0.015445303
195	0x3f936e1c	1.1517978
196	0x3f065af7	0.5248255
197	0x3e450c4f	0.19242977
198	0xbdc19e58	-0.0945403
199	0xbe12f30f	-0.14350532
200	0x3f391b92	0.72307694
201	0xbef06c3c	-0.46957576
202	0x3e2f9211	0.17145564
203	0x3f20a5fe	0.62753284
204	0xbe417cce	-0.18895265
205	0x3f95187f	1.1648101
206	0x3ebdc031	0.37060693
207	0xbeb2181b	-0.34784016
208	0x3e915471	0.28384736
209	0xbd0bf2da	-0.03416715
210	0x3f01f67e	0.5076674
211	0xbed0f970	-0.40815306
212	0x3fc2ca84	1.5218053
213	0x3f532df4	0.82491994
214	0xbfb30593	-1.3986076
215	0x3f8004d6	1.0001476
216	0xbebac625	-0.36479297
217	0x3e2d60c8	0.1693145
218	0x3f152ef6	0.5827478
219	0xbe38cf58	-0.18047845
220	0x3f90c81c	1.1311069
221	0xbeb5ddd7	-0.35520813
222	0x3e2cd0d6	0.1687654
223	0x3f0e61c7	0.55617946
224	0xbe3a38d2	-0.18185738
225	0x3f6b5422	0.9192525
226	0x3f16e58f	0.5894403
227	0x3efc668b	0.49296984
228	0xbf748b44	-0.95525
229	0xbdee11f6	-0.116245195
230	0x3f480123	0.78126734
231	0x3ef2fd38	0.47458816
232	0x3eefb72f	0.46819445
233	0xbfa31aec	-1.2742591
234	0x3daa38ab	0.0831159
235	0x3f888447	1.0665368
236	0xbe7af79a	-0.24508515
237	0xbddf9f41	-0.10919047
238	0x3e9ceb2b	0.3064817
239	0xbdd251a7	-0.1026948
240	0x3f9c8ecb	1.2231077
241	0x3dea06b9	0.114270635
242	0x3d004037	0.03131124
243	0xbdcbbbbd	-0.099479176
244	0xbe301287	-0.17194568
245	0x3f9583b0	1.1680813
246	0xbe57f0c8	-0.21087945
247	0xbdaf6b05	-0.08565334
248	0x3e937c69	0.28805855
249	0xbe2a19e2	-0.16611436
250	0x3f6918f4	0.910537
251	0xbf234d70	-0.63790035
252	0xbe9da6d0	-0.3079133
253	0x3ec07880	0.37591934
254	0x3dabe80e	0.0839387
255	0x3f5c9161	0.8615933

model.lon_embed.weight f4 [220, 5]
0	0x3d263130	0.040574253
1	0xbfa9c769	-1.326398
2	0x3fbc2a6f	1.470045
3	0xbf14f7fb	-0.5819089
4	0xbf4b52fa	-0.7942349
5	0xc006d8a5	-2.106973
6	0x3fd9173d	1.6960217
7	0x3ea10111	0.31446126
8	0xbeebba90	-0.46040773
9	0xbe9fb3ae	-0.31191772
10	0xbf65ebf7	-0.8981318
11	0xbdd76c12	-0.1051866
12	0x3f14c336	0.5811037
13	0x3f5e1537	0.8675112
14	0x3fed7f9e	1.8554571
15	0xbe490d78	-0.19634044
16	0x3fc789c5	1.5588919
17	0x3f5a92ae	0.85380065
18	0xbf114189	-0.56740624
19	0x3f202e9e	0.6257113
20	0x3f968e39	1.1762153
21	0x3f9d95d1	1.2311345
22	0xbf15fa52	-0.58585083
23	0x3ed777ac	0.4208349
24	0xbf67cad6	-0.9054388
25	0x3f840eac	1.0316978
26	0x3f7e2df6	0.9928888
27	0xbf088374	-0.5332558
28	0xbea4d96e	-0.32197136
29	0xbf3a1724	-0.7269156
30	0x3f272e91	0.6530543
31	0xbf9451e5	-1.1587492
32	0xbee05cc8	-0.43820786
33	0xbe822c26	-0.25424308
34	0x3f85305b	1.0405382
35	0x3ec9302f	0.39294574
36	0xbe2199d4	-0.15781337
37	0x3f788864	0.97083116
38	0x3f0d231b	0.5513169
39	0xbb8eef44	-0.004362019
40	0x3faad750	1.3346958
41	0xbf7441b4	-0.95412755
42	0x3e147d14	0.14500839
43	0xbffa6fc3	-1.9565357
44	0x3ff2342d	1.8922173
45	0xbfc88fe7	-1.5668916
46	0x3f2d0f2b	0.6760127
47	0x3c4c6357	0.012474856
48	0xbe3fd4b2	-0.1873348
49	0xbd7bd4bd	-0.06148218
50	0xbf804669	-1.0021487
51	0x3d4158d2	0.047203846
52	0xbd24460a	-0.040105857
53	0x3ff591f1	1.9185163
54	0x3f26da64	0.6517699
55	0xbfbf3977	-1.4939412
56	0x3e92e2ce	0.28688663
57	0x3f627c6b	0.88471097
58	0x3f32fce5	0.69917136
59	0xbef5979e	-0.47967237
60	0x3f223cb9	0.63373905
61	0x3f738bd8	0.9513526
62	0x3f5de38d	0.8667534
63	0x3f7c1784	0.9847338
64	0xbf77fc3e	-0.96869266
65	0x3ca6d56a	0.020365436
66	0x3f571de1	0.84029967
67	0x3f0734d6	0.52814996
68	0x3f511f08	0.81687975
69	0x3ef6ac10	0.48178148
70	0xbea4f960	-0.32221508
71	0x3fca0da5	1.5785414
72	0x3f819ffe	1.0126951
73	0xbeb23a1b	-0.34809956
74	0xbf1584bd	-0.5840567
75	0x3da20332	0.07910766
76	0x3f54bf2d	0.8310421
77	0x3f83a1dc	1.028377
78	0x3ec7090a	0.38874084
79	0xbdfeb92f	-0.12437665
80	0xbd27ef30	-0.04099959
81	0x3ea11fea	0.3146966
82	0x3f83d222	1.0298502
83	0x3f089b49	0.53361946
84	0x3f1848f5	0.59486324
85	0x3eca2127	0.39478418
86	0xbf7f3aaa	-0.9969889
87	0x3efb1306	0.4903795
88	0x3fbc09bb	1.469047
89	0x3fdcaef3	1.724089
90	0x3f2f246e	0.6841496
91	0xbecf7eeb	-0.40526518
92	0x3f8b5c60	1.0887566
93	0x3f8f4ee4	1.119595
94	0x3f56344e	0.8367356
95	0x3da34b69	0.07973368
96	0x3fcf83c1	1.6212083
97	0x3f791630	0.9729948
98	0xbeb4ddf8	-0.353256
99	0xbf3c1f13	-0.73484915
100	0x3fa0a3c6	1.254998
101	0xbd9b4403	-0.075813316
102	0x3f188fa3	0.5959417
103	0x3f95019e	1.1641119
104	0x3f173f0f	0.59080595
105	0x3d637a2b	0.05553643
106	0x3edb67ff	0.4285278
107	0x3f8632a7	1.0484208
108	0x3ee0f561	0.4393721
109	0x3f2f2247	0.6841168
110	0x3f63d325	0.88994056
111	0x3f93127f	1.149002
112	0x3f9cfe97	1.2265195
113	0x3e99f287	0.30067846
114	0xbf6421d6	-0.8911413
115	0xc000e9c1	-2.0142672
116	0x3f6f06a2	0.93369496
117	0x3f547294	0.8298733
118	0xbe666b6b	-0.22501914
119	0x3f2f953e	0.685871
120	0xbda200fe	-0.079103455
121	0x3ebb3775	0.36565748
122	0x3f9a0baa	1.203481
123	0x3f39cc1b	0.72577065
124	0x3ec80dae	0.39072937
125	0x3fb46723	1.4093975
126	0xbd9d8ada	-0.076924995
127	0x3fd2ede1	1.6478845
128	0x3f9314e2	1.1490748
129	0xbf3df849	-0.7420698
130	0xbeee0c0b	-0.46493563
131	0x3e9284bb	0.2861689
132	0x3f1b3a5d	0.6063593
133	0x3f71f015	0.9450696
134	0x3f40d644	0.75326943
135	0xbf03207c	-0.5122144
136	0xbeb72ff8	-0.35778785
137	0x3f61e847	0.8824505
138	0x3f5947ab	0.8487498
139	0x3fc6cd7d	1.553146
140	0xbe61a54a	-0.22035709
141	0xbde5f0c9	-0.11227567
142	0x3fc8448b	1.5645918
143	0x3e293d5f	0.16527317
144	0x3fa9628a	1.3233197
145	0xbe0a0bff	-0.13481139
146	0x3f16f4e5	0.5896743
147	0x3f9a1f5a	1.2040818
148	0x3f143dfc	0.5790708
149	0x3d8effff	0.06982421
150	0x3edac946	0.42731684
151	0x3f1d155e	0.6136073
152	0x3fad95b9	1.3561317
153	0x3f30fa15	0.69131595
154	0xbea37997	-0.31928703
155	0x3ff9e7da	1.952388
156	0xbfa8529e	-1.3150213
157	0x3ee25e9b	0.44212803
158	0x3f7d1999	0.98867184
159	0x3fe919f8	1.821105
160	0x3ea7a73f	0.32744786
161	0xbda3d1a2	-0.07998969
162	0x3ee0b6ea	0.43889552
163	0x400999db	2.1500156
164	0xbe8258bb	-0.2545832
165	0x3f0ab947	0.5418896
166	0x3ef6e184	0.4821893
167	0x3f5a6c7a	0.8532177
168	0x3fba06e2	1.453335
169	0xbf94e2fc	-1.163177
170	0x3ee709e6	0.4512474
171	0x3e1aee87	0.15130053
172	0x3f885675	1.0651385
173	0x3fdeb28f	1.7398242
174	0xbfa6cbda	-1.303096
175	0x3f9dcb34	1.2327638
176	0xbfa71937	-1.305457
177	0xbedf1c9e	-0.4357652
178	0x3fa1f6bf	1.2653426
179	0x3ffd7c58	1.9803572
180	0x3f60129c	0.87528396
181	0xbf9fc722	-1.2482646
182	0xbf144ff2	-0.57934487
183	0x3fafc493	1.3731865
184	0x400d6b58	2.2096767
185	0x3f90efc7	1.1323174
186	0xbfad29d9	-1.3528396
187	0xbe969fcb	-0.29418787
188	0x3f93fd51	1.1561681
189	0x3fded5e9	1.740903
190	0xbeecdf17	-0.46263954
191	0xbdd5b954	-0.10435739
192	0x3fe7755b	1.8082689
193	0x3f1631a8	0.5866952
194	0xbee94f9a	-0.45568544
195	0xbf4906b8	-0.78525877
196	0xbe95ec07	-0.29281637
197	0xbe84e296	-0.2595412
198	0x4006b926	2.1050506
199	0x3e5013e7	0.20320092
200	0xbf5c532a	-0.860644
201	0xbdb13984	-0.08653548
202	0x3fbe77cb	1.4880308
203	0x3eda84a7	0.4267933
204	0xbebd91dc	-0.37025344
205	0xbfa95f0b	-1.323213
206	0x3f09c8d4	0.53822064
207	0x3f7a9fa9	0.9789987
208	0x3e37a356	0.17933401
209	0xbed0c603	-0.4077607
210	0xbf70cbcf	-0.9406099
211	0x3e03fa1e	0.12888381
212	0x3fc18f83	1.5121921
213	0x3ec5b1ec	0.38612306
214	0xbea3c7ae	-0.3198828
215	0xbf525a3c	-0.82168937
216	0xbddc6b54	-0.10762659
217	0x3fbddea6	1.4833572
218	0xbd4d2f1d	-0.05009376
219	0x3e8242c4	0.25441563
220	0x3f530fa0	0.82445717
221	0xbdf81f67	-0.121153645
222	0xbf083228	-0.5320153
223	0x3f216f4a	0.6306044
224	0x3f9754b7	1.1822728
225	0x3ee096b1	0.43864968
226	0xbf1b058d	-0.60555345
227	0x3e67c9b9	0.22635545
228	0x3fcfd262	1.6236079
229	0x3ed67eef	0.41893718
230	0x3eb77e52	0.35838562
231	0xbf626c43	-0.88446444
232	0x3e944f9a	0.2896698
233	0x3f327b31	0.69719225
234	0x3f77f7eb	0.9686267
235	0x3cd50d41	0.026007297
236	0xbf560b3a	-0.8361088
237	0xbe900746	-0.2813055
238	0x3fc33743	1.525124
239	0x3f153e2d	0.58298
240	0x3f05c0c8	0.52247286
241	0xbf7fb470	-0.998847
242	0x3ea2a418	0.3176582
243	0x3f06b416	0.5261854
244	0x3f93110c	1.1489577
245	0x3f0ea7d5	0.5572484
246	0xbf52d982	-0.8236314
247	0x3eac45d9	0.3364704
248	0x3f519d35	0.81880504
249	0x3f58847b	0.8457715
250	0xbd9e4425	-0.07727841
251	0xbda21e36	-0.079159185
252	0x3e496fb3	0.19671516
253	0x3fb19880	1.3874664
254	0xbee71147	-0.4513037
255	0xbecc3965	-0.3988754

exp_avg f4 [512, 15]
0	0x38cb2430	9.686535e-05
1	0x387e6e65	6.0661132e-05
2	0xb84a2ecd	-4.820414e-05
3	0x3871e6d4	5.7673853e-05
4	0x3840c2e5	4.5957877e-05
5	0x38293788	4.0344457e-05
6	0x36bd070e	5.63346e-06
7	0xb8079c92	-3.2332326e-05
8	0xb8720a8a	-5.770711e-05
9	0x375ea5e9	1.327086e-05
10	0xb84c1059	-4.8652615e-05
11	0x3682ec54	3.901814e-06
12	0xb80bdc22	-3.3345197e-05
13	0xb84c14ba	-4.8656693e-05
14	0xb882d241	-6.238046e-05
15	0x38a86137	8.028972e-05
16	0x386ab868	5.596169e-05
17	0xb7744088	-1.4558558e-05
18	0x37c2e81a	2.3234683e-05
19	0x3793c367	1.7614757e-05
20	0x3893188a	7.014077e-05
21	0xb83b15a9	-4.4604447e-05
22	0xb83624f9	-4.3426615e-05
23	0xb8a30d1e	-7.774889e-05
24	0xb7e418a8	-2.71912e-05
25	0xb8241895	-3.912354e-05
26	0xb7d05b73	-2.4838117e-05
27	0xb7768aae	-1.46950315e-05
28	0xb80cf724	-3.360877e-05
29	0xb8856e1f	-6.362446e-05
30	0x3806c080	3.212737e-05
31	0x37c81655	2.3852257e-05
32	0x37467a5d	1.183021e-05
33	0x364357b3	2.9108312e-06
34	0x37cd29fd	2.4457457e-05
35	0xb811d446	-3.476839e-05
36	0xb7ea1af3	-2.7907523e-05
37	0xb6db2d99	-6.532017e-06
38	0xb7eb295d	-2.8033444e-05
39	0xb6839602	-3.9215674e-06
40	0xb73aae59	-1.1127057e-05
41	0x37df6240	2.6629423e-05
42	0x38914cbf	6.928434e-05
43	0x380a322a	3.2948483e-05
44	0xb7ec2d41	-2.8154465e-05
45	0x38d7286f	0.0001025953
46	0x3821f172	3.8610255e-05
47	0xb7c32841	-2.3264556e-05
48	0x380c7b02	3.349316e-05
49	0x37d71d39	2.5643605e-05
50	0x3806e176	3.2158066e-05
51	0xb83bcfb6	-4.477772e-05
52	0xb79b8cbf	-1.854298e-05
53	0xb8477931	-4.7558166e-05
54	0xb771382e	-1.43778e-05
55	0xb8805fb8	-6.1213446e-05
56	0xb8465316	-4.728426e-05
57	0xb8333f51	-4.2735894e-05
58	0xb7c3240a	-2.3262593e-05
59	0xb8a432e8	-7.8296114e-05
60	0x38428492	4.637667e-05
61	0x381036c4	3.438328e-05
62	0xb85e4438	-5.299246e-05
63	0xb6e7871e	-6.900066e-06
64	0x375e50d7	1.3251053e-05
65	0x38080e94	3.2438504e-05
66	0xb7c6988a	-2.367447e-05
67	0xb85e26d6	-5.2965093e-05
68	0xb856762f	-5.1131643e-05
69	0xb7c2b353	-2.3210107e-05
70	0xb889ca7b	-6.570384e-05
71	0xb76d4175	-1.4141541e-05
72	0x37c86e07	2.3893093e-05
73	0xb8633b0d	-5.4176013e-05
74	0xb852d42c	-5.0265502e-05
75	0x38ca2a21	9.639958e-05
76	0x38b0e4f6	8.434981e-05
77	0xb81b4a8c	-3.7024307e-05
78	0x37ec15d1	2.8143551e-05
79	0x381e261e	3.7705635e-05
80	0x3833a31e	4.282884e-05
81	0xb7fa9745	-2.9872763e-05
82	0xb7e99443	-2.7844804e-05
83	0xb715f114	-8.937222e-06
84	0xb8095110	-3.273884e-05
85	0xb891ae9f	-6.9466645e-05
86	0xb7851833	-1.5866104e-05
87	0xb822f669	-3.8853297e-05
88	0xb7534641	-1.2592937e-05
89	0xb7d257bc	-2.5074805e-05
90	0x391da0c4	0.00015032577
91	0x382422ba	3.913299e-05
92	0xb801584f	-3.083824e-05
93	0x3893550e	7.025349e-05
94	0x38881a92	6.4899345e-05
95	0xb7705630	-1.4325182e-05
96	0xb72efb41	-1.0429708e-05
97	0xb70c1eaf	-8.351794e-06
98	0xb8a0b013	-7.662191e-05
99	0xb70c83b7	-8.3753175e-06
100	0xb8c697cd	-9.469651e-05
101	0xb8276a90	-3.9915147e-05
102	0xb85d46f1	-5.2756575e-05
103	0xb8c2f43b	-9.296132e-05
104	0xb87b4268	-5.990491e-05
105	0x3938ba4d	0.0001761701
106	0x38a471fd	7.8413614e-05
107	0xb7ab3a02	-2.04118e-05
108	0x38fb8671	0.00011993654
109	0x38ebdecc	0.000112471724
110	0x38cdba5b	9.809873e-05
111	0x36e89b64	6.9322286e-06
112	0xb839bb68	-4.4281973e-05
113	0xb862d098	-5.4076867e-05
114	0x377ff050	1.52551365e-05
115	0xb83b0b44	-4.4594766e-05
116	0xb86dfa39	-5.673824e-05
117	0xb874ae76	-5.8336613e-05
118	0xb7dc7738	-2.628156e-05
119	0xb814737b	-3.53935e-05
120	0x38bc0697	8.965766e-05
121	0x38ccff20	9.774999e-05
122	0xb7f02695	-2.8628196e-05
123	0x37a353be	1.947011e-05
124	0x3864a2fa	5.451122e-05
125	0x383d0819	4.5068653e-05
126	0x36c7a02f	5.94931e-06
127	0xb8062caf	-3.1989704e-05
128	0xb8afcea7	-8.383142e-05
129	0xb69e918b	-4.7257104e-06
130	0xb7fd3eeb	-3.0189249e-05
131	0xb6b0a803	-5.264768e-06
132	0xb7da3d93	-2.6016298e-05
133	0xb8831944	-6.251273e-05
134	0x36259e2f	2.467899e-06
135	0x37dea59e	2.6541584e-05
136	0x38832049	6.25258e-05
137	0xb704a6b7	-7.906629e-06
138	0xb7b1cc47	-2.1195168e-05
139	0xb66bb89e	-3.512519e-06
140	0x3654a3c4	3.1685786e-06
141	0xb7a09163	-1.9141187e-05
142	0x37818d82	1.5443893e-05
143	0xb86c59e6	-5.635051e-05
144	0xb83a18fb	-4.436912e-05
145	0xb7fe4190	-3.030969e-05
146	0xb8014dcd	-3.0828454e-05
147	0xb82105cc	-3.839079e-05
148	0xb682b644	-3.8955204e-06
149	0xb83c460c	-4.488793e-05
150	0x38f4a432	0.000116654104
151	0x384c8ad0	4.876667e-05
152	0xb6139c5d	-2.1995722e-06
153	0x387e74e7	6.0667193e-05
154	0x3898350d	7.257806e-05
155	0x382324ae	3.889639e-05
156	0xb7298fa9	-1.0106633e-05
157	0xb7ff8bba	-3.0463434e-05
158	0xb7cb5bb9	-2.4242197e-05
159	0xb74a0510	-1.2041317e-05
160	0xb822be90	-3.8801285e-05
161	0x36d38163	6.3033526e-06
162	0xb7e97cce	-2.7833881e-05
163	0xb70cae63	-8.385253e-06
164	0xb828afc4	-4.0218016e-05
165	0xb8123bd2	-3.4864825e-05
166	0xb8994fae	-7.31045e-05
167	0x374c3959	1.21727e-05
168	0xb772e328	-1.4477213e-05
169	0x379a9b14	1.8430444e-05
170	0x36cb1ce0	6.053233e-06
171	0x376b85a9	1.4038212e-05
172	0xb8561f64	-5.105081e-05
173	0x371c80d1	9.328317e-06
174	0xb8158292	-3.564597e-05
175	0xb6840fd3	-3.9357487e-06
176	0xb76696bc	-1.3744164e-05
177	0xb86576ae	-5.4708384e-05
178	0xb6f407d6	-7.272679e-06
179	0x383f9b20	4.568242e-05
180	0x3a2874fc	0.00064261234
181	0xb8bbdd9e	-8.958134e-05
182	0x35edc84c	1.771617e-06
183	0x3a00e4f3	0.00049169286
184	0x39e856e1	0.00044315218
185	0xb77d2fc7	-1.5091099e-05
186	0x3715732e	8.907909e-06
187	0xb9af007f	-0.0003337897
188	0xb8a604cf	-7.9163925e-05
189	0xb9097733	-0.00013109743
190	0x389f2515	7.588618e-05
191	0x38fdaa57	0.000120957084
192	0x37929290	1.7472805e-05
193	0x38807fe6	6.1273386e-05
194	0x381a7911	3.6829213e-05
195	0xb85a030e	-5.1978095e-05
196	0xb6cb0eed	-6.051609e-06
197	0x3791ebf8	1.7395228e-05
198	0xb85000ac	-4.959169e-05
199	0xb7af9473	-2.0930753e-05
200	0xb6a9876a	-5.0523568e-06
201	0xb66b40e5	-3.5055502e-06
202	0x37eddd0b	2.8355533e-05
203	0xb7e4d0c8	-2.727694e-05
204	0xb7da255b	-2.600502e-05
205	0xb7507745	-1.2425536e-05
206	0xb76e9df2	-1.422268e-05
207	0x3714f694	8.878898e-06
208	0xb843b50b	-4.6660232e-05
209	0x3809b6a2	3.2833435e-05
210	0xb5f407f0	-1.8181727e-06
211	0xb8637e0c	-5.4238408e-05
212	0xb57fe3c4	-9.5326345e-07
213	0xb77a17fa	-1.4906744e-05
214	0x3709bf89	8.210432e-06
215	0xb6b92bc9	-5.518527e-06
216	0x372662ac	9.917345e-06
217	0xb7b1869e	-2.116273e-05
218	0xb82bd58b	-4.0968454e-05
219	0x37a11749	1.9203539e-05
220	0xb871c35e	-5.7640827e-05
221	0xb71f123d	-9.481385e-06
222	0xb704f336	-7.92444e-06
223	0xb6294030	-2.5220324e-06
224	0x37902cc4	1.7186983e-05
225	0xb7cfb703	-2.4761544e-05
226	0xb80131cf	-3.0802385e-05
227	0xb6cb41c0	-6.0575258e-06
228	0xb82603e4	-3.9581108e-05
229	0xb6dd5adc	-6.5968907e-06
230	0xb723fe00	-9.774696e-06
231	0x38823be6	6.21004e-05
232	0xb5f7155e	-1.8409153e-06
233	0x37308a3e	1.05226045e-05
234	0xb7a2bada	-1.9398914e-05
235	0x37c97e74	2.4019952e-05
236	0x36bca07d	5.62152e-06
237	0xb630af3d	-2.6328046e-06
238	0x37ce2fd5	2.4579387e-05
239	0xb7a5c3be	-1.9760682e-05
240	0x37848f5e	1.5802387e-05
241	0xb8075d67	-3.2273496e-05
242	0xb7a47e26	-1.9609066e-05
243	0xb75bced5	-1.3101574e-05
244	0x3860928c	5.3542244e-05
245	0x37636945	1.3554764e-05
246	0x37ea637f	2.7941305e-05
247	0x38485396	4.776156e-05
248	0x371aeaac	9.233754e-06
249	0xb7379126	-1.0941445e-05
250	0x3731b65e	1.0592483e-05
251	0xb7fc0358	-3.0042298e-05
252	0x37db786f	2.6162916e-05
253	0xb7ea66a0	-2.7942762e-05
254	0xb8634702	-5.418715e-05
255	0x38ef4c7d	0.00011410655

exp_avg_sq f4 [512, 15]
0	0x3511b336	5.4277496e-07
1	0x333baf8d	4.3698993e-08
2	0x33246da6	3.828395e-08
3	0x34a6ded7	3.1082047e-07
4	0x34755cef	2.2851212e-07
5	0x33526186	4.8983132e-08
6	0x332e3724	4.0562682e-08
7	0x3322b739	3.7885204e-08
8	0x3369574f	5.4328947e-08
9	0x33139791	3.4363953e-08
10	0x3314e9a5	3.4671434e-08
11	0x33733220	5.6623435e-08
12	0x3354cadf	4.9544607e-08
13	0x3352f277	4.9114956e-08
14	0x333de62a	4.4214325e-08
15	0x34ffdc9d	4.765797e-07
16	0x33269f8c	3.8794994e-08
17	0x3302f514	3.049088e-08
18	0x348ea98b	2.657292e-07
19	0x344e88ea	1.9235054e-07
20	0x33302bd6	4.1018062e-08
21	0x331b2720	3.6124334e-08
22	0x33122903	3.4030574e-08
23	0x3348bb01	4.6736208e-08
24	0x32e105d3	2.6196096e-08
25	0x32fbd089	2.9315077e-08
26	0x335264a3	4.8985964e-08
27	0x3335b375	4.230556e-08
28	0x3334ca5d	4.2093564e-08
29	0x33286263	3.920503e-08
30	0x33e13e69	1.0488731e-07
31	0x32bddd90	2.210325e-08
32	0x32b171d6	2.0657279e-08
33	0x337c3d0c	5.8728844e-08
34	0x33544de5	4.943094e-08
35	0x32b984f9	2.1597304e-08
36	0x3287754c	1.5769409e-08
37	0x3304384a	3.078484e-08
38	0x32d4c4b8	2.4769506e-08
39	0x32ac46bb	2.00556e-08
40	0x32852c48	1.5503375e-08
41	0x3373d87d	5.677474e-08
42	0x32cc9946	2.3818426e-08
43	0x32c91d09	2.3412683e-08
44	0x32fe04a4	2.9571602e-08
45	0x34dd9a6f	4.1276823e-07
46	0x33122e31	3.4035285e-08
47	0x32f98025	2.9045689e-08
48	0x347763c0	2.3039956e-07
49	0x3432f116	1.6665248e-07
50	0x33224e12	3.778957e-08
51	0x3306972e	3.1336803e-08
52	0x33114513	3.3823266e-08
53	0x33242b68	3.8223703e-08
54	0x329c2fc0	1.8182504e-08
55	0x32dece2a	2.5937954e-08
56	0x333dd1ea	4.4195907e-08
57	0x3325e34c	3.862378e-08
58	0x331e7d3a	3.6901135e-08
59	0x330d886f	3.2953206e-08
60	0x3583080d	9.762604e-07
61	0x3351f057	4.8880192e-08
62	0x3317cab9	3.5341802e-08
63	0x351fa439	5.947109e-07
64	0x34d8df7d	4.0395744e-07
65	0x3386135f	6.243385e-08
66	0x335132a6	4.870767e-08
67	0x334ed2a4	4.815469e-08
68	0x338f9b39	6.687191e-08
69	0x3303cf06	3.06891e-08
70	0x3321c104	3.766128e-08
71	0x3397fe9a	7.077797e-08
72	0x3371e2f7	5.631861e-08
73	0x3362e326	5.2826316e-08
74	0x3363c209	5.302903e-08
75	0x34b575aa	3.379949e-07
76	0x32fd362b	2.947771e-08
77	0x32d78c9c	2.5093236e-08
78	0x344c229c	1.9011571e-07
79	0x341741e1	1.4086937e-07
80	0x330da8bf	3.2982594e-08
81	0x32f9e6b7	2.9092332e-08
82	0x32fb2b7f	2.9240026e-08
83	0x33102221	3.3558653e-08
84	0x32a58a0e	1.9271308e-08
85	0x32bccc64	2.1979027e-08
86	0x33249d46	3.8327265e-08
87	0x330fe3e5	3.350205e-08
88	0x33067e42	3.1314137e-08
89	0x32f686c9	2.8699462e-08
90	0x34bf8b7d	3.5678013e-07
91	0x33160d76	3.493684e-08
92	0x32d58949	2.4858894e-08
93	0x34488948	1.8676394e-07
94	0x34218b99	1.5045079e-07
95	0x3346bc0a	4.6271488e-08
96	0x32e4d0eb	2.6637698e-08
97	0x32e8357b	2.7032675e-08
98	0x3324cc79	3.8370192e-08
99	0x328db5a6	1.6497165e-08
100	0x32fad9cc	2.9202873e-08
101	0x32e7fd34	2.7007083e-08
102	0x333a06d3	4.3312706e-08
103	0x3309acb8	3.2054885e-08
104	0x332128e8	3.7522938e-08
105	0x35121945	5.442601e-07
106	0x3325d27c	3.860849e-08
107	0x33085bc5	3.174843e-08
108	0x349bf27f	2.904744e-07
109	0x34649b14	2.1290572e-07
110	0x332b43ac	3.9875587e-08
111	0x33039262	3.063395e-08
112	0x3319aee6	3.5782158e-08
113	0x3339ec38	4.328851e-08
114	0x32c88bbb	2.3346606e-08
115	0x32e7733d	2.6944344e-08
116	0x335633bc	4.987281e-08
117	0x3332ce6e	4.16316e-08
118	0x332105ce	3.7491013e-08
119	0x3322520d	3.779319e-08
120	0x350832a1	5.073762e-07
121	0x32f62739	2.8656006e-08
122	0x32c2dd60	2.2685242e-08
123	0x349a3cc6	2.8728954e-07
124	0x345c2a8e	2.0504578e-07
125	0x33159eab	3.4836074e-08
126	0x32ff6117	2.9730058e-08
127	0x32f73e1a	2.8782825e-08
128	0x331f7ccf	3.7133585e-08
129	0x32c4f09e	2.2926823e-08
130	0x32c948ee	2.3432644e-08
131	0x3321a606	3.763673e-08
132	0x330e2830	3.30985e-08
133	0x33096ac5	3.1994905e-08
134	0x3304d157	3.092404e-08
135	0x34e87dc9	4.3304888e-07
136	0x3307e179	3.1637203e-08
137	0x32e58b7d	2.672254e-08
138	0x3480b5cb	2.397413e-07
139	0x343ab16d	1.7387147e-07
140	0x33197d32	3.5736953e-08
141	0x33000cff	2.9814142e-08
142	0x3301013a	3.003627e-08
143	0x331cd7ce	3.6517854e-08
144	0x32a20c5f	1.8864908e-08
145	0x32d0aa49	2.4291824e-08
146	0x333ad0d4	4.3496428e-08
147	0x331aa44a	3.600534e-08
148	0x331d8d34	3.6682835e-08
149	0x330b31fe	3.2408927e-08
150	0x34eca54a	4.407869e-07
151	0x32f1c40b	2.8145243e-08
152	0x32d9363f	2.5286793e-08
153	0x34830644	2.440521e-07
154	0x343d4216	1.7626039e-07
155	0x3310deea	3.3730352e-08
156	0x32f1da37	2.8155325e-08
157	0x32f538b9	2.8547548e-08
158	0x3312ea91	3.420661e-08
159	0x32a54cd8	1.9243473e-08
160	0x32b91428	2.1546e-08
161	0x332b84e0	3.993489e-08
162	0x330781c6	3.1550165e-08
163	0x32fee230	2.967235e-08
164	0x32fb099c	2.9224616e-08
165	0x34992a43	2.852922e-07
166	0x335b348b	5.10377e-08
167	0x33470878	4.6341e-08
168	0x348f046f	2.6639051e-07
169	0x34906855	2.6898002e-07
170	0x333ac53e	4.348589e-08
171	0x3311afd9	3.3920376e-08
172	0x337c53ae	5.874943e-08
173	0x3345d609	4.60623e-08
174	0x3346acf9	4.6257785e-08
175	0x330f9947	3.3434187e-08
176	0x33551877	4.9615178e-08
177	0x3344edc4	4.5851053e-08
178	0x33409321	4.4837297e-08
179	0x33267a6d	3.8761232e-08
180	0x360d41dd	2.1048975e-06
181	0x34562423	1.994345e-07
182	0x33df6dea	1.040424e-07
183	0x357cc4ac	9.416351e-07
184	0x3577ce49	9.2314855e-07
185	0x348250c7	2.427316e-07
186	0x3417466e	1.4088593e-07
187	0x34bafa71	3.482742e-07
188	0x33e0f045	1.04745176e-07
189	0x34a34bfb	3.04164e-07
190	0x339f8c1f	7.429502e-08
191	0x34888ec7	2.5435858e-07
192	0x3430f5a1	1.6480637e-07
193	0x3405a4ca	1.244654e-07
194	0x34325f86	1.6612293e-07
195	0x34466d8c	1.848004e-07
196	0x331436db	3.4508826e-08
197	0x32e30f12	2.6433131e-08
198	0x341258c7	1.3629607e-07
199	0x33fbf1a3	1.1732052e-07
200	0x32b70d83	2.1310148e-08
201	0x32a1454f	1.8774385e-08
202	0x32df1878	2.5971744e-08
203	0x330d4956	3.289582e-08
204	0x32a43c8f	1.9119652e-08
205	0x32a04dc2	1.8661812e-08
206	0x3319721d	3.5726874e-08
207	0x330193cb	3.016957e-08
208	0x32e37247	2.6478245e-08
209	0x32da20f4	2.5393526e-08
210	0x341ff60f	1.4897545e-07
211	0x3317d947	3.535504e-08
212	0x3304bbfc	3.0904616e-08
213	0x33f42b2f	1.13699905e-07
214	0x33d8f922	1.0103601e-07
215	0x3300e7aa	3.001302e-08
216	0x32ccc703	2.3839226e-08
217	0x330706aa	3.1438198e-08
218	0x330f6fbc	3.3396404e-08
219	0x32ca1a8a	2.3527964e-08
220	0x32cb3288	2.365529e-08
221	0x33327fca	4.1560078e-08
222	0x33179e5c	3.5301454e-08
223	0x331e602f	3.687472e-08
224	0x33099b31	3.2038944e-08
225	0x3439bbdb	1.7297809e-07
226	0x3302570f	3.0347163e-08
227	0x32f9bf97	2.907454e-08
228	0x34086e5f	1.270614e-07
229	0x33e81c9a	1.08085445e-07
230	0x32f7a932	2.8831526e-08
231	0x32c40b8d	2.2822656e-08
232	0x33080abc	3.167473e-08
233	0x3309f1e9	3.2117814e-08
234	0x32c361f2	2.2745528e-08
235	0x329f43a3	1.8540794e-08
236	0x33413bc9	4.499069e-08
237	0x3308c3ab	3.1842927e-08
238	0x32f444bc	2.8436595e-08
239	0x3304b6f4	3.090004e-08
240	0x34789685	2.3151559e-07
241	0x3309d5bb	3.2092185e-08
242	0x32d9001a	2.5262171e-08
243	0x342a9d54	1.588972e-07
244	0x33d0c6aa	9.7218916e-08
245	0x33119cf8	3.3903206e-08
246	0x32ee2075	2.7721606e-08
247	0x33261d3a	3.867647e-08
248	0x33078294	3.1550897e-08
249	0x33044145	3.0793007e-08
250	0x32b10a49	2.0610189e-08
251	0x332805a7	3.912069e-08
252	0x33091245	3.1914414e-08
253	0x3320fd51	3.7483293e-08
254	0x32f485d8	2.8466204e-08
255	0x34d21d3c	3.913682e-07
