results/drn/checkpoints/mlp_1.ckpt (torch, 144008 bytes, 18 tensors)

model.model.0.weight f4 [512, 15]
00000000: a42b 943e 3f7b 443d ac63 e23a 17ef 8fbb
00000010: 189a 83be d2a3 3ebd f80b 77bc f2d8 1d3e
00000020: 8b46 62bc 706f 10bd 4e3e 803c 96ec b03c
00000030: 57f4 28bc 43ce 4cbc 9261 853c e378 813d
00000040: 6d06 0f3c 683e 81bd 4654 1e3e 4984 683d
00000050: 0e3e 803d ac26 993d 85a6 aabd 42ee 833d
00000060: f958 78bd 4074 14bc cef4 9a3d ff4d ed3c
00000070: a66b 29bd 2f7f a33d 2cee ba3d 3abc 933d
00000080: a133 183e 8d39 32be c0a5 4ebe dad7 a7bc
00000090: 28cd 353c a828 5d3d d37e edba 6144 3bbd
000000a0: 13c4 ba3b 9202 343d 73bd 55bd dd29 6dbc
000000b0: 4b5e 913c bb65 273e 7a2d 6bbe 56d7 a43d
000000c0: 4651 22be ae2f 0fbd 3863 71be 26c7 80be
000000d0: 35bf 43be f6df 933d 3517 243e 69d6 b13c
000000e0: bb41 f93d f4d3 a23d 323d 20bd cd93 523d
000000f0: 33dc acbe bbee 8f3d 3f96 81bd 1696 6a3e
00000100: a54e f6bc bd4c 30bc 6dd3 71bd efa0 f7bc
00000110: 06e2 c5bd fe81 4c3d fecc 73ba 2c5b 64bb
00000120: 531a bb3c c984 07bd fa80 e73c 0a02 26bd
00000130: 0f05 f4bc cb53 af3d 5db5 3fbe f023 be3d
00000140: df2f 13bd c4db d8bb c9fd b5bd 4162 a73c
00000150: 0753 6d3d e548 e6bd cd57 c8bc fc99 f43d
00000160: 55e8 943b 3213 a53d 6406 2bbe abed 9dbd
00000170: f8bf 1abc f822 bc3d 5efc f8bc 8116 aa3d
00000180: 1872 2b3e 23ae 123c 9e14 2c3e cac9 6bbe
00000190: 55ca 373e 09df a0bd 7957 91be b101 453e
000001a0: fee0 83be f2b4 bfbe e3e9 dc3c 6f82 f03c
000001b0: 920b 123e e93f 253d 8a03 2c3e f626 9f3d
000001c0: dc6b b5bc 9f84 96bd 02de b33a 35b3 973d
000001d0: c380 1f3d e0fe 23bd b27e 46bd ec4f e4ba
000001e0: 15dd 1ebe 8924 aabc a3ae 043e 1dc3 06be
000001f0: fc26 433e 8f98 c5bc 2a1d 22bc c5fd edbd
00000200: 2dec 71bc 6f2d 593d 4cad 14bd 3eb4 9f3d
00000210: 3df1 863d daa2 61bd 8563 aa3d 0c8f af3e
00000220: b692 71bd 46a9 0f3d 34de 5fbe 7047 e23a
00000230: ca76 9a3b df06 123d 4e73 b23b 7e47 ce3d
00000240: 6e8a 82bd 74a5 473d 30f5 933c 441f 5cbc
00000250: fb55 a6b9 7f7d 6b3c cf53 09be 25eb 3e3e
00000260: 9710 edbd bee0 4e3e 6c66 8dbe 102d e23b
00000270: 5387 eabc 2550 2cbe b830 df3d 2c72 85bc
00000280: 545c cfbd 36a2 83bc 8b9d 0f3e aca7 28bd
00000290: c05d 8d3d 3435 573e 27f1 1bbd ba29 2dbc
000002a0: 3afd 16bd 6b7f b9bb 6374 ffba d45b 233c
000002b0: 54d5 bc3d 9f73 483d 2b2a 8ebd 387c 573d
000002c0: 9faf 0e3e ac38 0ab9 9616 a6bd bdd6 f73d
000002d0: 5bc9 15be 3cda 70bc fd7b 77be e2f8 5fbd
000002e0: f2cb 1fbb 9072 0f3e 2b22 21be 35be 8dbe
000002f0: 545c 133d a103 673d 84a7 5a3d dd8a f93c
00000300: 26f0 58bd cd14 303c cc39 e9bc 2a13 aabe
00000310: d2f6 543d cc92 86bd 3cf6 443e 52cb d4bd
00000320: 8d88 30bd 770d 41bd c440 1cbc 0a53 b3bd
00000330: 079f fa3d 773a a8bc 438b 6bbc 86fb 983d
00000340: 7a40 69bc 2591 b83c ae88 2c3e 7065 56bd
00000350: 990f 37be 83de b33d 27d5 7c3c 376d 24bd
00000360: d898 95bd d0e2 d2bd cb13 1ebd b261 ad3d
00000370: f7ba 62bd 4642 0bbc d164 613d 8302 28bd
00000380: 2122 0a3d 1fc4 83be 0c21 933c 3974 1e3c
00000390: 668c 023e 7699 673e fda0 32be 8200 6a3e
000003a0: e714 8e3e eca3 433d b9b7 043d 1e2b 7dbb
000003b0: d9c5 f7bd bbed 073d 7938 963d 66e6 c0bd
000003c0: 2e12 9bbe a0b2 b3bd da05 093e 33cc af3d
000003d0: f305 8ebd 2257 bdbc 971b d8bc 35a5 3cbd
000003e0: a963 78bd 0de2 783d 742a e9bb fa34 1fbd
000003f0: 1292 053d a9be a93c df4f 43bd c3f5 5ebe
0.28939545 0.0479691 0.0017272136 -0.0043925154 -0.25703502 -0.04654295 -0.015078537 0.1541479
-0.013810764 -0.035262525 0.01565471 0.021597188 -0.010312161 -0.0125003485 0.016281877 0.063218854
0.008729559 -0.06310731 0.15461835 0.056766782 0.06261836 0.07478079 -0.08332542 0.064419284
-0.060631726 -0.009060919 0.07566224 0.028967855 -0.041362427 0.07983243 0.09127459 0.07213636
0.14863445 -0.17404766 -0.20180416 -0.020488668 0.011096276 0.05399385 -0.0018119462 -0.045719508
0.0056996434 0.043947764 -0.052182626 -0.014475313 0.017745158 0.16347401 -0.22966567 0.080488846
-0.15851316 -0.03495758 -0.23573005 -0.25151938 -0.19115908 0.072204515 0.16024478 0.021708684
0.1217074 0.07950583 -0.03912086 0.051410485 -0.3376175 0.07027956 -0.06327485 0.22908816
-0.030066798 -0.010760483 -0.059039522 -0.030228106 -0.09662251 0.049928658 -0.00093002606 -0.0034844382
0.0228397 -0.03308562 0.028259743 -0.04052929 -0.029787568 0.08560904 -0.18721528 0.09284198
-0.035934325 -0.006617995 -0.08886296 0.020432593 0.05794051 -0.11244372 -0.02445593 0.11943433
0.0045442977 0.08060302 -0.16701657 -0.07711347 -0.009445183 0.09186357 -0.030393776 0.083050735
0.16742742 0.00895265 0.1680474 -0.23026195 0.17948277 -0.078550406 -0.2838705 0.19238926
-0.25757593 -0.37442738 0.026966995 0.02935907 0.14262226 0.040344153 0.16798225 0.07771103
-0.022146158 -0.07349514 0.001372278 0.07407228 0.038941156 -0.04003799 -0.04846067 -0.0017418838
-0.15514024 -0.020769374 0.12957244 -0.13160367 0.1905784 -0.024120597 -0.009894649 -0.11620668
-0.014765781 0.053021844 -0.03629808 0.0779805 0.06588981 -0.055086948 0.08319763 0.34288824
-0.058977805 0.03507354 -0.21862108 0.0017263722 0.004713868 0.035651084 0.0054458743 0.1007223
-0.063740596 0.048741773 0.01806125 -0.013435189 -0.00031726048 0.014373182 -0.13410877 0.18644388
-0.1157543 0.2020292 -0.27617204 0.0069023445 -0.02862898 -0.16827448 0.10897964 -0.016289793
-0.10125032 -0.01606856 0.14024942 -0.04117553 0.06902647 0.21016389 -0.038071778 -0.01056903
-0.03686259 -0.0056609414 -0.0019489642 0.009970624 0.092203766 0.04893839 -0.06941637 0.0526087
0.13934182 -0.00013181817 -0.08109777 0.12101505 -0.14627592 -0.014700469 -0.24168392 -0.054680713
-0.0024383035 0.14008546 -0.1573569 -0.2768418 0.035976723 0.056399945 0.05338241 0.030461723
-0.0529634 0.010747147 -0.028469943 -0.33217746 0.0519932 -0.06570968 0.19234556 -0.10390343
-0.043098975 -0.04713198 -0.009536926 -0.08756073 0.12237363 -0.02053569 -0.014376464 0.07469849
-0.014236564 0.022530148 0.16849014 -0.052342832 -0.17877044 0.08782675 0.015431679 -0.040143218
-0.07304543 -0.10297167 -0.038593095 0.084658995 -0.055354085 -0.008499688 0.055027787 -0.04101802
0.033723954 -0.25735566 0.017960094 0.009671264 0.1274887 0.22617134 -0.17444225 0.22851756
0.27750322 0.04776375 0.032401774 -0.0038630436 -0.12098283 0.0331857 0.0733499 -0.09418945
-0.30287308 -0.087743044 0.13381138 0.0858387 -0.069347285 -0.023112837 -0.026380343 -0.04605599
-0.06064192 0.060762454 -0.0071156565 -0.03886888 0.032610007 0.020720797 -0.047683593 -0.21773438

model.model.0.bias f4 [512]
00000000: 50d8 733d 885a f03d add6 d53d a2bf b8be
00000010: 9fd3 e63d 138f e53d 9c35 34bf 5aed e43d
00000020: 6e8b 0b3e b683 e33d 4247 f8be 42fa c93d
00000030: 21a8 e8bd 6343 bf3d 07d1 c4bc 46b6 19bf
00000040: 34a4 f2bc 980c cc3d 711b 0dbe 1084 2dbe
00000050: 7646 953d d873 86bd 8275 30be 17ff 8b3d
00000060: 5c0f f1bd 87ac 583d f0ea 29bf ee48 d73d
00000070: 7366 03bf 22bc fdbd a04b c03c 33cd 09bf
00000080: 67bc e7ba baa7 41bd b1bc 143d 3bb1 19bd
00000090: 7c23 903d 805c 233e 905d ba3d c4b0 4bbf
000000a0: 48ec 543c cb30 d8bd 3524 49be 308f 5abe
000000b0: de68 e4bc 4878 d03d 4419 a5bd 42a6 42bd
000000c0: 6aac b03d 14a0 33be 41c3 c5bd cf16 c13c
000000d0: 3115 793d ce82 15bf 2f70 bc3d fc83 fd3d
000000e0: b6e8 563d 90ba 323e c748 983d 79d2 cf3d
000000f0: 58cf 6c3d 85d9 e6be 484e f93d d842 0fbe
00000100: 3576 b9bc ec42 a7be b454 83be 30ba a83d
00000110: 202d a0bd d594 013e 18d9 923d 66b5 ed3d
00000120: 31fc 69bd c2a4 82be 9999 0bbe 85d1 133e
00000130: 01cd 08be 43fc 243e 687f 16bf 77e6 78be
00000140: 3440 cb3d e7a2 af3c c430 acbe 6df6 afbc
00000150: 7042 203e 1271 09be 032e 90bc d6fe 1f3d
00000160: db36 d6bd 233e 09be a01b 8d3c be04 89bd
00000170: f547 2d3d 286b 2c3d fb90 1c3e 9c2b 0d3e
00000180: 1141 233c 2953 a83d e08a 4fbc 6aae 593d
00000190: 66ec 043e b8d9 c3be 97fb 0f3e 090a 553d
000001a0: 193f 1cbf 26c8 8d3d c131 a43d 4a0b 483d
000001b0: e907 3dbb cdb9 eebe 10f3 253e b6c1 2ebe
000001c0: 3ed3 8fbe 6e6d 51be 8fb0 61bd 5b13 ed3d
000001d0: 90f0 8fbd 092e 1fbe a72b 87bb 7dd5 eabe
000001e0: ba43 733d c964 9fbd a0c5 e7bb e2fc c6bd
000001f0: 9349 b0be 136b f73c d80b 5d3c 099b cb3d
00000200: 28a6 993b 9377 01bd 806d 3ebe 0028 ad3d
00000210: 2d03 c3be 9a19 5e3c 8efa aa3d c337 033d
00000220: e38f 22be 01eb 28bd f71c 19be c261 e33c
00000230: 3841 a8be 29bb bdbe 73d3 083d 08b5 37bd
00000240: ca82 9abd 7082 043d 802e 36bf eb11 a73d
00000250: 8a45 193e 8949 0fbf 8edd 483d daf3 4dbc
00000260: 92ba de3d bc53 27bf d0d1 fa3d 8b7e 003d
00000270: d681 c23d ce17 3b3e 1b9c d73d 450c e4be
00000280: 4fdc 073e d5ed 6abd 62c3 0d3e 20a2 a73c
00000290: 15fc 4fbd fd3a 3d3e ce6d e73d bb68 243c
000002a0: d50c 8bbe ed80 6b3d a39d 4dbd 8313 993d
000002b0: da3f 343c 8269 173e dc09 983c e265 2d3d
000002c0: efe3 2e3e 07b3 283e ee37 15bd 2201 b33d
000002d0: 0656 2cbd fc54 f8bd 0fda 73be 49af d53c
000002e0: 977d 76bd 36a4 c2bd 80ea 61bd bbdb cabd
000002f0: 7bf9 86be ff0a 98be a20d c93c f391 a73d
00000300: e370 cf3d 1722 25be a72c 0ebe a5b0 56bc
00000310: 622d 313e fff3 dd3d f4bc 3c3e 1937 8a3d
00000320: 49f6 893c b979 56be 3979 f0bc d808 0dbe
00000330: c324 8fbe 13bb f03d 4a01 f13d adb0 7fbb
00000340: 5f76 91bc 5e04 10bf 0896 a2bd 26a8 45be
00000350: 0015 173e 5e2f 4fbc 1ba8 b6bc c632 ad3d
00000360: 6aa4 c53c 9f0b 9dbd 727c f43d c155 0dbe
00000370: dbd5 29bd 0814 1fbd 46a2 e2be 6af3 3bbc
00000380: ebd3 2a3b 3fb3 813d 8d4e 99bd 6fc5 b13d
00000390: 0e46 3dbe 4f2f d83d 42a4 5dbe ff1e 53ba
000003a0: 5b56 ab3b 06fd ea3d 52f8 08be ba00 a93b
000003b0: 9548 55bf 58fe 97be 1846 d23c dff9 d1be
000003c0: c32d 383e 7319 d1be 5771 903d 1dab 3b3d
000003d0: 03b0 dabe bb42 9abd 8213 67be ba8f 3e3c
000003e0: d83c 213d cee6 d3bd 17e5 a4be 7862 81be
000003f0: a699 81bd d215 e33d cc80 ac3c 24a8 9abd
0.059532464 0.117360175 0.10441337 -0.36083704 0.11270832 0.1120893 -0.703943 0.11178084
0.13627407 0.11109106 -0.48491865 0.09862186 -0.11360193 0.09339025 -0.024025453 -0.6004375
-0.029619314 0.099633396 -0.1378 -0.16944909 0.0728883 -0.06565064 -0.17232326 0.06835764
-0.11770508 0.05289891 -0.6637411 0.10511957 -0.513282 -0.12389399 0.02347356 -0.53828734
-0.001768005 -0.047279097 0.036312763 -0.037522536 0.07038018 0.15953255 0.09099877 -0.795666
0.012995787 -0.105561815 -0.19642718 -0.21343684 -0.027882036 0.10179192 -0.0806146 -0.047521837
0.086266354 -0.17541534 -0.09656382 0.023570446 0.060811225 -0.5840272 0.09201085 0.1237869
0.052468024 0.1745398 0.07435756 0.10147566 0.057814926 -0.4508783 0.12173134 -0.13990343
-0.022639373 -0.32668245 -0.2565056 0.082386374 -0.07821107 0.12654431 0.071703136 0.11606865
-0.057125274 -0.25516325 -0.13632812 0.14435394 -0.13359453 0.16111855 -0.58788157 -0.24306665
0.09924355 0.021439983 -0.33630955 -0.02147981 0.15650344 -0.13422039 -0.017600065 0.03906139
-0.104596816 -0.1340261 0.017225087 -0.066903576 0.04230495 0.04209438 0.1528968 0.13786167
0.0099642435 0.082189865 -0.012667388 0.05314485 0.12980804 -0.38252044 0.14060818 0.052011523
-0.6103378 0.06922941 0.08017302 0.04883889 -0.0028843826 -0.4662613 0.16206002 -0.17066082
-0.28090852 -0.204519 -0.05510002 0.115759574 -0.070283055 -0.15544905 -0.004125077 -0.45866004
0.05939076 -0.07782895 -0.0070731193 -0.09716202 -0.34431133 0.030202424 0.013491593 0.0994168
0.004688997 -0.031608175 -0.18596458 0.08454895 -0.3808836 0.013555909 0.08348571 0.0320356
-0.15875201 -0.041239742 -0.14952455 0.027756575 -0.32862258 -0.37056854 0.03340478 -0.04485038
-0.07544477 0.032350957 -0.71164703 0.081577145 0.14967933 -0.5597158 0.049039416 -0.012570346
0.10875429 -0.65362144 0.1224705 0.03137068 0.094974205 0.182708 0.10527822 -0.4454061
0.13267635 -0.05735572 0.13844064 0.02046305 -0.050777514 0.18479533 0.113002405 0.010034735
-0.27158228 0.057496 -0.050199162 0.07474425 0.0110015515 0.14786342 0.018559389 0.04233349
0.17079137 0.16474544 -0.03643029 0.087404504 -0.042074226 -0.121255845 -0.23813652 0.026084559
-0.060178366 -0.09503977 -0.055155277 -0.099051915 -0.26362213 -0.2969589 0.024542633 0.081821345
0.10128953 -0.16126285 -0.13884221 -0.013103639 0.17302468 0.10837554 0.18431455 0.0674879
0.01684107 -0.20944871 -0.029354678 -0.13772905 -0.27957734 0.117544316 0.11767824 -0.003901522
-0.017756639 -0.56256664 -0.079387724 -0.19302425 0.14754105 -0.012645571 -0.022296956 0.0845695
0.02412625 -0.07668232 0.119377986 -0.13802244 -0.041463714 -0.038837463 -0.4426443 -0.011471609
0.0026066254 0.063330166 -0.074856855 0.086802356 -0.18483755 0.105558984 -0.2164469 -0.000805363
0.0052288002 0.11474042 -0.13375977 0.0051575573 -0.83313876 -0.29686236 0.025668189 -0.4101095
0.17986207 -0.4083973 0.07052868 0.045817483 -0.4271241 -0.07532259 -0.22566035 0.011630947
0.039364666 -0.10346757 -0.32206032 -0.25270438 -0.06328134 0.11088146 0.021057509 -0.075516015

model.model.3.weight f4 [2, 512]
00000000: a4ef a13c b659 943c ce3a b8bc e302 843d
00000010: 9696 aabc 5518 9cbc 628b 0f3f 3976 9bbc
00000020: c071 bebc 7610 753c e49d d93b 5a99 803c
00000030: d241 ecbc 646a a1bc 5ff8 763c cc3f 94be
00000040: 80fc cabc f7c1 98bc 1c67 a33c fe69 c1bc
00000050: b449 893c f22f babc 10e6 b63c c214 a3bc
00000060: 68b4 abbc 14a5 a13c 650e 59be c820 b3bc
00000070: e1f9 14be 7fb5 09bc 8fec 523c edc9 943d
00000080: 1156 903c 5fd2 b23c 012f 9b3c 49ee bebc
00000090: d733 813c bf1c 98bc 6a14 8b3c ca6a b9be
000000a0: 1699 623c cc15 b33c 4f24 943c 4d2d 2cbd
000000b0: 3812 a4bc 508a 523c ef4b b83c e552 dfbc
000000c0: 7c9f 733c ce36 933c c33c d33c a970 993c
000000d0: f93f c4bc 0580 023e 7421 943c f03d 93bc
000000e0: 3769 803c e21b bbbc eb69 a8bc 5e40 b7bc
000000f0: 9b6f a7bc adb2 913d 52e5 9dbc 72b7 013d
00000100: 2c64 66bb 0fd0 3dbd a832 8dbd 67ad 773c
00000110: 82df c1bc e330 a5bc 3731 94bc aa36 9cbc
00000120: 1083 8c3c 320e bd3c b810 b5bc 77ce 88bc
00000130: 63bb edbc 8d05 95bc cc39 39be 51d3 b03c
00000140: 69a3 993c ce0a 873c fbb8 ac3c ef4b 9fbc
00000150: 9027 a83c ef9b ddbc cd8b ae3c dbfc ad3c
00000160: cb31 2ebd d6ef d43c 63a9 ab3c a1d5 973c
00000170: c629 8e3c 3607 903c c952 773c f6da a13c
00000180: e76d 9d3c 0f55 c7bc 0e23 69bc 91b7 b5bc
00000190: 785c a9bc fd83 7dbd 8954 703c ba79 803c
000001a0: 9fc7 873d bb9b 913c eb8a 873c b16f 80bc
000001b0: c6c8 c53c d289 bb3d a8df 68bc 8b6c a53c
000001c0: eb55 f5bc 1def 37bd 30b2 cc3c 3f95 debc
000001d0: 1a1f 943c 6730 0bbd bdc2 7d3c a774 99bd
000001e0: 3f74 913c f7c1 9ebc 661d be3c 20db df3c
000001f0: 7fff 56be f5b6 a73c 1361 9c3c fe87 ac3c
00000200: 46a4 a2bc aeea 773c 872e 90bc 4b85 783c
00000210: f00c efbc 0468 b93c c192 813c 4861 8cbc
00000220: ba5f d1bc 3c6d adbc b1d7 a53c a7d0 7b3c
00000230: a9e0 813c c638 47bd 8c2b b2bc 145b 853c
00000240: b519 c8bc e462 9e3c 12f6 54be 969b ac3c
00000250: 4d4d a1bc fb0b 923d 67ca a33c ab34 813c
00000260: ecca cdbc e821 9f3d edb0 aebc 5112 91bc
00000270: 91e5 cbbc 4672 b6bc 70db 94bc 53f2 0abe
00000280: f254 873c ae20 c33c 5055 b7bc a235 773c
00000290: df27 c3bc b229 9bbc 74a5 9dbc 9f90 e2bc
000002a0: 58fa 10bd 0d86 88bc 466c 673c 83fc 7abc
000002b0: e799 8b3c 4c4a 8d3c bbfc 8c3c c768 823c
000002c0: 287e b0bc 8884 97bc d86e ae3c 6096 7b3c
000002d0: 9c13 a23c bc43 bbbc 457c b83c 44b5 8f3c
000002e0: d77b a43c 211f 8b3c 4cd8 cb3c a193 853c
000002f0: 1406 b03c b37d 73bd 07a5 b5bc 261c aebc
00000300: acee 563c e610 eb3c 66bd be3c 847a 673c
00000310: 43a6 a7bc 9820 9bbc 249f adbc 6643 d4bc
00000320: df4b a53c 694f 41bd 912f 9abc 9a03 743c
00000330: 2abc a53c 96d8 743c 8cad 96bc f334 be3c
00000340: c185 d4bc c6bc 003e fd79 9e3c 8337 0bbd
00000350: a5f9 a7bc 54c3 933c 0e66 cebc 70be e5bc
00000360: 583b a63c ad8a 8e3c 837d b7bc 966f ab3c
00000370: 14ab 11bd fa17 8a3c b92b ca3c a292 be3c
00000380: 6122 9dbc 936f a2bc 2303 8e3c 6b54 9dbc
00000390: 91b8 053d e8f2 923c dc45 933c fccf f5bc
000003a0: fd4d dcbc 0e0c 973c bea0 df3c 330c d0bc
000003b0: 4ffa b13e c34e 9b3c e611 b0bc faaa 57bd
000003c0: 654e 8bbc ff3b 94bc f803 96bc 133b babc
000003d0: 129f 6abd c9f9 a5bc 252b 2b3d 9f88 dabc
000003e0: 816f b7bc b010 a53c a040 45bd a493 adbc
000003f0: 5115 9d3c ab3e b6bc e88f a5bc bc5a d13c
0.01976759 0.018109184 -0.022488978 0.06445863 -0.020823758 -0.019054571 0.56072056 -0.018977271
-0.0232476 0.014957538 0.0066411365 0.015698124 -0.02883998 -0.019704051 0.015073865 -0.28954923
-0.024778605 -0.018647177 0.019946627 -0.023610111 0.016758777 -0.02272794 0.0223265 -0.019907359
-0.020960048 0.019732036 -0.21196897 -0.021866217 -0.14548446 -0.008405088 0.012873783 0.07265077
0.017619165 0.021828828 0.018943312 -0.023306983 0.01577179 -0.018568395 0.016977508 -0.36214286
0.013830444 0.02186098 0.01808372 -0.04203539 -0.020028219 0.012850359 0.022497145 -0.027261207
0.014869567 0.017970469 0.02578581 0.018730478 -0.023956286 0.12744148 0.018082358 -0.01797387
0.01567517 -0.022840444 -0.020558318 -0.02236956 -0.02043896 0.07114158 -0.019274388 0.031669088
-0.0035154922 -0.046341 -0.068944275 0.015117026 -0.023666147 -0.020164913 -0.018089874 -0.019069035
0.01715234 0.023078058 -0.022102699 -0.016700013 -0.029020017 -0.018191123 -0.18088454 0.021585139
0.018754678 0.016484644 0.0210843 -0.019445388 0.020526677 -0.027051894 0.021306897 0.021238735
-0.042527955 0.025993269 0.020954793 0.018534483 0.017353904 0.017581563 0.015095421 0.019757729
0.019217445 -0.024332551 -0.014229549 -0.022182258 -0.020673975 -0.061893452 0.014668592 0.015683044
0.066298716 0.017774453 0.016545733 -0.015678259 0.024143588 0.091571465 -0.01421348 0.020193359
-0.029948195 -0.04490577 0.02498731 -0.027170775 0.018081237 -0.033981707 0.015488324 -0.07492953
0.017755626 -0.019379599 0.023207378 0.027326167 -0.20995902 0.020472983 0.019089257 0.02106094
-0.019853722 0.015131636 -0.017600311 0.015168498 -0.029180974 0.022632606 0.015817048 -0.017136231
-0.025558341 -0.021170251 0.020244451 0.015369571 0.015854197 -0.048638128 -0.02174928 0.016278781
-0.02442632 0.019334264 -0.20796993 0.021070283 -0.01969018 0.07131191 0.019993974 0.015772184
-0.025121175 0.07770139 -0.0213246 -0.01770893 -0.02488974 -0.022271287 -0.018171042 -0.13569002
0.016519997 0.023819294 -0.022379547 0.015088471 -0.023822723 -0.01894078 -0.019243933 -0.027656851
-0.035394996 -0.016665483 0.0141249355 -0.015318993 0.01704116 0.017247342 0.017210355 0.015919102
-0.021544531 -0.018495813 0.021293089 0.015355676 0.019784741 -0.022859447 0.022520194 0.017542489
0.020078583 0.016982617 0.024883412 0.016305747 0.021487273 -0.059446048 -0.022173418 -0.021253657
0.013118427 0.028694581 0.023283672 0.014128331 -0.020465022 -0.01893644 -0.021194048 -0.025911044
0.02017778 -0.047194872 -0.01882151 0.014893437 0.020231325 0.014944216 -0.0183933 0.023218608
-0.025942685 0.12572011 0.019345278 -0.033988487 -0.020504782 0.018037476 -0.025195148 -0.02804491
0.02029197 0.01740011 -0.022398716 0.020927232 -0.035563543 0.016857136 0.024679052 0.02326328
-0.019181432 -0.019828593 0.01733548 -0.019205293 0.03264672 0.017938092 0.017977647 -0.030006401
-0.026892656 0.018438365 0.027298328 -0.025396442 0.34761283 0.018958455 -0.02149291 -0.05265329
-0.017005155 -0.018095015 -0.01831244 -0.022733247 -0.057280608 -0.020260708 0.041789193 -0.026676474
-0.022392036 0.020149559 -0.048157334 -0.021188565 0.019175204 -0.02224668 -0.020210221 0.02555596

model.model.3.bias f4 [2]
00000000: 093e 4c3e 989f 87bf
0.1994554 -1.0595579

model.lat_embed.weight f4 [160, 5]
00000000: 6f3d af3f 713f 1b3f 4213 283f f570 5a3d
00000010: 8d01 623f 3217 b93f d555 913e 90fa e13e
00000020: e210 6abe 88a1 9a3e 0729 b83f 3151 943d
00000030: 1b94 0e3f 11ca 99be edf7 9a3e fc73 a53f
00000040: b8be c03e 8a1b fe3e d7d7 9ebd 05de 4c3f
00000050: 92cf 903f 378f a93d 649d 463f a593 1dbe
00000060: 0dfc 083f 43ac 5c3f 1efb 2b3a eacf 603f
00000070: 7f51 93be 9c0a 11be 167a 1d3f d3ac 5bbe
00000080: 7c78 af3f fa37 223e 520c 53be d5dc f63e
00000090: 1cdc 9bbe efd8 c23f ef35 f83d 92bd 86be
000000a0: 87c4 95bf 7092 54bf f602 aa3f 6c34 c4bf
000000b0: 0ae3 a8bf d00f 013f 177f 8c3d 6e82 953f
000000c0: c799 8cbf 5c08 57bf 7751 403c 642c 88be
000000d0: 3ecb bf3f 3d6c d0be abf6 2fbf 9723 f1be
000000e0: 2608 33bf a33d c83f 8c4c 083f a2cf 99be
000000f0: 8070 48bf 70cb 4ebf 1766 cf3f d174 083f
00000100: 163e 0cbe 5ba1 31be 4845 1e3e 3afb 9f3f
00000110: 2cf3 3fbf 8262 d1be 505d c4bf 76e1 38bf
00000120: 4ad4 853f 3606 c9be 4e91 d4be 5047 9abd
00000130: 03e0 b63e 695c 9e3f 6827 83bf d393 95bd
00000140: 7b8b 61bf 536b a9bf 7534 993f 2b37 1c3f
00000150: 0062 d33b 1c84 8ebf b294 95bf 903b b33f
00000160: fe4e 4f3f 0763 bf3c 1bee b43b b968 0e3f
00000170: 13aa 903f 548d 83bf 5705 f83c a0e1 9ebe
00000180: 3676 b43e 7ccf 973f 8aa2 93bf 3691 afbd
00000190: 5acd a0bf f306 c4bf 2371 873f 85d6 cd3c
000001a0: ed0a 17be 2f56 003d d723 353e 1b5c 963f
000001b0: 7fbb 6bbf f6eb 8a3e fb30 07bf fc45 60be
000001c0: d98a a23f dcfa a0bf 7677 3fbe 5ec4 00bf
000001d0: 0269 0abf f337 ad3f a83c 22bf 0556 b73d
000001e0: cdee 1bbf 4cdf 32bf 6ed5 9e3f 1e16 38be
000001f0: bf53 f93e 4976 c5be d1c0 c43e cf9f 733f
00000200: f4c5 a1bf 9c96 de3e 1605 66be 4a95 ca3d
00000210: 87a2 8b3f 8eb3 6bbf cf58 043f 5a36 a9be
00000220: 3095 b7be 40a6 8d3f 100f da3e 2333 7c3f
00000230: bbd2 ebbe 2308 86bf 744f 8b3f 3870 a83e
00000240: 66b9 fc3e a1a1 8a3e 676b babe 1755 953f
00000250: 3c97 6e3e f2c2 3d3f 55a3 0d3e 5a80 49bf
00000260: 192d 813f d199 ee3d e4e6 eb3e 023b 6ebc
00000270: 80e4 a4bf c9d5 a33f 37c6 b6bd 4dc9 9abd
00000280: 28e1 153f d06f bfbf 16ed 973f b23c 683d
00000290: 036f b8be 3a9d ef3e eae1 16bf 2f8c 803f
000002a0: 92e4 993e 1214 2d3f e5ae ab3e 8e3e 27bf
000002b0: 437c 6e3f 82da 173e bf8f 2c3f 730b 3d3f
000002c0: f88a 23bf 840e 443f 2e77 1e3f af2e 8d3f
000002d0: 5f05 923e 27fc a63e 9f62 8d3f 97a3 6b3f
000002e0: 1c46 d03f 1389 2f3e ed1b d53e aeb5 6b3f
000002f0: beec 603f 559d d63f 994f f0be cbe9 673f
00000300: 43ba 013f ebd2 a0be c823 5c3f 7a7b 85be
00000310: e077 703f f00a 083f dc5b afbe 3496 4d3f
00000320: 8901 88be c4d7 763f 0462 4e3e ee8a 71be
00000330: b56f 813f 7009 883f 349b 9ebf ce83 cd3e
00000340: 57cc ae3e ea80 c33e 8fad 2bbf a17a 623f
00000350: 3f49 b23e eb9b 8bbf 70f3 ca3e 55ba 383f
00000360: be5a d3bf ea98 253d 8860 29bf d134 28bf
00000370: 27c4 803f be97 c5bf 4584 f83c 074a abbe
00000380: 2efa 7abe 17c0 5cbf df9b 773f e710 4cbd
00000390: 5431 90bf 5a44 babd 5fe3 703f 22d2 c6bf
000003a0: f952 053e 68b5 70be a809 a6bd a5c6 803e
000003b0: 0d8e 2a3f 5b25 963e 241b 303f 6e8c 0240
000003c0: 34b7 383f 7543 ddbf daa1 d93d 5383 10bf
000003d0: 1cbc d5be 10e8 5a3f a643 d6bf 2e02 063e
000003e0: 512a ffbe 53c3 63be 3c6d 72bf 72b9 103f
000003f0: 7242 ebbe 50c0 03c0 7796 74be ee58 533f
1.3690623 0.6064368 0.65654385 0.05333038 0.88283616 1.4460204 0.28385797 0.44136477
-0.22858003 0.30201364 1.438752 0.072420485 0.5569474 -0.30036977 0.30267277 1.2926021
0.37645507 0.49630386 -0.07756012 0.80026275 1.1313345 0.08279269 0.7758391 -0.15388353
0.535096 0.8620035 0.00065605517 0.8781725 -0.28773114 -0.14164203 0.61514413 -0.21452646
1.3708644 0.15841666 -0.20610169 0.48215356 -0.30441368 1.5222453 0.12119662 -0.26316506
-1.17006 -0.83035946 1.3282154 -1.5328498 -1.3194287 0.5041475 0.06860178 1.1680429
-1.0984429 -0.8399713 0.011738173 -0.26596367 1.49839 -0.4070758 -0.6873576 -0.47097465
-0.6993431 1.564381 0.532418 -0.30041224 -0.7829666 -0.8077917 1.620303 0.5330325
-0.13695559 -0.17346708 0.15456116 1.2498543 -0.74980426 -0.40895468 -1.5340977 -0.72219026
1.045541 -0.3926255 -0.4151711 -0.07533133 0.35717782 1.2371951 -1.0246401 -0.07303586
-0.88103455 -1.3235878 1.1969134 0.6102168 0.0064508915 -1.1134067 -1.1686003 1.4002552
0.8097991 0.02336265 0.0055215484 0.55628544 1.1301903 -1.0277505 0.030275984 -0.31031513
0.35246438 1.1860194 -1.1533978 -0.08572619 -1.2562668 -1.5314621 1.0581402 0.025126705
-0.14750262 0.03133219 0.17689453 1.1746858 -0.9208297 0.2713315 -0.52809113 -0.21901697
1.2698623 -1.2576556 -0.18697914 -0.5029963 -0.5406648 1.3532699 -0.63373804 0.08951954
-0.60911256 -0.69871974 1.2408884 -0.17977187 0.48696706 -0.38566807 0.38428357 0.95165724
-1.2638535 0.4347428 -0.22462878 0.09891756 1.0908974 -0.92070854 0.5169801 -0.3304928
-0.3585601 1.106636 0.42589617 0.9851553 -0.46059212 -1.0471233 1.0883622 0.32898116
0.49360198 0.27076438 -0.36410066 1.1666592 0.23299879 0.7412559 0.13831837 -0.78711474
1.0091888 0.11650432 0.46074593 -0.014540436 -1.2882233 1.2799617 -0.08924525 -0.07557926
0.58546686 -1.4955997 1.1869228 0.05669851 -0.36022195 0.46799642 -0.5893847 1.0042781
0.30057198 0.6760875 0.3353187 -0.65329826 0.9315836 0.14829448 0.6740684 0.73845595
-0.63883924 0.7658465 0.61900604 1.1029872 0.28519723 0.32614252 1.1045722 0.92046493
1.6271396 0.17142133 0.41622868 0.92074096 0.8786124 1.6766764 -0.46935728 0.90591115
0.5067484 -0.31410918 0.859921 -0.26070768 0.93932915 0.5314169 -0.3424977 0.80307317
-0.2656367 0.9642298 0.20154577 -0.23588154 1.0112215 1.062788 -1.2391114 0.40139621
0.34140274 0.3818429 -0.67061704 0.88468367 0.34821507 -1.0906957 0.39638853 0.7215932
-1.6512067 0.040429033 -0.6616292 -0.6570559 1.0059861 -1.5436933 0.030336509 -0.33454916
-0.24509498 -0.86230606 0.96722215 -0.049820807 -1.1265054 -0.09095068 0.9409694 -1.5532877
0.13019933 -0.23506701 -0.081073105 0.25151554 0.66623 0.29325375 0.68791413 2.0398211
0.72154546 -1.7286211 0.10626574 -0.56450385 -0.4174508 0.8551035 -1.6739395 0.13086769
-0.49836972 -0.22242479 -0.9469793 0.5653297 -0.4594913 -2.0586128 -0.23885523 0.8255757

model.lon_embed.weight f4 [220, 5]
00000000: fadc 1b3e 0959 2b3e 1cf8 74bf c458 693f
00000010: 4f39 8e3e 553f b5be 4d24 343f d59f 903f
00000020: 0fe5 3cc0 2331 103d f3e5 e33f 6e28 f1be
00000030: f291 e0be bade a0be ad4a b83f 748c 4e3f
00000040: 7cd4 3d3f 99c2 5d3f d9aa 53bf 37d3 98bf
00000050: 8dd7 58be 62de c43f 7ac2 253e c924 a7bf
00000060: 298b 5f3e 8150 ab3f 6712 4f40 aa64 db3e
00000070: 3d43 81bf 0a19 79be d597 683c 886d a8bf
00000080: a174 593e f5bd 7c3f 6001 98be 6a4a babf
00000090: 127a 5abc d66c 333f 5bdd a33f d6e4 a13f
000000a0: 1ecf a43e 5985 5fbf ba89 e03f 5069 a93e
000000b0: 2b8d 35bf 2743 f3be c375 693f 6e33 723f
000000c0: 45b4 cfbf 85c3 fcbd 43b1 55bf 36da a93e
000000d0: 70da 82bf c15f c8be 11e2 fabf 6d70 a3be
000000e0: 1213 99bf 93c0 c4bf 85bd c23e ab06 9fbe
000000f0: bc71 d2be cfa1 08bf 0852 bdbf b523 2b3f
00000100: e9f5 efbe 5f21 b23f 69d0 b4bf 76ce b3be
00000110: acf1 43be 379c 17bf c6f3 46bf 894c ef3f
00000120: da63 fabf 68c6 bebc 9803 903e 17a7 573f
00000130: 54c5 55be 3a70 10bf 48d9 75bc aac0 6dbf
00000140: b366 973f f382 8ebf 2281 15bf ca54 57be
00000150: 5f4b f7be 9df3 a73f fa34 ebbf c5d3 6abf
00000160: b215 16bf 9bcb 04bd f566 ba3f f41c d9bf
00000170: 33d1 47bf e26b e5be 3ac9 8dbd 325b abbf
00000180: 1601 ad3f 87a7 27c0 87a6 043f 13b0 7dbe
00000190: a1a4 ab3f ae86 b7bf 1cb8 f0be e2d1 30be
000001a0: cbf8 b1be 2967 4a3f 3a85 42bf 7979 a5be
000001b0: d7a7 18be 1f8f 86bf 3415 683f e65c dfbe
000001c0: 3e35 31be 3b46 fdbb 0fc8 a3bf 1eed f0be
000001d0: e49c 0540 b3a5 a8bf 3a96 f43e bef4 ee3e
000001e0: 0845 3e3f 895b 15bf 3161 d3be dfc6 89bd
000001f0: f591 a3bf 9342 323f 7725 0ebf 0779 e2be
00000200: 27e4 26bd a9e5 a4bf 938d 023f a4ab 37be
00000210: 1094 38be 6d6f df39 e8d8 cdbf 0104 32bf
00000220: 9472 d83f 7ff6 d5bf fb06 0f3f 800b 4f3c
00000230: 481b 1a3f 6547 b03d 5f63 84bc c3f7 a13e
00000240: 1d5f e0bf 42e5 a33f 9719 ccbf e9cd 35bf
00000250: 71ea edbc 7bea 87be e161 0d3f 943c a8be
00000260: 1ca8 6abe 6b7a 963e 2e1e c0bf c5d4 ee3e
00000270: 746a 69be 232c 9ebe 05a0 b43e dc2b bbbf
00000280: 6e20 e83e 809f acbd c102 f0bd c762 923e
00000290: b821 e7bf 420f 923e 3a95 51be b0a3 e4be
000002a0: 9c3d 053f 0251 a2bf 0959 413e 9573 dbbd
000002b0: f58a c6be cb27 593f 7b1b b2bf ac7b 9a3e
000002c0: 125c a6be 3529 1bbf 5bc3 773f 1c42 66bf
000002d0: 5d98 693d dfad 38be cd1b 2abf c038 7b3f
000002e0: d794 7dbf 6d1f 8cbe f758 c1be 9976 86bf
000002f0: a558 81be b6e7 bcbf 5e67 cdbe 9968 19be
00000300: c0e7 9abf 3bf2 ffbd 0095 b6bf e5ff 6dbe
00000310: 04be 6bbe fba6 84bf cdd6 573f 58e2 62bf
00000320: 1581 0cbf ba97 8b3d 328b 94bf ecee 88be
00000330: e14d c5bf 49cb 6ebd c9a1 e43d deb0 2cbf
00000340: 98aa 893f df47 67bf 8f04 9a3f 1312 6abd
00000350: 7153 cfbe 2731 c03f 44e8 84be 9e1e 8e3f
00000360: e3c6 663f efbc 0abf a287 41bf 6be4 883e
00000370: b409 0a3f 54a9 93bf 5fc9 c3bf b7bf 27bf
00000380: 3b47 8ebd d603 903d 072e b93f c44a a6bf
00000390: aeef c0bd 811c f13e 5b7e 2c3f d7d3 743f
000003a0: c134 71bf 0a52 26bf 575b 033f ed49 873f
000003b0: 66a7 893f 0335 4cbf 355c 813e c0f1 8c3f
000003c0: c34c 5e3f 5741 d63f 64ce c2be ffd9 043f
000003d0: f5d1 ea3e d320 1c3f f904 ae3f 9489 60bf
000003e0: 56d4 b2bd 33eb 063f d176 033f f936 af3f
000003f0: f19d 5fbf 84e5 bdbe 90d0 d03e 526d b33f
0.15221015 0.16733183 -0.95691085 0.9115107 0.27778098 -0.3539988 0.7036789 1.1298777
-2.9514806 0.03520311 1.780455 -0.47101158 -0.43861347 -0.31419927 1.4397789 0.80683064
0.7415235 0.8662506 -0.8268257 -1.1939458 -0.21175976 1.5380366 0.16187468 -1.3058101
0.21830429 1.3383943 3.2354982 0.42850238 -1.0098644 -0.24325958 0.014196356 -1.3158426
0.21235897 0.9872735 -0.2968855 -1.4553959 -0.013334768 0.70087945 1.2801927 1.264796
0.32189268 -0.8731285 1.7542031 0.3308816 -0.7091853 -0.4751217 0.91195315 0.94609725
-1.6226889 -0.1234198 -0.83473605 0.33174294 -1.0222912 -0.39135554 -1.960024 -0.31921712
-1.1958945 -1.5371269 0.38035217 -0.31059775 -0.41102397 -0.533719 -1.4790659 0.6685136
-0.46867302 1.3916434 -1.4126102 -0.35118455 -0.19135159 -0.5922274 -0.7771572 1.8695232
-1.9561722 -0.023287967 0.28127742 0.84239334 -0.20876056 -0.56421244 -0.015005417 -0.9287211
1.1828216 -1.1133713 -0.58400166 -0.21028438 -0.4829969 1.312122 -1.8375542 -0.91729385
-0.58626854 -0.032420736 1.456267 -1.6961961 -0.7805359 -0.4480887 -0.069231465 -1.3387206
1.3515956 -2.6196 0.518166 -0.24774198 1.3409616 -1.4337976 -0.47015464 -0.17267564
-0.34760126 0.7906366 -0.7598454 -0.3231924 -0.14907776 -1.0512427 0.90657353 -0.43625563
-0.17305467 -0.0077293194 -1.2795428 -0.47055906 2.0877008 -1.3175567 0.47770864 0.46671098
0.74324083 -0.58342797 -0.4128509 -0.06727385 -1.2778918 0.69632834 -0.55525917 -0.44232962
-0.040744927 -1.2882587 0.50997275 -0.1793657 -0.18025231 0.00042616893 -1.608182 -0.6953736
1.6909966 -1.671585 0.55870026 0.012637019 0.6019788 0.086073674 -0.016160665 0.3163434
-1.7529026 1.2804339 -1.5945309 -0.7101732 -0.029042454 -0.26546082 0.55227476 -0.32858717
-0.22915691 0.29390272 -1.500921 0.46646705 -0.22794515 -0.3089305 0.35278335 -1.462276
0.45337242 -0.0842886 -0.11719275 0.28590986 -1.8057165 0.28527266 -0.20467082 -0.44656134
0.52047133 -1.2680972 0.1888162 -0.10715405 -0.3877789 0.84826344 -1.3914636 0.3017248
-0.3249212 -0.6060975 0.96782464 -0.89944625 0.05703007 -0.18035077 -0.6644867 0.9813347
-0.99055237 -0.27367726 -0.37763187 -1.0504943 -0.25262943 -1.4758213 -0.40117925 -0.14981307
-1.2101974 -0.12497374 -1.4264221 -0.23242147 -0.23021704 -1.0363458 0.84312135 -0.88626623
-0.54884464 0.06816049 -1.1604979 -0.26744783 -1.5414392 -0.058299337 0.111636706 -0.6745738
1.0755186 -0.9034404 1.2032641 -0.057146143 -0.40493348 1.5015 -0.25958455 1.1103094
0.9014723 -0.5419454 -0.75597584 0.2673677 0.53921056 -1.153605 -1.5295829 -0.6552691
-0.0694718 0.07031982 1.4467171 -1.2991567 -0.09420715 0.4709206 0.67380303 0.9563574
-0.9422112 -0.6496893 0.5131125 1.0569435 1.0754211 -0.7976839 0.2526566 1.1011276
0.8683588 1.673869 -0.3804809 0.51895136 0.4586331 0.60987586 1.3595268 -0.8770993
-0.08731906 0.52702636 0.51353174 1.3688651 -0.87350374 -0.3708917 0.4078412 1.4017737

exp_avg f4 [512, 15]
00000000: dd07 0637 e039 0eb8 276e b437 7ac8 0e37
00000010: 37f8 d037 ed0e 9838 8087 a7b7 70bf c0b7
00000020: 117b 66b7 3682 9237 285f 81b7 2980 8cb6
00000030: 4eeb d5b6 328f 71b8 aebb 91b8 3958 4c38
00000040: 792c c4b7 276a 4037 70fb 2e38 06ba 0338
00000050: 070a b938 4ded 19b7 d2e5 98b7 122f 1eb8
00000060: 0fe2 b637 3f85 9438 0bac 1cb8 e883 2db8
00000070: 1258 0338 d7cd a5b8 63e7 6fb8 4d14 c138
00000080: e9be 1c37 110e 32b8 5071 f6b8 98d1 51b7
00000090: f8d1 4db8 fa24 aa36 6edc a2b8 80c0 1336
000000a0: b7fd 4137 811f a437 c068 9c37 c216 e037
000000b0: 8427 0938 baf1 4eb7 3daa 6ab8 ac99 83b7
000000c0: 325a 70b8 cee7 37b8 a098 8138 a961 7e38
000000d0: 5f5a f7b6 dbc0 18b9 9220 4b38 1331 eeb6
000000e0: de19 d5b8 9e87 8537 355f 9cb8 f556 18b8
000000f0: 9d73 98b8 8751 fd38 a0a6 a138 c517 3bb8
00000100: 4a8a 05b8 de81 72b8 1aa7 5fb8 ee9a 8f35
00000110: 8587 0bb9 5aab 1a37 0a85 a0b8 3e9f 8338
00000120: 6fca e536 10f5 94b7 cae0 52b7 460d aeb8
00000130: 93b0 4338 50e8 2235 74dd a8b8 f5e2 d2b7
00000140: 0761 2836 a126 6cb8 aa68 8eb6 8679 5eb8
00000150: e4ca 0c38 2c4d 78b8 42f1 a438 5b07 7bb6
00000160: 22d1 e1b7 a3de f037 8cd0 49b9 39cb 27b9
00000170: 3a67 e236 bf72 50b9 1a6e 59b8 4433 9db9
00000180: 90dd b4b8 50d8 cab8 a924 7f39 81d8 6b39
00000190: 362b 133a 1fd7 3eb8 1ef7 8cb9 93b4 9437
000001a0: b43d 5239 e08e b6b8 d894 b338 941e b338
000001b0: 2cb2 90b8 7f37 50b8 231d 0eb8 54ac 4db8
000001c0: 4852 30b8 acbc e4b8 050e 31b8 b670 a7b8
000001d0: 505b 7838 bfc2 f937 17cb bb36 91ee 33b7
000001e0: bf60 38b9 b27c 9738 04be 6938 4655 04b9
000001f0: 01f5 20b8 2f79 f7b7 f0be a9b8 849c 2c38
00000200: 6b06 14b8 f339 6538 64f2 7eb8 bebc 5538
00000210: c3b9 7237 ae79 b4b6 d4f1 9837 1dc4 1c38
00000220: f2ee e6b7 3bb4 dc37 50a5 9c37 0518 3738
00000230: 8d3c 5238 1c6a 23b7 1b19 a1b7 e5d9 76b8
00000240: 8548 6b38 bdf4 9937 aa95 b3b7 cd42 78b8
00000250: 39bd 9437 1abf c3b8 b73a 8a37 cdd0 4437
00000260: a198 f337 d7eb 7138 a7ac 2c38 3525 8637
00000270: b1f2 2db7 5063 c337 8ce1 bcb7 175d 25b8
00000280: 9831 5f36 95d3 9136 3886 7fb5 01ed ee36
00000290: 228a 0d37 8bb3 b338 f292 d9b7 9ac3 6137
000002a0: e747 9838 0b58 8c38 57c2 a438 2fa4 e4b6
000002b0: e2d8 1ab7 a0f8 acb8 90bd 2b38 63ae 2238
000002c0: 6459 7db7 456f 00b8 855b 49b7 f512 b0b8
000002d0: 5755 12b9 a377 d737 5b06 c637 061c 00b9
000002e0: 3c91 a1b8 fe06 d237 44cd d7b7 8e7b 34b7
000002f0: 7d94 eeb8 b696 4638 2b1a e1b8 eb2e 7a38
00000300: 809a 9038 373a 7038 423d 9fb7 a791 a4b8
00000310: 6df3 aa38 5f69 b938 f3f7 95b7 00ab 0235
00000320: f13a f9b7 c0f7 23b8 22be a4b7 9423 fdb8
00000330: 33af 0bb7 5f50 8bb8 1f5f 5c38 9f81 b237
00000340: ac96 8db6 941c 16b6 37b1 8eb5 f347 f8b6
00000350: 89dc 3738 8669 9636 e517 48b5 65e4 1538
00000360: eda8 b137 9b2e 20b8 03d8 58b8 3469 5f37
00000370: be44 7238 ed5f 5b36 5da7 f336 0f58 9b35
00000380: 0382 61b8 eff6 77b9 c661 88b8 8fea 6fb7
00000390: a9bb 45b9 76fb 69b8 dd67 58b9 08f5 0538
000003a0: d8c8 4437 be8b e5b8 cf54 0839 f945 7a38
000003b0: e801 48b7 4926 9338 1778 2339 3230 cbb8
000003c0: ea29 06b9 f25a c538 0aa3 0b38 1223 d4b8
000003d0: f8c3 79b8 f256 ab37 e5a5 a4b8 20c0 79b7
000003e0: 5b09 05b9 c71c c336 df0a 8fb8 c3ef 4c38
000003f0: c6fc 6838 d4e5 1bb7 8b5a a3b7 a077 f9b7
7.988853e-06 -3.390934e-05 2.1508966e-05 8.510537e-06 2.4911116e-05 7.250705e-05 -1.9971048e-05 -2.2977329e-05
-1.3737722e-05 1.746519e-05 -1.5422309e-05 -4.187245e-06 -6.3752877e-06 -5.759224e-05 -6.949097e-05 4.8719554e-05
-2.338573e-05 1.1468807e-05 4.1719002e-05 3.140608e-05 8.823355e-05 -9.1747615e-06 -1.822683e-05 -3.7713973e-05
2.1801357e-05 7.082009e-05 -3.7353526e-05 -4.136926e-05 3.1314856e-05 -7.906154e-05 -5.7197536e-05 9.2067385e-05
9.342774e-06 -4.2451607e-05 -0.000117513 -1.2506171e-05 -4.9071357e-05 5.0706994e-06 -7.76582e-05 2.2016757e-06
1.1562769e-05 1.9564994e-05 1.8645427e-05 2.6713478e-05 3.2700147e-05 -1.2334838e-05 -5.5948494e-05 -1.5687976e-05
-5.730446e-05 -4.3846485e-05 6.179628e-05 6.0649272e-05 -7.371694e-06 -0.00014567694 4.8429305e-05 -7.0986657e-06
-0.000101614496 1.5917987e-05 -7.456393e-05 -3.632061e-05 -7.2694595e-05 0.00012079166 7.7081146e-05 -4.460641e-05
-3.1838463e-05 -5.7818244e-05 -5.332297e-05 1.0699421e-06 -0.00013306558 9.219011e-06 -7.654175e-05 6.276228e-05
6.848298e-06 -1.7757091e-05 -1.2569313e-05 -8.299439e-05 4.665607e-05 6.068776e-07 -8.052113e-05 -2.5139636e-05
2.5090428e-06 -5.630276e-05 -4.2441143e-06 -5.3042102e-05 3.3567558e-05 -5.919968e-05 7.865067e-05 -3.7406196e-06
-2.6919475e-05 2.8713903e-05 -0.00019246544 -0.00016002067 6.747342e-06 -0.00019879172 -5.183937e-05 -0.0002998357
-8.624338e-05 -9.672402e-05 0.00024332352 0.00022492 0.0005614044 -4.5499877e-05 -0.00026886998 1.7727061e-05
0.00020050147 -8.705049e-05 8.5631094e-05 8.541081e-05 -6.899642e-05 -4.964275e-05 -3.3882574e-05 -4.90363e-05
-4.20383e-05 -0.0001090703 -4.2213145e-05 -7.9841746e-05 5.921285e-05 2.9773799e-05 5.596677e-06 -1.0724777e-05
-0.00017583648 7.2234674e-05 5.5728495e-05 -0.00012620268 -3.837515e-05 -2.9501125e-05 -8.094113e-05 4.1153762e-05
-3.5291927e-05 5.4651824e-05 -6.0784063e-05 5.0958937e-05 1.4467575e-05 -5.3785834e-06 1.8232422e-05 3.7375943e-05
-2.7529404e-05 2.630997e-05 1.8673629e-05 4.365297e-05 5.0124294e-05 -9.740263e-06 -1.9204386e-05 -5.88539e-05
5.6095905e-05 1.8352986e-05 -2.1408156e-05 -5.919002e-05 1.7731089e-05 -9.33392e-05 1.6478223e-05 1.1731126e-05
2.903893e-05 5.767852e-05 4.116879e-05 1.599137e-05 -1.03681095e-05 2.3292057e-05 -2.2516375e-05 -3.9425762e-05
3.3258457e-06 4.345968e-06 -9.5190217e-07 7.1205436e-06 8.4364165e-06 8.5688276e-05 -2.5936843e-05 1.3456587e-05
7.261318e-05 6.6921195e-05 7.856328e-05 -6.814043e-06 -9.229612e-06 -8.247909e-05 4.094612e-05 3.878622e-05
-1.5100788e-05 -3.0621206e-05 -1.2001842e-05 -8.395865e-05 -0.00013955437 2.5685707e-05 2.3606399e-05 -0.00012217471
-7.70413e-05 2.5037207e-05 -2.5725582e-05 -1.0757603e-05 -0.000113763825 4.734724e-05 -0.0001073371 5.964834e-05
6.895233e-05 5.7274676e-05 -1.8982802e-05 -7.847259e-05 8.151573e-05 8.841114e-05 -1.7877644e-05 4.867761e-07
-2.971056e-05 -3.9092964e-05 -1.9638861e-05 -0.00012070607 -8.325837e-06 -6.643007e-05 5.2540676e-05 2.1279613e-05
-4.219668e-06 -2.2368376e-06 -1.0631401e-06 -7.399352e-06 4.383599e-05 4.482633e-06 -7.4540577e-07 3.5737077e-05
2.1178706e-05 -3.8190377e-05 -5.169959e-05 1.331633e-05 5.7761317e-05 3.268938e-06 7.261448e-06 1.1574028e-06
-5.3765263e-05 -0.00023647746 -6.503197e-05 -1.43001225e-05 -0.00018857293 -5.578572e-05 -0.00020638057 3.1937874e-05
1.1729273e-05 -0.000109456 0.00013001564 5.9669812e-05 -1.1921373e-05 7.0166374e-05 0.00015589628 -9.6887714e-05
-0.0001279485 9.410632e-05 3.3292024e-05 -0.0001011548 -5.9548736e-05 2.0425276e-05 -7.85103e-05 -1.4886289e-05
-0.00012687354 5.814803e-06 -6.820796e-05 4.8860686e-05 5.5548524e-05 -9.292231e-06 -1.9473277e-05 -2.9738818e-05

exp_avg_sq f4 [512, 15]
00000000: 552d 2835 4e65 7033 67e9 4d33 88f3 c034
00000010: 38a1 9a34 ba6d 4333 34b4 8b33 e093 bd33
00000020: 8584 c333 a8dc 9333 46db 6833 79c6 3733
00000030: d167 9033 3525 4633 0555 6b33 2f7d f134
00000040: e5be 1033 dc16 f932 750f 8734 ac04 4a34
00000050: 760f f832 79b5 3933 180c 7033 c200 8333
00000060: 3aaf 5033 9068 1c33 396a f832 0c4e 4333
00000070: 21d0 0333 5e26 1633 d959 4834 da76 3933
00000080: b0a9 3433 d646 1e34 12fd 0d34 b890 d932
00000090: 1cdc 0c33 40e0 3f33 df08 3833 22be 3033
000000a0: 7e10 1e33 03f4 e032 190d 4433 cf1e fe32
000000b0: 07fa 1233 860b 1c35 d255 4434 32c4 e333
000000c0: a546 ac34 5932 8c34 1052 7e33 4424 d333
000000d0: ff57 f233 5dbe c433 dab1 9633 93b4 ab33
000000e0: ab25 9633 244e 0034 1e6f a433 b07a 9033
000000f0: 69e8 9e34 2ddb 8433 bd2e 7733 0016 7d34
00000100: f50f 5234 794b 2a33 0b06 8533 0cc5 9533
00000110: 8525 ab33 6bf2 9333 fd2c 7033 cc93 2733
00000120: ea10 9533 4cd5 4233 6fe5 5d33 3e77 8b34
00000130: 42bb 3f33 def2 3c33 d5b4 3634 d47b 1c34
00000140: 3ae8 df32 29b0 0e33 3461 4b33 42f4 6b33
00000150: 11df 7333 4118 1833 db67 d232 a9fe 5d33
00000160: 306e 1c33 601c 0333 5af4 e736 fadb 1e35
00000170: 0763 9f34 78ba 2a36 1876 5f36 f971 ed34
00000180: 74d3 e734 2f26 5e34 625c 4035 a4a2 a035
00000190: 9867 4735 e52d ab34 b6e2 5235 0216 d434
000001a0: 2e94 3035 f07c 3034 fdd0 1133 72ac 0633
000001b0: 07eb 0434 94dc e133 0f58 b532 df42 f432
000001c0: fbad 0f33 9e20 3333 54c4 2233 7275 0f33
000001d0: 217f b932 bc8e 2a33 392e c832 59b7 fc32
000001e0: 772d a034 b3fc 6933 43a9 6233 c57c 4e34
000001f0: 3752 3334 aca8 0a33 2b76 4433 8405 7733
00000200: 25c8 9733 5f6f 9033 5a0d 4d33 ff81 1433
00000210: ffb7 8633 26a4 2f33 f17f 3533 f96e a834
00000220: a891 f632 8c24 e332 8fe1 3d34 3452 1434
00000230: 4163 c632 7f6d 1233 6563 4633 e78b 4633
00000240: d180 2733 7c4c 0333 57c9 c732 4936 2533
00000250: f93e ce32 c7f9 0833 8937 1b34 c0fa 1633
00000260: c1c4 c832 85d6 cd33 a017 3134 4a51 5a32
00000270: c537 5c32 370f 3f32 cf53 b532 08c2 0733
00000280: 636d 8732 7b08 4632 8342 de32 713b b832
00000290: 7410 8232 ef2c ad34 b5cd da32 f2db ca32
000002a0: 1a92 4134 bfdb 1134 ad9a ce32 7701 1d33
000002b0: 94a9 5133 ef73 4533 a6b7 1733 ec9e 0033
000002c0: b6c5 ca32 d18c 2333 7ba5 c932 418c e332
000002d0: 681e 8d34 163a 5233 780f 3433 3496 5f34
000002e0: fc67 2f34 0312 db32 0bdb 6033 0502 3a33
000002f0: 5fd9 2133 df9d 4933 9cbb 3633 2791 ec32
00000300: 05f4 5633 655a 0433 16d4 2533 c47b 4c34
00000310: edb8 2733 035c 1b33 01b5 2034 105a 0634
00000320: d568 be32 26b2 0e33 abb3 3233 47e0 5633
00000330: b649 3e33 26ed 0b33 901c be32 3e2c 2c33
00000340: 1912 e732 2f6f 0833 f996 0735 2a7a 1533
00000350: 7700 0133 943f 9734 d748 5e34 96bf fd32
00000360: 8288 4b33 c521 7033 5be6 9633 c6c7 5233
00000370: 3acd 0a33 6588 e332 43a9 3433 fcff 0033
00000380: 57de 1933 52c3 7235 c2d1 5034 3b98 2534
00000390: e455 3335 a928 4f35 5831 6a34 e72d 9c34
000003a0: e2ff 5e35 3bad 0635 8852 0135 2900 ad34
000003b0: 4f84 9434 07f0 b734 0946 8434 08d7 2735
000003c0: 062e 9f34 bcda 3f33 a02c 4533 b4cb 6234
000003d0: 6107 4034 20b3 d432 8df8 2433 8779 3d33
000003e0: 6591 6a33 2d60 6533 77ef 1d33 92c5 cc32
000003f0: 80a5 4b33 e78b 0e33 9902 2733 28c8 2c34
6.2650844e-07 5.597149e-08 4.794256e-08 3.593998e-07 2.8802037e-07 4.550177e-08 6.505471e-08 8.8278966e-08
9.1045e-08 6.885358e-08 5.4216137e-08 4.2788518e-08 6.7244066e-08 4.6134307e-08 5.4792526e-08 4.498083e-07
3.370123e-08 2.899781e-08 2.5156956e-07 1.8814416e-07 2.887803e-08 4.3238717e-08 5.5890354e-08 6.100301e-08
4.858814e-08 3.641668e-08 2.8919304e-08 4.547296e-08 3.0690106e-08 3.495949e-08 1.8659138e-07 4.3181764e-08
4.2063846e-08 1.4740667e-07 1.3223715e-07 2.5327935e-08 3.279648e-08 4.4674607e-08 4.2848907e-08 4.1151118e-08
3.680224e-08 2.6187996e-08 4.564672e-08 2.9583502e-08 3.4220673e-08 5.81313e-07 1.8285144e-07 1.0606199e-07
3.2088897e-07 2.6113665e-07 5.921362e-08 9.83205e-08 1.12850095e-07 9.161588e-08 7.01727e-08 7.995654e-08
6.991771e-08 1.1949356e-07 7.657057e-08 6.727839e-08 2.9598894e-07 6.186597e-08 5.7551677e-08 2.3570465e-07
1.9563579e-07 3.964985e-08 6.194394e-08 6.974196e-08 7.969633e-08 6.8893165e-08 5.592027e-08 3.9017138e-08
6.94143e-08 4.5363137e-08 5.166424e-08 2.5977528e-07 4.4640963e-08 4.3993047e-08 1.7015857e-07 1.457368e-07
2.6066221e-08 3.3222168e-08 4.7353026e-08 5.4937352e-08 5.6780724e-08 3.5412317e-08 2.4494446e-08 5.1687184e-08
3.6421795e-08 3.052662e-08 6.9127827e-06 5.9179695e-07 2.968811e-07 2.5440513e-06 3.329833e-06 4.4227616e-07
4.3180955e-07 2.0689252e-07 7.166001e-07 1.1968264e-06 7.4284026e-07 3.1884625e-07 7.8561004e-07 3.950409e-07
6.578074e-07 1.643673e-07 3.3950517e-08 3.1356144e-08 1.237896e-07 1.0517502e-07 2.1111218e-08 2.8435748e-08
3.3453016e-08 4.170635e-08 3.7897124e-08 3.3401598e-08 2.1594646e-08 3.9711026e-08 2.3304084e-08 2.9420038e-08
2.9835402e-07 5.447937e-08 5.2773668e-08 1.9230636e-07 1.6700584e-07 3.2284035e-08 4.574228e-08 5.7514185e-08
7.0678915e-08 6.725781e-08 4.7742425e-08 3.4577166e-08 6.27333e-08 4.0894655e-08 4.225871e-08 3.1373182e-07
2.8704406e-08 2.6442898e-08 1.7684054e-07 1.381348e-07 2.309537e-08 3.409286e-08 4.6190866e-08 4.6227708e-08
3.8999875e-08 3.0570376e-08 2.3258208e-08 3.846643e-08 2.4010193e-08 3.189214e-08 1.4455703e-07 3.5152652e-08
2.3372538e-08 9.585077e-08 1.6493004e-07 1.2707753e-08 1.2818366e-08 1.1121123e-08 2.1109285e-08 3.1608607e-08
1.5765812e-08 1.1527045e-08 2.5874447e-08 2.144745e-08 1.5141474e-08 3.2256455e-07 2.5472085e-08 2.3615915e-08
1.8027677e-07 1.358412e-07 2.4051895e-08 3.6555743e-08 4.8815835e-08 4.5973078e-08 3.5324454e-08 2.994686e-08
2.3605804e-08 3.8079467e-08 2.3474731e-08 2.6490058e-08 2.628542e-07 4.8947264e-08 4.1923585e-08 2.0823137e-07
1.6335974e-07 2.5503146e-08 5.2353283e-08 4.3308336e-08 3.768343e-08 4.6942542e-08 4.2545807e-08 2.7540024e-08
5.0047692e-08 3.081586e-08 3.8609947e-08 1.9044006e-07 3.9050907e-08 3.6172434e-08 1.496701e-07 1.2512487e-07
2.2166583e-08 3.3223976e-08 4.160726e-08 5.0029737e-08 4.4304862e-08 3.2579145e-08 2.21319e-08 4.008711e-08
2.690017e-08 3.176609e-08 5.0511113e-07 3.4802873e-08 3.0035576e-08 2.81722e-07 2.070186e-07 2.95402e-08
4.7388774e-08 5.5910068e-08 7.026821e-08 4.9076128e-08 3.231728e-08 2.6488303e-08 4.206346e-08 3.003514e-08
3.5825305e-08 9.0436254e-07 1.9447819e-07 1.5422204e-07 6.6807684e-07 7.717268e-07 2.18109e-07 2.9090663e-07
8.3073803e-07 5.0170974e-07 4.8176344e-07 3.2223878e-07 2.7663415e-07 3.426105e-07 2.4637873e-07 6.252526e-07
2.9649544e-07 4.466959e-08 4.5908223e-08 2.1121997e-07 1.7884078e-07 2.4761505e-08 3.841028e-08 4.411552e-08
5.4614606e-08 5.340569e-08 3.6772203e-08 2.383857e-08 4.7415142e-08 3.3189192e-08 3.888508e-08 1.6091565e-07
