results/drn/checkpoints/mlp_0.ckpt (torch, 144008 bytes, 18 tensors)

model.model.0.weight f4 [512, 15]
000000 58 85 9a bd 26 06 32 3d 1b ce 3d 3d 91 5a 82 bd
       -0.075449646 0.043462895 0.046339136 -0.063649304
000010 27 24 19 bd d5 5a ac 3d c8 ec a2 3d 7b 29 cb 3d
       -0.037387993 0.08415762 0.07955319 0.09920021
000020 16 e6 88 3d 1c 1f 57 3d 47 11 e5 bd 0b 7e 84 bd
       0.066845104 0.052519903 -0.11184936 -0.06469353
000030 b9 c2 e4 bd 15 15 97 3b 12 d3 0f bd 67 3a 83 3e
       -0.11169953 0.0046106675 -0.0351134 0.25630495
000040 4d f9 88 3d a2 2d 5f 3d b7 6d 8a bd 60 26 90 3d
       0.06688175 0.05448688 -0.06759208 0.070385695
000050 78 32 41 3d 38 b0 16 3d c1 7b cd 3d 2f 5c 68 3d
       0.04716727 0.03678915 0.1003337 0.056728538
000060 30 ca fb 3c 48 45 18 bd 15 ad e4 3b 9c be 5c bd
       0.030736059 -0.037175447 0.006978641 -0.053892717
000070 3c 2a b7 bc ce 26 3d 3c 7f 0f 58 be 64 fd 24 bd
       -0.022359006 0.011544896 -0.21099661 -0.040280715
000080 a1 99 15 bd fa 01 87 bd 67 f7 89 bd 1b 4f b8 bd
       -0.036523465 -0.06592174 -0.067366414 -0.08999463
000090 85 2d 15 bd 03 9a 99 3c 4b 8b 35 bc 7e 64 7c bd
       -0.036420364 0.018750196 -0.011080573 -0.061619274
0000a0 04 4f 09 3c 70 2c c1 3c 04 4a f0 bc d8 09 3b bd
       0.008380655 0.02358076 -0.029332168 -0.045663685
0000b0 f5 e4 62 bc 64 b0 9d be 6a e9 aa 3e df a6 9f 3d
       -0.013848533 -0.30798638 0.33381206 0.077955
0000c0 6b f1 13 3e 3f bb 4c 3e bd df e9 bb b4 95 c4 3d
       0.14447562 0.19993304 -0.0071372674 0.09598866
0000d0 dc 7c a8 bd e0 44 75 bd 59 8b 0a 3c 0f f6 06 3d
       -0.0822694 -0.059880137 0.008456075 0.032949504
0000e0 5d a1 7f 3d 7d 46 02 3a f6 e9 99 bd f1 0e 77 3b
       0.062409747 0.000496961 -0.07515328 0.0037698115
0000f0 0c 35 17 3e 2f 89 98 bc 64 27 f2 bd 75 73 4a 3c
       0.1476633 -0.018620102 -0.118239194 0.012356629
000100 e3 62 59 3d bf fc ff 3d bf 5a 85 3d 30 64 3b bc
       0.05307282 0.12499379 0.06511449 -0.011437461
000110 20 1f 81 3c 99 75 a7 3d 98 59 8d 3a a8 5a 4f 3c
       0.015761912 0.08176727 0.0010784147 0.0126558915
000120 53 f0 81 bc 4e de 20 bc 1e 27 71 3b fc b7 28 3e
       -0.015861666 -0.009818627 0.0036796997 0.16476434
000130 d5 28 85 3e c7 e5 be bd c0 c4 d8 3d f3 b0 55 be
       0.26007715 -0.0932117 0.10584402 -0.20868282
000140 72 47 23 be 62 e7 60 3d 88 6b 2b bc c3 8a b0 be
       -0.15945223 0.054908164 -0.010462649 -0.34480867
000150 52 fe 7d be fb fc 2a 3d 32 9f e3 3c 9e b2 35 bd
       -0.24804047 0.041745167 0.027785871 -0.044359796
000160 e4 c9 55 3d 0a 5b 0e bd 89 58 41 3e d2 47 36 bd
       0.05219449 -0.03475479 0.1888143 -0.044502087
000170 2e a0 aa 3d c2 cc fc 3d b6 46 eb bd 17 df f5 bc
       0.08331333 0.12343742 -0.114880964 -0.030013604
000180 13 18 b1 bb 41 d5 21 be 40 c6 c1 bd a0 9a 1f bd
       -0.005404481 -0.15804006 -0.09461641 -0.03896582
000190 47 02 84 bb 1d 70 08 3d 62 ba f6 bc e3 57 72 bd
       -0.004028592 0.033310045 -0.030118171 -0.059165847
0001a0 df 3d 8d bc 9b cc 00 be 37 05 20 be 2b dd 01 be
       -0.017241416 -0.12578051 -0.1562699 -0.12682025
0001b0 66 27 4f be c0 02 83 3e 99 85 ba bd 4c df 1d be
       -0.20229873 0.25588036 -0.09107513 -0.15417212
0001c0 e8 d2 00 3e e0 55 bb 3c a9 83 a2 bd fd 7e 00 3e
       0.12580454 0.022868097 -0.079352684 0.12548442
0001d0 a2 4d 4a bd 66 d8 bc bd 63 9b 16 3e 9f 4e 0d bb
       -0.049390443 -0.09220962 0.14707713 -0.0021561754
0001e0 a5 a0 eb 3d fa e4 4b 3e 55 b6 88 3d 3a 55 d9 bb
       0.1150525 0.19911566 0.06675402 -0.0066324743
0001f0 4d e8 3a be ed bd 9f be fa 72 1d 3b b2 e1 2d 3d
       -0.18252678 -0.3119959 0.002402483 0.042451568
000200 8f 98 4d 3c 31 36 dd bd 90 f2 15 bd d5 db d1 bd
       0.01254858 -0.10801352 -0.03660828 -0.10247008
000210 b7 d6 c8 3d 39 84 af 3d d1 cf 11 3e d9 38 24 3e
       0.098065786 0.08570141 0.14239432 0.1603731
000220 0a 77 f0 bc 3a 7b bd 3c 0f 03 23 3d 5e f4 8d 3d
       -0.029353637 0.023130048 0.03979784 0.06931375
000230 a6 60 86 3d 2e 0d 8d 3d f4 05 0e 3e 62 53 bc 3d
       0.06561403 0.068872795 0.13869458 0.091955915
000240 07 fc 1d 3d de bf c0 bc fc 53 5c 3a aa d0 81 3a
       0.03857043 -0.02352899 0.00084048486 0.0009904106
000250 35 0e 04 bd f9 df d6 bc 97 ed be be f0 e3 ad bd
       -0.03224011 -0.026229845 -0.37290642 -0.08490741
000260 ca b6 0b 3e 40 86 b6 3d fe 55 20 3c e5 c8 c0 bc
       0.13643947 0.08912325 0.009786127 -0.023533294
000270 ee 8c 31 3d 5b ab e3 bd 13 32 ea bd fb 73 66 bd
       0.04334729 -0.11116668 -0.11435332 -0.05626295
000280 3d 13 39 3c 74 70 81 3c 8a 4b 57 bc 5c 62 0a bc
       0.011296091 0.015800692 -0.0131405685 -0.008446302
000290 db cd 7b 3c b3 cb 96 3e c7 c1 93 3d aa 4f 01 3c
       0.015368904 0.29452285 0.072146945 0.007892529
0002a0 4a 10 e4 bd fd 95 8c 3c 68 2f d7 3d 16 5d 41 3b
       -0.111359194 0.017161364 0.10507089 0.0029504946
0002b0 1e 2f e0 bb 51 6d d2 3d 53 ac d8 bd 68 c3 7f 3d
       -0.0068415543 0.10274757 -0.10579743 0.062442213
0002c0 6e d6 d2 3c 9c ca 04 3d ac 6b 66 bd a5 8b f9 bc
       0.025737014 0.032419786 -0.056255028 -0.030462096
0002d0 b5 fb 45 bd 76 b8 5e 3d 9f 06 38 3e 85 f9 00 3e
       -0.04833575 0.054375134 0.17971276 0.12595184
0002e0 73 a1 62 3e a7 0e 4f 3d 33 0f b0 3c 33 07 1a bd
       0.221319 0.050551083 0.021491623 -0.037604522
0002f0 98 8f f7 3c c0 86 07 3d b5 44 5c 3e 3b 24 47 3e
       0.030219838 0.033087492 0.21510585 0.19447415
000300 79 99 d7 bd 9f 0b 5e 3c ec ed 52 be b8 10 7f be
       -0.105273195 0.013552575 -0.20598572 -0.24908721
000310 8a 81 8a 3d 00 c0 41 3e 5b e9 bc 3c cd 05 cc 3d
       0.06762989 0.18920898 0.023060491 0.09962044
000320 d6 3f 93 bd 87 8a ce 3d eb fc ee bd 81 99 20 be
       -0.0718991 0.10085016 -0.11669334 -0.15683557
000330 c5 f4 0b be cb 1f d5 3d d0 76 96 3c 48 eb 73 bd
       -0.13667591 0.10406455 0.018367201 -0.059550554
000340 39 45 c9 bc 72 38 83 bd 3f 73 cd bd 2b ab bb 3a
       -0.02456914 -0.064072505 -0.10031747 0.001431798
000350 d5 a3 42 bd ae f5 3a be 14 95 57 bd 75 71 62 3c
       -0.047519524 -0.18257782 -0.052632406 0.013820996
000360 fc 6e 2b be aa 6c 6e bb cc 22 12 bd 93 71 f6 bd
       -0.16741556 -0.0036380687 -0.035677716 -0.12033381
000370 d0 ab ae bd e1 5e ac 3d 18 ad 90 bd 68 4c 18 be
       -0.085288644 0.08416534 -0.07064265 -0.14872897
000380 2d e3 bb 3c 72 56 9a 3e a4 b5 01 3d aa 06 e4 3c
       0.022935474 0.30144078 0.031667367 0.027835209
000390 82 62 c4 bd 19 fb e4 3c 11 da 7e 3d fc be 3a 3d
       -0.095891014 0.027951764 0.062219683 0.045592293
0003a0 86 e4 5f bc 2d 7a 4a 3d 49 59 a0 3d ce cb ff bb
       -0.013665324 0.049432922 0.0782953 -0.007806278
0003b0 78 87 ad 3c c1 f1 32 bc 85 0a 63 bd b7 fa 73 bc
       0.02118276 -0.010921896 -0.055429954 -0.014891318
0003c0 9f 75 5c 3e ab 4c 0d bc a2 c7 0e be 5b 11 5e bc
       0.21529244 -0.008624236 -0.13943341 -0.013553943
0003d0 19 42 16 3c 6d 63 27 bb 41 02 56 3c 0f 18 c5 bd
       0.009171032 -0.002554144 0.013062061 -0.096237294
0003e0 0d 71 78 bd 4c b7 d7 bc 4f 65 b8 3c 86 82 00 3c
       -0.06065469 -0.02633252 0.022509245 0.007843619
0003f0 4f da 60 bc 39 43 99 bc 50 c7 8d bc 79 70 03 be
       -0.013723924 -0.018708812 -0.017306954 -0.12835874

model.model.0.bias f4 [512]
000000 1b 5b c9 3d 07 8a 48 3c 7e 0a 39 bc 7e d8 83 be
       0.0983183 0.0122399395 -0.011294005 -0.25751108
000010 9d 15 09 3e ff f2 c1 be aa ca 80 3d fe ac f9 be
       0.13387151 -0.37880704 0.06288655 -0.48764795
000020 67 2e bc be 38 04 1b 3d 1f 4f 1a bd 84 46 31 bd
       -0.36754152 0.03784582 -0.037673112 -0.04328014
000030 7c ba 8a be 36 fe 91 ba 2f d7 9e bc 8a e4 c6 bc
       -0.270954 -0.0011138383 -0.019389717 -0.024278898
000040 09 0e 09 3b 37 80 c9 3d a5 a0 0e be 6d 15 ac bd
       0.0020912907 0.09838908 -0.13928469 -0.08402524
000050 56 d5 46 be 49 5b f9 bd 29 78 5e 3d 83 f0 2d 3c
       -0.19417319 -0.121756144 0.054313812 0.0106164245
000060 d7 76 bb 3d ad 28 c6 be 49 ba 0d be 8b 8e db be
       0.09153526 -0.38702908 -0.13840593 -0.4288219
000070 8d f4 08 bf 89 7f 97 3d 03 ba 8d bc 94 10 dd be
       -0.53498155 0.07397372 -0.017300611 -0.4317671
000080 6d 5e 0a bf eb 3d 9a 3d db 93 fa bb 85 57 48 3d
       -0.5405033 0.07531341 -0.0076470203 0.04891159
000090 59 f8 2f bd 85 9c 02 bf 86 42 cf bd df ea 09 3e
       -0.042961452 -0.5102008 -0.1012011 0.13468502
0000a0 b4 6b 76 be 49 f6 02 bc 17 96 10 be 66 7f e7 bd
       -0.24064523 -0.007993289 -0.14119755 -0.11303596
0000b0 56 68 0c 3e cb 63 f4 3d 17 5a 52 3d cf 07 a0 be
       0.13711676 0.119330965 0.051355448 -0.31255957
0000c0 2b 28 7a bd 75 c0 2d 3d 00 77 81 3d 3d d9 90 be
       -0.061073463 0.04241987 0.063215256 -0.2829074
0000d0 93 49 9b bd 9c 92 f4 3c 5d ea fd 3d f1 15 0f be
       -0.075823925 0.029855065 0.12398217 -0.13973214
0000e0 88 87 0c bf 5c 39 b8 3d ca 6a 7f be f9 99 c6 3d
       -0.54894304 0.089953154 -0.2494308 0.09697337
0000f0 2a ce 5f bd 03 bd 32 be e1 6c 04 3e 18 45 91 bd
       -0.054639973 -0.17454915 0.12932159 -0.07093257
000100 a6 34 97 bc 1a 2f 70 be 6b 07 ca be 54 a8 c7 3d
       -0.018457722 -0.23455468 -0.39458784 0.09748903
000110 13 2f af 3c a7 4a 88 be eb ac 83 bc cc 14 cd 3c
       0.021384751 -0.26619455 -0.016073665 0.02503433
000120 09 fd df be 2e 91 72 3d 7a 9e d2 3d ca a7 b6 3d
       -0.43747738 0.059220485 0.10284133 0.08918722
000130 7f 9b bf 3d 80 cc 88 3c b3 d2 22 3e dd 01 fa bc
       0.093558304 0.016699076 0.15900688 -0.030518467
000140 f2 f2 cc 3d c6 20 ad bc 97 54 59 be 90 c4 b5 3d
       0.10007276 -0.021133792 -0.21223675 0.08875382
000150 fe e7 57 be 94 6e 33 be d3 f5 c3 3a 1f 3f 3c be
       -0.21084592 -0.17522651 0.0014950581 -0.18383454
000160 09 aa 2d be ec 84 17 3e 0a c4 13 be 29 4e 19 be
       -0.16959395 0.147968 -0.14430252 -0.14971222
000170 dd e9 11 3e c8 38 b7 bb 68 26 6f be 28 0b 39 3d
       0.14249368 -0.0055914856 -0.23354495 0.045176655
000180 5f 42 08 bf ff 91 a7 be 22 66 46 bd a6 37 cc 3c
       -0.53226274 -0.32728574 -0.048437245 0.024928879
000190 b0 a7 c4 bd 21 79 c7 3b 36 69 a7 be 35 d0 3d bd
       -0.09602296 0.0060874377 -0.32697457 -0.04634114
0001a0 de be 69 bd 12 ec cc 3d 6e fd df 3d de 50 cd 3d
       -0.05706679 0.10005964 0.1093701 0.1002519
0001b0 dc be dc 3d 22 5e 35 bc 07 d5 93 be be 30 17 be
       0.10778591 -0.011069806 -0.28873464 -0.14764687
0001c0 8d 8b a7 be 10 07 85 3d a4 88 94 3d db cf 06 3d
       -0.32723656 0.06495488 0.07252625 0.03291307
0001d0 48 1e ff 3d 24 52 36 3e 0b ac 3e 3d a3 be 29 be
       0.124569476 0.17804772 0.04655079 -0.16576628
0001e0 5f fe 06 3e 17 17 50 3d 2f 19 62 be 02 40 6b be
       0.13182972 0.05080327 -0.2207992 -0.22973636
0001f0 17 a9 84 3d c4 06 1f 3e fb c0 98 3d 5f 05 66 bc
       0.06477564 0.15529925 0.07458683 -0.0140393665
000200 f0 55 14 3d 13 7c 41 3e d3 05 b1 be 11 4d 08 bd
       0.03621477 0.18894987 -0.34574756 -0.03327662
000210 06 95 c7 3d ba f9 5c 3d ba 61 13 3e 6b a0 ce be
       0.09745221 0.053949095 0.14392748 -0.40356764
000220 f7 96 75 bc 34 eb 2c be b3 e4 5c be 0c 4e 52 bd
       -0.014989606 -0.16886598 -0.21571617 -0.051343963
000230 b8 11 cf be ca 9f c7 bd a5 ec 4b bf 8d 31 30 3e
       -0.40443206 -0.09747274 -0.79657966 0.17206402
000240 52 ed a4 bb da 20 94 bc aa 15 85 3d 16 09 b8 3d
       -0.0050331736 -0.018082071 0.06498273 0.08986108
000250 7e 58 dc bc da 2b 06 bd 7c 36 22 be d1 75 13 be
       -0.026897665 -0.032756664 -0.15841097 -0.14400412
000260 e6 66 eb 3d ca 96 2d 3c 98 f8 cb bd 23 57 eb 3d
       0.11494236 0.010595033 -0.09959525 0.114912294
000270 cd fb 48 bd 12 9c d8 be e4 0a 8b bb 3c b8 5b 3e
       -0.04906826 -0.42306572 -0.0042432416 0.21456999
000280 23 fd de 3b c1 fd 10 3e 37 a0 8f be 47 f6 4c be
       0.0068050786 0.141593 -0.28051922 -0.20015822
000290 5c 65 a5 be ce 71 75 3d 1c ff f3 3d 9e 17 75 3c
       -0.32303894 0.059922986 0.119138926 0.014959244
0002a0 0e 4a 39 3e 64 2f d6 3d fe b7 c6 be 48 b5 00 be
       0.18094656 0.10458258 -0.3881225 -0.12569153
0002b0 cb ce c0 be 04 a2 5b bd 8f 2c 94 be 81 c3 4b 3e
       -0.3765777 -0.053621307 -0.28940246 0.19898798
0002c0 92 95 0e bf 38 67 5c bd 03 78 05 bf ab d4 08 3e
       -0.55696976 -0.053809375 -0.5213625 0.13362376
0002d0 64 3b 90 3b f9 c0 36 bd d5 d3 66 bd 8b 2a 22 bf
       0.004401611 -0.044617627 -0.056354363 -0.63346165
0002e0 ed fe 1f be 69 ab c3 3d f0 79 9e 3c c0 fc 84 3d
       -0.1562459 0.09554178 0.019345254 0.06493521
0002f0 d4 ca 39 3d d8 d6 68 bd 08 c5 77 3d 6e f5 cf 3d
       0.045359448 -0.056845516 0.060490638 0.10154234
000300 06 a8 85 be b6 2e c0 3d 98 2a e5 bd aa 5d 3b 3d
       -0.26104754 0.093839094 -0.11189765 0.045743622
000310 d0 95 a2 3d 8b a1 1d 3e d0 df 13 bb 99 5d 79 3d
       0.07938731 0.15393655 -0.0022563823 0.060880277
000320 76 5c aa be 0d 50 ff 3d 47 e5 0a bd 3e 4d 06 be
       -0.33273667 0.1246644 -0.033910062 -0.13115403
000330 4f e5 c8 3b 69 a7 c2 3d 39 72 24 bd 05 70 35 bf
       0.0061308513 0.09504587 -0.040147994 -0.70874053
000340 a0 99 e9 bd a7 24 37 bc 39 6e 0a bd 3e 58 25 be
       -0.11406255 -0.011178172 -0.033796523 -0.16146943
000350 86 a4 b4 bd c8 bb 38 bc 76 b5 aa 3d 82 13 d4 be
       -0.08820443 -0.011275239 0.08335392 -0.41421133
000360 f8 25 03 3e b4 07 1a be c3 4d e4 3d 74 b6 be 3d
       0.12807453 -0.15042001 0.11147644 0.09312144
000370 4d e2 c9 be d8 4a 26 3e 50 ee 01 be d4 1f f7 be
       -0.39430466 0.16239488 -0.12688565 -0.4826647
000380 1b 07 d8 3d de 01 86 3d a7 97 0c be c8 6d 83 be
       0.1054823 0.06543325 -0.13729726 -0.25669694
000390 d6 d5 22 3e 83 7b 1d bf 1b 1d 03 3e 2b 74 d3 3d
       0.15901884 -0.6151659 0.12804072 0.10324892
0003a0 4a b6 ef be cf 6e 2b 3d fd b1 03 bd 60 78 0a bf
       -0.46818763 0.041853722 -0.032152165 -0.5408993
0003b0 0d bb a7 bd ba 12 07 3e f8 af c2 3c 86 28 18 bf
       -0.08189974 0.13190737 0.023765549 -0.59436834
0003c0 8a 49 ec bc ef df 01 3e 03 e3 c5 be 80 2d 0f 3e
       -0.02884366 0.1268308 -0.3864976 0.139822
0003d0 80 b0 6b 39 c9 9d eb bd 5a 0d 48 3c 0a 09 05 3e
       0.00022477098 -0.115047045 0.0122102145 0.1299173
0003e0 40 83 b4 bc 5a 49 25 be bc 75 40 3c 8d d7 7b 3c
       -0.022035241 -0.16141263 0.01174682 0.0153712155
0003f0 8d a6 ca be 7b 7e 30 3d 94 b5 14 3e 10 6a 12 3e
       -0.39580193 0.04308937 0.14522392 0.14298272

model.model.3.weight f4 [2, 512]
000000 c9 dd b9 bc 61 9a ab 3c 55 d8 a2 bc 58 16 51 bd
       -0.022688763 0.020947637 -0.019878546 -0.0510467
000010 05 13 90 3c 1b b1 02 3d c3 0b 99 3c 86 ea 0c 3e
       0.017587194 0.031907182 0.018682366 0.13761339
000020 cc 69 79 3d 96 5b b0 3c 7f 0e d3 bc a3 17 ae 3c
       0.06089191 0.021528047 -0.025763748 0.021251505
000030 2a 2b 1b 3d be 20 ba bc 8c 74 e6 bc e0 fe be 3c
       0.03788296 -0.02272069 -0.028131746 0.023314893
000040 06 67 62 3c e6 52 a3 bc 03 56 c9 bc 77 81 b8 3c
       0.013818508 -0.01993699 -0.024577146 0.022522671
000050 da 88 0c bd f0 cb aa 3c 91 5a aa bc 5b cc aa 3c
       -0.0343102 0.020849198 -0.020795139 0.020849397
000060 ae 4b 5e bc 0f 38 75 3d 08 cf 2a bd a1 49 cd bd
       -0.013567848 0.059867915 -0.041701347 -0.10023809
000070 6c 43 49 be 87 93 b0 bc 46 dd 8a 3c c7 9f da 3c
       -0.19654626 -0.021554722 0.016951215 0.026687516
000080 87 ac ec bd 4a ef a7 3c e0 e3 de bc e1 5d 8f bc
       -0.115563445 0.020499844 -0.027208269 -0.01750082
000090 96 fa 86 bc ca 96 ca bd 58 46 c3 3c c3 21 7d 3c
       -0.01647691 -0.09892042 0.023837253 0.015449944
0000a0 48 a3 c7 bc 63 a9 8e 3c 88 d8 cd 3c 39 dc 98 3c
       -0.02436985 0.017414754 0.025127664 0.018659698
0000b0 10 27 ae bc 41 57 85 3c 38 60 8e 3c 0c 15 a3 bd
       -0.02125886 0.016276957 0.017379865 -0.07962999
0000c0 17 5a 98 3c d2 a5 9d 3c b5 e6 de bc c0 70 0a bd
       0.018597646 0.019244108 -0.027209619 -0.033798933
0000d0 67 38 f3 bc 1f 2c cb bc c7 f4 9f bc fc c9 9f 3c
       -0.02968998 -0.024801312 -0.019525899 0.019505493
0000e0 54 6c 56 3e 47 99 b1 bc a9 62 10 3d 50 71 a3 3c
       0.20939761 -0.021679534 0.03525034 0.019951493
0000f0 4b 5b 75 3c 08 06 af 3c 2e 18 8d 3c f4 65 e1 bc
       0.014975379 0.02136518 0.017223444 -0.027514435
000100 6f ea af bc fb 30 df 3c f3 eb c8 3d 24 a8 a0 3c
       -0.021474091 0.027245035 0.09810629 0.019611426
000110 47 16 96 3c 77 41 01 3d 54 80 ef 3c 3d a4 b1 bc
       0.01832117 0.031556573 0.029235996 -0.02168476
000120 c0 d8 b9 3d 2a 69 93 3c bc 70 c3 bc ed e0 9e 3c
       0.09074545 0.017994482 -0.023857467 0.019394362
000130 48 37 89 3c e0 42 aa bc 71 2a 80 bc f7 18 b7 bc
       0.016749993 -0.020783842 -0.015645238 -0.022350771
000140 60 f7 91 bc e6 93 c1 bc ab e4 ec 3c b4 45 bb bc
       -0.017818153 -0.023630094 0.028917631 -0.022860385
000150 5c 95 2f bd ae cf 8e 3c 49 ca 58 3c c6 34 68 bd
       -0.04286705 0.017433014 0.013231822 -0.056690954
000160 79 62 98 bc 06 5d 90 3c f0 f4 34 bd 0a f8 bb 3c
       -0.018601643 0.017622482 -0.044178903 0.022945423
000170 e9 00 87 3c f2 a6 bd bc ba 11 eb 3c a5 48 c2 bc
       0.016479926 -0.023150895 0.028694976 -0.02371628
000180 27 6a 69 bc 15 2a 2e bd 24 0f ae 3c 6c c2 85 3c
       -0.0142465 -0.0425206 0.021247454 0.01632806
000190 d8 3e 9a 3c 13 07 a6 bc 44 bc 98 3c ed be b1 3c
       0.018828794 -0.020267045 0.01864446 0.021697486
0001a0 e4 a9 ac 3c f2 f9 ad bc 03 e3 8d 3c b6 41 9d bc
       0.021077104 -0.021237347 0.017320162 -0.019196372
0001b0 14 92 8f 3c 66 9a b7 bc 56 84 38 3d ee f3 b7 3c
       0.01752571 -0.02241249 0.04504808 0.022455182
0001c0 41 0c 3d bd 91 1b 6a 3c ad 2c 80 3c 4c 44 8c 3c
       -0.046154264 0.014288799 0.015646303 0.01712241
0001d0 b4 33 a1 bc 10 8d a7 bc 24 d8 ba bc 7d e0 55 bd
       -0.019677974 -0.020453006 -0.022808142 -0.05221604
0001e0 82 d9 91 3c 3f e0 a8 3c 50 b2 86 bc eb 40 39 bd
       0.017803911 0.020614741 -0.016442448 -0.045227926
0001f0 a7 5b be bc 21 d5 d4 bc 49 cf 98 3c 18 1a b9 bc
       -0.023237063 -0.025980534 0.018653529 -0.02259545
000200 9c a8 aa 3c 54 6c 93 bc d0 27 6b 3d 11 5f c3 bc
       0.020832352 -0.01799599 0.057411015 -0.023849042
000210 6a c2 07 bd f9 43 a3 3c 7e 50 92 bc b2 c0 61 3d
       -0.033144392 0.019929873 -0.017860647 0.05511541
000220 2a 99 b2 3c 70 d3 b6 bc 50 ce a9 3c 6e 33 af 3c
       0.02180155 -0.022317618 0.02072826 0.021386828
000230 54 19 4b bd 59 82 e9 3c 77 a1 77 3e aa 35 b0 bc
       -0.0495847 0.028504537 0.24182688 -0.021509964
000240 70 7d 55 3c 64 11 96 3c bf 40 cf bc 17 02 78 3c
       0.013030395 0.01831884 -0.025299428 0.015137217
000250 83 3e a1 3c 06 36 8a 3c 02 89 83 3c 5b bc 9f bc
       0.019683128 0.016871464 0.016056541 -0.019498995
000260 4c f6 83 3c 9f b6 9c 3c e0 2a 91 3c 37 01 92 3c
       0.016108654 0.01913005 0.01772064 0.017822845
000270 bb 5b e6 3c 31 d3 da bd 15 08 a0 bc ea 07 8d bc
       0.028119912 -0.10684813 -0.019535104 -0.017215688
000280 25 34 97 3c 22 36 c8 bc 24 b4 da 3c 59 1e 14 3d
       0.018457482 -0.024439875 0.026697226 0.036161754
000290 41 eb 36 3d 55 13 c5 bc 4c 1e 9c bc e4 07 82 bc
       0.04465795 -0.02405707 -0.019057415 -0.015872903
0002a0 54 85 b7 bc e0 29 a9 bc 92 4b 86 3d c9 92 d9 3c
       -0.022402443 -0.02064985 0.06557383 0.02655925
0002b0 68 5c ce bd 89 a1 93 3c 4d 6f a2 bc b8 86 83 bc
       -0.10076219 0.018021362 -0.019828463 -0.01605545
0002c0 21 8e 44 be 18 26 a7 3c 42 6b 55 3e d5 ac 94 3c
       -0.19194843 0.020403907 0.20841697 0.018148819
0002d0 4f 93 a2 3c 76 b0 9f bc 40 1d a1 bc b8 be 81 3e
       0.019845633 -0.019493323 -0.019667268 0.2534082
0002e0 6b 42 72 bc 6c 99 87 3c a6 36 a6 bc d9 a5 9e 3c
       -0.014786343 0.01655265 -0.02028973 0.019366192
0002f0 7a 64 9f bc 06 7e 9d 3c a1 75 a4 bc b4 63 9d bc
       -0.01945709 0.019225132 -0.020075621 -0.019212581
000300 5a c6 4d 3d fb 69 7f 3c 0e 09 0f bd 3e 79 c1 bc
       0.05023799 0.015589233 -0.034920745 -0.023617383
000310 4c 97 a6 bc a7 07 6e 3c 92 9c 9b 3c 14 bb 87 3c
       -0.020335816 0.014528192 0.018995557 0.016568698
000320 1c 85 ce 3c 8f 3f 91 3c 28 6f 91 3c ef 27 ab bc
       0.025209956 0.017730502 0.017753199 -0.020893065
000330 bf 50 8e 3c 62 95 9f bc f7 4b c3 bc 02 25 82 be
       0.017372487 -0.019480411 -0.023839934 -0.2541886
000340 e5 3e b1 3c f6 f1 a7 3c cc af b4 bc 2d 0a d0 3c
       0.021636436 0.020501118 -0.022056483 0.025395477
000350 10 60 b5 3c 35 d2 89 3c a2 60 7e 3c e3 ae 16 3e
       0.022140533 0.016823867 0.015525969 0.14715151
000360 0c 36 a1 3c 9e 64 bb 3c 99 69 b8 bc 35 ba 63 bc
       0.019679092 0.022875126 -0.02251129 -0.013899376
000370 00 8f 50 3d a8 10 8a bc da fb cc 3c 08 f7 eb bd
       0.050917625 -0.016853645 0.025022436 -0.11521727
000380 f9 12 bd bc c8 42 97 3c 76 1c ce bc 4c f6 ed 3c
       -0.023080336 0.018464461 -0.025160056 0.029048108
000390 06 db 78 bc 11 16 a3 3d b1 55 b7 bc 4a 94 b9 bc
       -0.015188938 0.07963193 -0.022379728 -0.022653718
0003a0 ec 19 6d 3d e5 fc ae bc e8 e3 ba bc 22 8d 4f 3e
       0.05788605 -0.021360824 -0.022813752 0.20268682
0003b0 01 fe bf bc 7d af 95 bc 80 94 91 bc 4c 94 98 bd
       -0.023436548 -0.018272156 -0.017771006 -0.074501604
0003c0 2f 5c 43 bd 75 2a 99 3c 0c dd 22 3e 7c 41 71 bc
       -0.047695335 0.018697003 0.15904635 -0.014725085
0003d0 20 3c bd 3c 91 93 d1 3c cc 87 a2 bc d5 c2 8c bc
       0.023099959 0.02558306 -0.019840144 -0.017182747
0003e0 9b 39 be 3c 00 37 16 3d ff 77 55 3c 70 5c c5 bc
       0.023220828 0.036673546 0.013029098 -0.02409193
0003f0 6f 06 48 bd 8e 7a 9a bb 29 84 a5 bc 68 4a a0 bc
       -0.04883426 -0.0047143167 -0.02020462 -0.01956673

model.model.3.bias f4 [2]
000000 f7 97 35 3e 4c 04 8f bf
       0.17733751 -1.1173186

model.lat_embed.weight f4 [160, 5]
000000 4c 14 67 3f 2a c7 0e bf 2d 31 3a 3f 00 47 22 bf
       0.90265346 -0.5577265 0.72731286 -0.6338959
000010 c6 c8 b0 be 92 a8 42 3f 10 5e 02 bf 90 60 09 3f
       -0.34528178 0.7603847 -0.5092478 0.5366297
000020 7d 08 2a bf f3 16 8a bd 36 54 27 bd 6b 79 34 3e
       -0.664192 -0.067426585 -0.040851794 0.17624442
000030 7c 44 5b be be 4a a3 3e 3f d4 bc 3d 9b 26 11 3f
       -0.21412843 0.3189296 0.0922017 0.5669953
000040 87 db 97 be 8d 5a d3 3e 78 a4 fa be fa 07 ac be
       -0.29659674 0.41280022 -0.48953605 -0.33599836
000050 25 6a ba 3d 34 d9 26 be 18 fd 39 be 7b 1b 94 3e
       0.09102277 -0.16293794 -0.18162954 0.28927216
000060 9f b0 76 be 2e 44 f8 bd 5b a3 a5 bf 1f ab 4c 3f
       -0.24090813 -0.12122379 -1.2940477 0.7994861
000070 c5 f2 71 3e 56 8b 1c bf 7a 31 8d be be c3 a3 bf
       0.23627765 -0.6115011 -0.2757681 -1.2794111
000080 55 77 9a 3f 7f c4 e6 bd 01 09 b1 be c7 95 be be
       1.2067667 -0.112679474 -0.34577182 -0.37223646
000090 c9 26 94 bf fa 43 93 3f f4 e8 cc 3d 3a 64 34 bf
       -1.1574336 1.150512 0.1000537 -0.70465434
0000a0 56 35 34 bf 63 93 5e bf 5a 40 69 3f e5 89 11 3f
       -0.70393884 -0.86943644 0.9111382 0.56851035
0000b0 91 a6 2c bf f8 90 b5 bf 71 fe e2 be d5 56 67 3f
       -0.6744166 -1.4184866 -0.44334748 0.9036687
0000c0 ba f8 44 3f df 66 8a be 13 f6 6c bf 15 f2 3d bf
       0.76942027 -0.2703161 -0.9256298 -0.7419751
0000d0 5b 3d 39 3f 26 6d 55 3f ca f9 41 be aa 1f 8b bf
       0.72359246 0.8336967 -0.18942943 -1.0869038
0000e0 21 89 1f bf 0d aa 39 3f 5d 18 34 3f ab 7d f9 bc
       -0.6231862 0.725251 0.70349675 -0.030455431
0000f0 15 d5 92 bf cb fc e3 be d3 36 c1 3e 62 4b a3 3f
       -1.1471277 -0.44528803 0.3773714 1.275738
000100 ac 32 09 be fc c4 57 bf 38 1b 05 bf 67 0e c1 3e
       -0.13398236 -0.8428495 -0.5199466 0.377063
000110 cc 76 7d 3f c7 48 6b be 56 14 52 bf d5 63 1a bf
       0.99009395 -0.22976981 -0.8206228 -0.6030858
000120 74 fc 19 3f 18 c0 25 3f 54 fb 90 3e 39 56 49 bf
       0.6015084 0.64746237 0.28316748 -0.7864719
000130 21 ff 18 bf 6a a0 4c 3d ae 43 92 3f 8e 58 cd 3e
       -0.59764296 0.04995767 1.1426904 0.40106624
000140 c9 04 50 bf 8e 56 f8 be 47 ac 3a be fe a7 b0 3f
       -0.812573 -0.48503536 -0.18229781 1.3801267
000150 e2 60 c1 3d c3 04 0d 3e ed 9f a3 bf a6 80 d6 3e
       0.09442307 0.13771348 -1.278318 0.41895026
000160 9f db 6c 3e ec aa 1a 3f f1 b6 4c bf 6b 72 d4 be
       0.23130654 0.60417056 -0.79966646 -0.41493544
000170 5b a7 08 be 5b 94 8d 3f 8f 55 07 3f 58 84 33 bf
       -0.13345091 1.10609 0.5286493 -0.70123816
000180 29 3a f0 be f0 86 80 be 68 c7 b2 3f eb 0a b2 3e
       -0.46919373 -0.2510295 1.3967104 0.34773955
000190 df 8d ed be d8 57 3d bf 39 54 14 bf 29 ea bb 3f
       -0.46397302 -0.73962164 -0.57941014 1.4680835
0001a0 26 a9 7e be 50 67 0e 3f fa 22 bd bf 0c ea 8e bd
       -0.24869213 0.5562639 -1.4776299 -0.06978235
0001b0 99 9b ae 3d 3d ef 1c 3e b6 75 49 bf 99 0a 58 bf
       0.08525772 0.15325637 -0.7869524 -0.8439117
0001c0 5e c4 25 bf 91 ef 97 3f 40 e2 86 3e bb bc d8 be
       -0.6475276 1.1869985 0.2634449 -0.4233149
0001d0 3f a8 83 bf 3a 82 2b bf c7 78 71 3f 20 c4 e9 3d
       -1.028572 -0.66995585 0.94324917 0.11414361
0001e0 96 84 4e 3e 3f 0e e0 bf 2b 4f da bc 8a 99 d3 be
       0.20167765 -1.7504348 -0.026649078 -0.41328079
0001f0 f2 0e 30 3f ed 88 6e 3f 19 87 f3 bf 18 ce a7 bd
       0.68772805 0.9317768 -1.9025604 -0.08193606
000200 8e e2 fe be c6 5b da 3e 7c b6 86 3f 67 03 ab bf
       -0.49782223 0.42648143 1.052444 -1.3360413
000210 27 d5 14 bf f4 1b 44 3f 19 4d 82 bf 76 b3 5b 3f
       -0.58137745 0.76605153 -1.0179778 0.8582071
000220 23 92 91 bf d6 d2 fd bd 26 35 5e 3e e4 ce e6 be
       -1.1372722 -0.123937294 0.21699962 -0.4507972
000230 d3 0a 01 3f b8 c9 76 bf 25 ff de bd 32 dc 5e 3f
       0.5040714 -0.9640155 -0.10888509 0.8705474
000240 84 48 c4 bf 42 c9 4d 3c e0 2e b3 bf b4 6d 84 3e
       -1.533463 0.012560191 -1.399868 0.25864947
000250 7a 3b 1d bf d0 10 96 be d6 16 47 bf 88 b4 3d 3e
       -0.6141888 -0.29309702 -0.7776922 0.18525898
000260 dd 02 41 3f 63 93 2d 3e fd e4 4a bf 34 e9 42 bf
       0.75394994 0.16950755 -0.7925566 -0.7613709
000270 36 3d 90 bf 7f 44 b0 bd 5c 77 04 3d 76 d7 51 3e
       -1.126868 -0.086068146 0.032340392 0.20492348
000280 3c 65 3e bf 2f 33 aa bf bf 70 77 3e 59 b0 4d bf
       -0.7437322 -1.329687 0.24164103 -0.8034721
000290 14 00 c3 3d 2f e6 a8 be 2f 9e ae bf d0 51 95 be
       0.09521499 -0.32988116 -1.3642024 -0.2916398
0002a0 4e df 84 be 6e c5 1e bf 9c 4a 69 be 0e be 9a bf
       -0.25951618 -0.62020004 -0.22782367 -1.208925
0002b0 3d 7a b3 be 06 c0 5c be b6 45 f4 be e2 22 80 bf
       -0.35054198 -0.21557626 -0.47709435 -1.0010645
0002c0 e8 80 ea be 8c 6e c5 3e b9 4b 0b bf ea ec e4 be
       -0.45801473 0.38560903 -0.5441242 -0.44712
0002d0 24 21 9f bf d1 60 d8 3e 17 db 8d 3e 3c 3a 49 3f
       -1.2431989 0.42261365 0.27706215 0.78604484
0002e0 58 c5 c5 bf 6a 2f 87 bf 79 3f bc 3e 3e ab f6 3b
       -1.545085 -1.0561345 0.36767176 0.007527738
0002f0 f2 52 67 3f 30 dd cb bf b3 50 96 bf 02 46 8c be
       0.9036094 -1.5926876 -1.1743377 -0.27397162
000300 2d de b9 3e 9a 8c 3f bf 93 08 78 be a0 08 9b bf
       0.3630232 -0.74823916 -0.24222021 -1.2112007
000310 05 d3 08 bd 48 7b f6 3e 31 55 0e bf 5a 04 15 be
       -0.03340437 0.4814093 -0.5559874 -0.14552441
000320 86 fa 8d bf 4e aa cc 3d 91 77 17 3e 14 c2 94 be
       -1.1092079 0.099934205 0.14791705 -0.2905432
000330 ec 1d 82 be 9a 86 8d bf 1d 43 3d 3f 94 08 13 3c
       -0.25413454 -1.1056702 0.7393053 0.008974213
000340 fd 8d 1e 3f f7 75 70 bf 04 da 91 bf 4e f3 f9 bd
       0.61935407 -0.9393 -1.1394658 -0.1220461
000350 2e 94 78 3f 2b 3e ae bf 1e 88 af 3e 5c 36 a7 bf
       0.97101104 -1.3612722 0.34283537 -1.3063464
000360 2a fc a9 3e 3c c4 b8 3e 24 58 30 bf d3 ee 7f 3e
       0.33200198 0.36087215 -0.6888449 0.24993448
000370 f1 2f ab bf 76 a6 35 3f fa d7 18 bc 77 fa cb 3d
       -1.3374006 0.70957124 -0.009328837 0.09959882
000380 ed e9 ae be 67 6e cc bf fe bb 16 3f 84 7d 8f 3d
       -0.34162846 -1.5971192 0.58880603 0.07006362
000390 74 c8 dc bd c2 14 67 3d 0a b7 99 bf ff 8b de 3d
       -0.10780421 0.05641628 -1.2008984 0.10866546
0003a0 87 0d 02 3f cc 8a a0 bf 06 e3 19 3f 69 3a 96 bf
       0.5080189 -1.2542357 0.60112035 -1.1736575
0003b0 3d 61 07 3e 04 38 42 be ef c2 f6 be 08 42 c6 bc
       0.13220687 -0.18966681 -0.48195598 -0.024201408
0003c0 38 e4 92 bf 12 8b e6 bc c7 7a ba 3e d7 e7 90 bf
       -1.1475897 -0.028142486 0.36421797 -1.1320752
0003d0 45 c5 e8 3e 5e 9c 89 bf af 3d d5 3d c5 5e c0 3e
       0.45463005 -1.0750844 0.10412156 0.37572303
0003e0 14 a8 93 bf 09 57 77 3e 41 08 37 bf 11 76 1b 3f
       -1.1535668 0.24154295 -0.7149697 0.6072703
0003f0 54 0e 99 bd d5 84 71 3c b7 c5 81 bf 96 94 3e bf
       -0.07473436 0.014741142 -1.0138463 -0.74445474

model.lon_embed.weight f4 [220, 5]
000000 87 de 96 3f 2f 45 ee bf e4 69 7a bf 57 88 80 bf
       1.178666 -1.8614863 -0.97817826 -1.0041608
000010 22 4a 81 bf ea 7a 31 3f 40 f3 e0 be 38 66 33 bf
       -1.0100749 0.69328177 -0.43935585 -0.7007785
000020 83 02 90 bf 70 86 a8 bf cf 39 8a bf 4f 53 a1 be
       -1.1250767 -1.3166027 -1.0798892 -0.31508872
000030 a1 2c 50 bf c2 af 7a 3f 42 26 97 3e f4 ee 10 3f
       -0.813181 0.97924435 0.29521376 0.56614614
000040 3d 56 38 3f e6 75 08 3f 57 b0 ee 3d 22 32 9b 3d
       0.7200659 0.533049 0.11654728 0.075779215
000050 f8 a5 57 3f cb cf 76 bf 1d 42 62 bf 4e 5c 6e 3f
       0.84237623 -0.96410817 -0.8838213 0.93109596
000060 d2 68 07 3f 59 2d b3 be 85 b6 8a 3f 42 cd 93 bf
       0.5289432 -0.34995535 1.083695 -1.1547015
000070 35 6e aa 3e 14 d1 0e 3e fe 08 87 3e 2a 00 f2 3e
       0.33287206 0.13946944 0.26374048 0.4726575
000080 36 fe 99 3f 56 4c 05 3f e2 64 bd bf f2 57 ba bf
       1.2030704 0.52069604 -1.4796412 -1.4558089
000090 5f 05 6e 3f 96 3a 91 3f 1f a5 4b 3d 13 92 a3 bf
       0.92976946 1.1346004 0.04971802 -1.2778953
0000a0 16 97 5a 3e b0 19 d2 bb 04 7b 87 3e b2 1d 8e bf
       0.21346697 -0.0064117536 0.2646104 -1.1102812
0000b0 ea d0 f7 be 78 e2 2d 3f 50 a6 41 3f d2 b8 4e bf
       -0.48401576 0.6792369 0.756444 -0.80750763
0000c0 d0 9c 3e 3d da e2 ac 3f ae 5b 9e be c2 01 f7 3e
       0.046536267 1.350673 -0.3092932 0.4824353
0000d0 71 5b 1f 3f ee 53 1f 3f 4b 38 df 3f 98 40 ed 3e
       0.62248904 0.6223744 1.7439054 0.46338344
0000e0 84 f3 42 3f c7 a1 86 3f 38 70 15 3f 0e ca 2d 3f
       0.76152825 1.051812 0.5837436 0.67886436
0000f0 02 25 bb bf c7 6a 10 bf 56 12 91 3f 08 6d d8 3f
       -1.4620669 -0.5641293 1.1333721 1.6908274
000100 af c4 19 3d ff 99 2a 3e c8 98 e4 3e de 35 bf 3f
       0.037541088 0.16660307 0.44647813 1.4938314
000110 f1 a7 ab 3f 53 b0 b9 bd d2 af ae 3e 41 a3 1e 3e
       1.3410627 -0.09066834 0.34118515 0.15491964
000120 17 4b a6 3f 08 be 45 3f 7c c4 9a 3e 6e 5b b5 3e
       1.2991666 0.7724309 0.3022803 0.35421318
000130 aa 62 19 be 89 b6 bd 3f 4a fd 6c 3f b5 d3 cf bc
       -0.14979044 1.482133 0.9257399 -0.025369504
000140 42 67 ee 3e c4 7d 2e be d1 c2 cc 3f c9 ba 62 3f
       0.46563154 -0.17040163 1.5996953 0.8856626
000150 a9 ef 5e 3d 6d ec cf 3e 98 b7 fe 3d ed fe a5 3f
       0.054427776 0.40610066 0.124373615 1.2968422
000160 9e 28 58 3f 93 91 eb 3e ae a7 09 bf f1 41 99 bf
       0.84436977 0.46009502 -0.53771484 -1.1973249
000170 ec ef 83 bf 1e e7 7c 3f 8d c3 b7 be 64 44 1b 3f
       -1.0307593 0.98790157 -0.3589138 0.6065123
000180 de d9 92 3d c2 cf 93 3f 6b af 49 3f 67 62 c2 3e
       0.07170461 1.1547778 0.7878329 0.379657
000190 8c a6 38 bf ea dd 99 bf 26 4c 8a bf 5c 92 61 3f
       -0.7212913 -1.2020848 -1.0804489 0.8811395
0001a0 f1 de ef be 26 40 30 3f 87 a4 60 3e 24 9a 95 3f
       -0.46849778 0.6884788 0.21937762 1.1687665
0001b0 a4 b1 27 3f cf 4b f2 3e ed 3a 83 3f d6 87 a4 3d
       0.65505433 0.47323462 1.0252358 0.08033721
0001c0 60 1e 56 3f 26 75 04 3f 79 50 70 3f fb 03 35 bf
       0.836401 0.51741254 0.9387279 -0.707092
0001d0 ba de a1 bf 98 f7 73 bf 16 b4 35 3f f8 58 39 bf
       -1.2646096 -0.95299673 0.70977914 -0.7240138
0001e0 70 40 56 bf 3e 0f a8 bf ca de 80 bf 80 fe 20 3f
       -0.83692074 -1.3129652 -1.006799 0.62888336
0001f0 94 fb 2f bf 24 db 1b bf d0 8f a6 bf 18 12 82 bf
       -0.6874325 -0.6088126 -1.3012638 -1.0161772
000200 aa bc 05 3f 74 c1 63 bf 75 34 6b 3f 73 70 a4 3e
       0.52241004 -0.8896706 0.9187692 0.32117042
000210 cb 48 12 3f 4e 6a ee 3e 68 41 88 3f a8 6c 28 3f
       0.57142323 0.4656548 1.064496 0.65790796
000220 d6 2e a5 3e 8c c1 7f 3f cc 4b 27 3f fb 57 02 3f
       0.32262295 0.99904704 0.6535003 0.509155
000230 16 1b 31 bf 9a 61 ab bf 18 a9 8c bf 12 4b 30 3f
       -0.69181955 -1.3389161 -1.0989103 0.6886455
000240 21 e6 f7 be 60 81 63 3f d5 5c 08 3f 6c 7f d3 3e
       -0.48417762 0.88869286 0.5326665 0.41308153
000250 06 0a 3e 3f b2 41 c0 3f 79 70 22 be 53 e1 05 3f
       0.74234045 1.5020049 -0.15863217 0.5229694
000260 4e 3f fe 3f 2d b2 7d 3f cd ce 53 be c3 21 6d 3f
       1.9863069 0.991 -0.20684357 0.9262964
000270 92 16 e5 3e 20 1d f9 3e 2e 64 36 3f 75 b5 cc 3f
       0.44743782 0.48655033 0.7124661 1.5992876
000280 67 4f 60 bf 99 bf d9 bf 48 98 37 bf 28 eb f3 3e
       -0.8762116 -1.7011596 -0.7171674 0.47640347
000290 a1 b4 80 bf 68 21 90 be 8e 24 97 3e 7b da f1 3f
       -1.0055124 -0.28150487 0.29520077 1.88948
0002a0 b3 8f 82 3f 0c eb 68 be 00 23 32 bf 06 29 ec bf
       1.0200104 -0.22745913 -0.69584656 -1.8450019
0002b0 7b 65 28 bf 90 8d 22 3e cf 95 98 bf b7 55 46 bf
       -0.65779847 0.15874314 -1.1920718 -0.7747454
0002c0 e8 13 f6 bf ab df 8e be bd 2f 9f 3e d7 5f 92 bf
       -1.9224825 -0.2790502 0.3109111 -1.1435498
0002d0 b6 fb aa bf 51 62 98 bf 3c a7 99 bf e0 9d 41 3f
       -1.3358066 -1.1905004 -1.2004161 0.75631523
0002e0 60 bb 37 3f 16 3a 35 bf 10 2d 13 3f 40 fb d4 3f
       0.71770287 -0.7079176 0.57490635 1.6639175
0002f0 bf 9c 48 3f cf 3e 86 3d 1e bf 4e bf 6c 70 39 3f
       0.78364176 0.065549485 -0.8076037 0.7243717
000300 67 44 a6 3f bb ac 7b 3f e7 b6 58 3e e5 ad 47 bf
       1.2989625 0.9831044 0.21163522 -0.77999717
000310 98 c9 03 3f 48 97 b6 3f 89 dc 36 3f d0 2b 78 3d
       0.5147948 1.4264917 0.7143026 0.060588658
000320 bd d4 3c bf 3b 3e 20 3f f1 50 a7 3f 49 03 5e 3f
       -0.7376211 0.62594956 1.3071576 0.8672376
000330 98 f6 92 3e 42 12 4a bf cc 47 61 3e 67 96 ad 3f
       0.2870376 -0.7893411 0.22000045 1.3561524
000340 d9 bc a3 3f 56 82 30 be 41 d1 9a bf a0 fc 81 bf
       1.2792007 -0.17237219 -1.2095109 -1.015522
000350 52 a5 3b bf 96 b8 47 3f c6 13 49 3f bd 92 89 bf
       -0.73299134 0.7801603 0.78545797 -1.0747906
000360 bb 87 b7 be c9 ff 21 3f a2 a2 a4 3f 58 5d 47 3d
       -0.35845742 0.6328092 1.2862132 0.048673004
000370 39 35 2b bf 36 0e 96 bf 69 fc 44 bf 83 97 4c 3f
       -0.66878086 -1.1723087 -0.7694765 0.7991869
000380 f1 d3 fa 3e b6 15 5e 3d 45 1b af 3e b9 de 03 3f
       0.48989823 0.054219924 0.34200493 0.5151172
000390 f1 f4 39 3f ba 3a 8b 3f ef 07 c5 be dc f5 fa bf
       0.72639376 1.0877297 -0.38482615 -1.960628
0003a0 ad 64 d9 3e f8 48 13 3f c3 16 35 bf bc 06 93 bf
       0.42459622 0.57533216 -0.70737857 -1.148643
0003b0 3b e9 7e bd 3a 0a 0a 3f 92 c6 75 3f 23 b3 81 3f
       -0.062234145 0.53921854 0.9600612 1.0132793
0003c0 2a f0 37 bf cc 6a 9c bf 35 e7 90 3e 36 48 1f 3f
       -0.71850836 -1.2220092 0.28301397 0.6221956
0003d0 7b b5 01 3f 3e 6d 50 bf 5f f9 c1 be ef 4c dd be
       0.5066754 -0.8141669 -0.37885568 -0.43222758
0003e0 87 57 8e 3f dc 1b 8b 3f 43 47 23 bf de b3 93 3e
       1.1120461 1.0867877 -0.6378061 0.28848165
0003f0 0c ad c7 3e f7 e7 65 3f ac e6 72 3f b0 18 6f bf
       0.38999212 0.89807075 0.9488323 -0.93397045

exp_avg f4 [512, 15]
000000 4c 7d a8 b8 e8 59 16 37 8f 4c ff b7 74 a2 03 b9
       -8.0342026e-05 8.96163e-06 -3.043402e-05 -0.00012553652
000010 17 6b f8 b8 87 4b 69 38 c5 15 10 38 bb 50 97 37
       -0.000118455086 5.562187e-05 3.435255e-05 1.8038196e-05
000020 44 ed ab b8 eb a3 9b 38 a0 3f d8 38 6b ee b8 37
       -8.1981096e-05 7.421508e-05 0.00010311534 2.2045531e-05
000030 1e 51 ae b7 2c 2b 74 37 82 ac f8 37 07 57 c3 b8
       -2.078019e-05 1.4553585e-05 2.9644234e-05 -9.314535e-05
000040 5b 29 47 b8 6e ae f7 37 04 6f 6d b8 5f 90 74 b8
       -4.7483813e-05 2.952592e-05 -5.6608595e-05 -5.830859e-05
000050 cd b0 eb b7 ef 31 d2 36 ea dc d5 b7 c1 47 89 38
       -2.8096512e-05 6.2643007e-06 -2.549445e-05 6.546034e-05
000060 79 28 ba 37 48 97 8c b8 2a 1f a0 b7 9c 95 cc 36
       2.2191774e-05 -6.7038985e-05 -1.9087998e-05 6.0970906e-06
000070 65 41 92 37 04 af 4e b8 5a c4 4b b8 14 e7 02 b7
       1.7435008e-05 -4.9277223e-05 -4.858184e-05 -7.802406e-06
000080 b3 fa cc 37 9b 56 5e b8 87 98 b1 b8 7d 5e cc 37
       2.4435436e-05 -5.3009582e-05 -8.468428e-05 2.4362695e-05
000090 d9 7d 48 37 8b ff 21 38 c5 3d 92 b7 81 e3 36 38
       1.195023e-05 3.8623384e-05 -1.743332e-05 4.360406e-05
0000a0 c7 b0 94 37 a2 62 69 b6 d3 ef 5a b8 97 eb 51 38
       1.7725293e-05 -3.4777117e-06 -5.2198604e-05 5.0048893e-05
0000b0 dd 94 62 b7 04 f7 98 b8 6e 82 0f 38 2a dc 5f 37
       -1.350531e-05 -7.293935e-05 3.421533e-05 1.3343097e-05
0000c0 27 dc 1b b8 61 b2 b4 b7 0b 20 bc 37 6e 6e 11 38
       -3.7159913e-05 -2.1540736e-05 2.2426268e-05 3.467354e-05
0000d0 a5 ed d8 37 ea 95 6e b8 22 0c 0d 38 fe f0 f6 37
       2.5859868e-05 -5.688324e-05 3.362832e-05 2.9437706e-05
0000e0 8a e3 12 38 a4 65 6d b8 02 4d d6 b6 b8 77 16 b8
       3.5021025e-05 -5.6599863e-05 -6.386662e-06 -3.5874284e-05
0000f0 a8 fd 28 b8 cc be 2e b6 b6 bf 1c 37 5e b1 e2 b7
       -4.0290557e-05 -2.603908e-06 9.342961e-06 -2.7023892e-05
000100 7b 49 80 b8 5f b4 bf b7 82 99 b4 36 4f 43 9f b7
       -6.1172024e-05 -2.2852966e-05 5.3822887e-06 -1.898562e-05
000110 11 09 32 37 4a 07 9a 36 03 8c 0b b8 b5 5c 9d b7
       1.0611738e-05 4.590406e-06 -3.327058e-05 -1.8759029e-05
000120 89 e9 23 38 bf 65 e3 37 38 21 0b b8 d4 c0 a0 b8
       3.9079725e-05 2.7107888e-05 -3.317112e-05 -7.6653116e-05
000130 6a 10 9a b8 8f d3 50 b7 22 91 43 b8 01 27 42 b8
       -7.3463496e-05 -1.2447023e-05 -4.662679e-05 -4.628953e-05
000140 c5 89 a4 37 17 05 2f 38 22 72 62 b8 e3 96 c1 38
       1.9614477e-05 4.172799e-05 -5.3988893e-05 9.231062e-05
000150 ea ec b0 b7 6d 0a 3c 38 c2 a3 8b 38 71 b0 06 38
       -2.1091157e-05 4.4832403e-05 6.658539e-05 3.2112413e-05
000160 9d 25 bf 37 73 c5 70 37 16 18 d8 b8 4c 17 78 36
       2.278649e-05 1.4351087e-05 -0.00010304169 3.696844e-06
000170 a5 e7 c8 37 98 1c c0 b8 45 f8 dd b8 2f 48 91 b7
       2.3949726e-05 -9.1605994e-05 -0.00010584345 -1.731896e-05
000180 16 4a 03 38 b1 31 96 b7 fd 8b 26 38 2d ab 00 b7
       3.130183e-05 -1.7904533e-05 3.970786e-05 -7.6692495e-06
000190 27 b3 66 b8 13 6d c8 b6 3e e0 9d 36 e5 c0 69 36
       -5.500312e-05 -5.9731624e-06 4.70507e-06 3.4831985e-06
0001a0 67 56 ff 37 b3 1a b2 b8 2f 33 3f b9 60 9f a7 b8
       3.0438603e-05 -8.4926745e-05 -0.00018234247 -7.9928664e-05
0001b0 90 10 3d b8 9e de 88 38 55 b3 0b 38 03 83 2f b6
       -4.5076536e-05 6.526451e-05 3.33072e-05 -2.615329e-06
0001c0 fe a1 00 39 16 51 4d b7 29 96 de b7 ba e0 29 39
       0.00012267378 -1.22378315e-05 -2.6534386e-05 0.00016200813
0001d0 11 15 14 b9 64 3c b2 38 fb 01 f7 38 22 64 16 b9
       -0.00014122228 8.49895e-05 0.00011778247 -0.00014342417
0001e0 c8 b8 a4 b5 68 d0 be 38 18 ea b2 b7 68 72 63 b7
       -1.2272731e-06 9.098725e-05 -2.1328262e-05 -1.3556892e-05
0001f0 8d bc 84 b8 6a 4a 3f b8 3d 68 15 b7 c9 b8 c1 b7
       -6.329371e-05 -4.5607252e-05 -8.905362e-06 -2.309344e-05
000200 7c 0a a4 38 28 2d 6f b9 3e ee ef b8 1f 84 c3 37
       7.822082e-05 -0.00022809638 -0.00011440784 2.3307335e-05
000210 98 18 7d b8 a1 7b fe b6 04 06 96 38 21 b5 09 b9
       -6.0342805e-05 -7.584182e-06 7.153678e-05 -0.00013132814
000220 e0 59 85 36 59 2f 2c 37 55 d8 ce b8 54 9d 3f b8
       3.9741717e-06 1.0263023e-05 -9.8631404e-05 -4.5684472e-05
000230 eb c7 1a b7 13 e4 09 37 74 21 1e b8 d0 a0 a2 37
       -9.225662e-06 8.218939e-06 -3.770129e-05 1.9386789e-05
000240 00 7b b1 b6 33 8a 67 b8 ea a1 6a b8 6e 7b 06 38
       -5.28933e-06 -5.52034e-05 -5.594074e-05 3.2063042e-05
000250 19 f7 50 38 b6 a0 74 b7 05 9b 0a b8 0d 22 b3 b5
       4.9821192e-05 -1.4580952e-05 -3.3046137e-05 -1.3346449e-06
000260 b5 bc dc 37 a1 81 1f b8 f8 2c 8f b8 63 f5 03 b5
       2.6313917e-05 -3.802928e-05 -6.8271474e-05 -4.915839e-07
000270 84 f4 e1 37 78 ae 8f 38 27 d5 17 b7 36 c0 70 38
       2.6935952e-05 6.851269e-05 -9.04993e-06 5.739947e-05
000280 0c 10 33 38 10 7b 02 b8 ff 36 23 b7 df 89 92 38
       4.269187e-05 -3.1109026e-05 -9.728362e-06 6.987503e-05
000290 63 a5 de 36 63 21 bf b8 c4 b0 9e b6 f0 c6 14 37
       6.635369e-06 -9.1138085e-05 -4.729345e-06 8.867806e-06
0002a0 c1 ee a7 b8 31 c9 51 b8 97 2a 74 b8 fe 05 68 38
       -8.007652e-05 -5.0016857e-05 -5.82138e-05 5.531869e-05
0002b0 cb 2a 06 b8 ae 32 96 37 eb 7d e4 b7 79 3d fd b7
       -3.1987944e-05 1.7904993e-05 -2.7238353e-05 -3.0188576e-05
0002c0 5a d2 57 36 fa 89 04 38 8a c0 4e 37 3a e5 60 b7
       3.2159937e-06 3.1599753e-05 1.2323386e-05 -1.3404811e-05
0002d0 7b 90 26 b8 81 38 89 b8 38 75 45 35 2c f3 cf b8
       -3.9712042e-05 -6.543194e-05 7.3558795e-07 -9.9158235e-05
0002e0 bc ee 5a b8 23 cb 0d b5 97 a0 dc 37 8a 5d 58 b8
       -5.219759e-05 -5.2822196e-07 2.6300824e-05 -5.1585528e-05
0002f0 37 33 97 b8 d1 1f 1c b8 1c 01 5b b7 01 51 f3 b7
       -7.2097806e-05 -3.722293e-05 -1.30536755e-05 -2.9005578e-05
000300 7c a1 83 b8 64 93 b9 36 83 13 77 b8 13 08 35 b8
       -6.2766456e-05 5.530588e-06 -5.890756e-05 -4.3161283e-05
000310 a0 db 51 37 86 f3 09 37 2e c2 34 b8 11 67 92 b8
       1.2508506e-05 8.222536e-06 -4.3096188e-05 -6.98102e-05
000320 6f 06 75 38 37 df 74 36 59 f7 21 38 a0 78 a6 36
       5.8418544e-05 3.6488761e-06 3.861575e-05 4.961228e-06
000330 9e 77 a0 38 6c 17 84 37 6c 96 37 37 67 3d 48 b8
       7.651675e-05 1.5746533e-05 1.0942673e-05 -4.77409e-05
000340 ea 2f 04 38 48 ce a6 b7 0c da 9d b6 22 d5 45 38
       3.1515876e-05 -1.98848e-05 -4.7043486e-06 4.7166955e-05
000350 e4 77 2c b6 4b 46 8b b8 3b 8f 8d b8 83 a4 fc 37
       -2.5699783e-06 -6.6411296e-05 -6.750083e-05 3.0117348e-05
000360 f4 f4 b9 37 e1 d0 8a 38 26 be 4c b8 89 91 92 38
       2.2167784e-05 6.6192595e-05 -4.881448e-05 6.9889305e-05
000370 87 24 d6 37 ae da c2 b7 ab 4a 07 b8 5c 4e ba 37
       2.5527797e-05 -2.3228433e-05 -3.2256048e-05 2.2209417e-05
000380 50 12 04 b8 13 1f d5 b8 04 15 8b b7 cc 96 ad 37
       -3.1488307e-05 -0.000101624195 -1.6579877e-05 2.0693427e-05
000390 81 ee 7d b8 1e a7 4d b8 eb 7f 57 b7 6b 57 e9 37
       -6.0542025e-05 -4.903145e-05 -1.2844782e-05 2.7816472e-05
0003a0 f1 77 b9 b7 b9 14 cc 37 e6 72 49 37 99 64 8d b8
       -2.210957e-05 2.4328345e-05 1.20072855e-05 -6.742142e-05
0003b0 b9 ad 26 b8 ad b0 21 37 b9 81 58 38 41 2a 70 b8
       -3.9739276e-05 9.637483e-06 5.1619227e-05 -5.725981e-05
0003c0 41 8e 0a b8 d2 c2 91 b7 7b f1 07 37 01 f1 a6 b7
       -3.303425e-05 -1.7376067e-05 8.102851e-06 -1.9900968e-05
0003d0 7a fe 55 b7 10 35 26 b7 76 72 15 38 eb 07 c2 b7
       -1.2755039e-05 -9.906726e-06 3.563097e-05 -2.313029e-05
0003e0 80 30 ca 37 bf be 1a b7 03 4d cc b7 af 01 ef b6
       2.4102861e-05 -9.223527e-06 -2.4354556e-05 -7.122951e-06
0003f0 d1 b0 a3 37 aa 59 31 38 d7 d0 cb b7 9c d4 fa 36
       1.951345e-05 4.2283595e-05 -2.4296734e-05 7.4753316e-06

exp_avg_sq f4 [512, 15]
000000 2e 33 72 34 2f 43 55 33 74 7e 40 33 ca 5f 32 34
       2.2556625e-07 4.965403e-08 4.4818492e-08 1.661239e-07
000010 92 20 1c 34 de 26 04 33 7b 3f e8 32 2e 3c 14 33
       1.4540481e-07 3.0768994e-08 2.7037222e-08 3.451367e-08
000020 d1 25 16 33 d5 e1 18 33 2e 8d 2f 33 f2 fc 70 33
       3.495899e-08 3.559565e-08 4.0873765e-08 5.6109407e-08
000030 34 7d ca 32 7f 81 6a 33 c0 01 0c 33 2f 31 fe 34
       2.357283e-08 5.4600147e-08 3.259788e-08 4.7346973e-07
000040 93 5a 2f 33 86 9c 11 33 42 98 8a 34 f2 9d 4f 34
       4.082774e-08 3.39028e-08 2.5815285e-07 1.9335837e-07
000050 fd ce 4b 33 21 c9 17 33 f6 e7 e9 32 2f f4 1d 33
       4.7452875e-08 3.5340353e-08 2.7230254e-08 3.6776495e-08
000060 eb 28 0b 33 92 89 20 33 86 5d 3c 33 0e c8 d6 32
       3.2400674e-08 3.7378022e-08 4.385722e-08 2.5003853e-08
000070 63 51 40 33 5d 1a fa 32 c2 67 6a 34 b3 b0 13 33
       4.4777504e-08 2.9115819e-08 2.1830695e-07 3.438681e-08
000080 e6 22 01 33 f3 80 2f 34 2c 59 12 34 13 ee cb 32
       3.0066893e-08 1.6345057e-07 1.362975e-07 2.3740574e-08
000090 8a b6 ab 32 ec d3 ca 32 9a 6f d9 32 6c 3a d8 32
       1.999003e-08 2.3612266e-08 2.5312875e-08 2.5172277e-08
0000a0 d1 97 e1 32 36 cf e3 32 2a b5 81 32 1f b5 13 33
       2.6262486e-08 2.6520507e-08 1.509996e-08 3.4390833e-08
0000b0 c1 e3 c1 32 4d 71 9f 34 b7 31 27 34 36 e1 b3 33
       2.2571728e-08 2.9698495e-07 1.5571173e-07 8.376303e-08
0000c0 ee 12 16 34 a3 53 e1 33 97 06 3c 33 d7 b9 09 33
       1.3976725e-07 1.04925924e-07 4.3778154e-08 3.206682e-08
0000d0 20 22 53 33 22 82 71 33 13 00 5a 33 72 74 94 33
       4.9158302e-08 5.623054e-08 5.0757148e-08 6.912968e-08
0000e0 88 f0 87 33 7f 94 2e 33 c9 a2 bc 33 de d6 78 33
       6.33018e-08 4.064759e-08 8.784043e-08 5.793742e-08
0000f0 e7 cc d3 34 e4 8b 33 33 96 3d 17 33 45 ad 72 34
       3.94509e-07 4.1803915e-08 3.521344e-08 2.2601041e-07
000100 62 a9 36 34 9a 4e 32 33 15 79 18 33 33 05 e1 32
       1.7011692e-07 4.1515342e-08 3.550038e-08 2.6195812e-08
000110 2d 51 1f 33 48 cf 07 33 a2 b0 1f 33 ca 81 40 33
       3.70939e-08 3.1620658e-08 3.718072e-08 4.4821526e-08
000120 df c7 e7 32 bd f9 4a 33 22 3b f8 32 dd f0 ba 34
       2.698283e-08 4.7258926e-08 2.889789e-08 3.482045e-07
000130 ce 56 6b 33 15 40 15 33 75 c8 44 34 c6 0a 0b 34
       5.479415e-08 3.4750048e-08 1.8326848e-07 1.2949303e-07
000140 d3 32 77 33 72 49 a6 32 2d 0d 96 32 c8 69 46 33
       5.7555393e-08 1.9358342e-08 1.746829e-08 4.6196675e-08
000150 17 a7 53 33 21 43 18 33 96 ee 32 33 03 83 d3 32
       4.9279233e-08 3.545131e-08 4.1660847e-08 2.462321e-08
000160 d9 7f 31 33 b2 49 d1 32 36 70 a6 34 70 de 08 33
       4.13273e-08 2.4364315e-08 3.1001554e-07 3.1867273e-08
000170 0b 83 ec 32 57 50 3a 34 17 68 0b 34 57 be 04 33
       2.7533607e-08 1.7351827e-07 1.2983251e-07 3.0906758e-08
000180 11 9f d6 32 fe 65 8f 32 79 6b d6 32 23 e0 bf 32
       2.4985214e-08 1.6693772e-08 2.4961752e-08 2.2337252e-08
000190 2f b2 e6 32 6d c9 06 33 56 17 9c 32 b5 16 08 33
       2.6856553e-08 3.1382502e-08 1.8171402e-08 3.168562e-08
0001a0 dc 62 b9 32 e0 63 18 35 0a ba 62 34 8c 28 22 34
       2.158179e-08 5.676975e-07 2.1115571e-07 1.5102177e-07
0001b0 99 3f d2 34 4d b1 69 34 ec 40 57 34 2f 5e 41 34
       3.9161822e-07 2.1764318e-07 2.0047054e-07 1.800879e-07
0001c0 cc 81 f9 33 09 be 13 34 b4 61 fc 33 89 69 18 34
       1.1618576e-07 1.3759576e-07 1.17524365e-07 1.4194497e-07
0001d0 54 1a 5f 34 1a 0b fe 33 91 bf 20 34 af 35 ba 33
       2.0778072e-07 1.1829816e-07 1.4970853e-07 8.671065e-08
0001e0 cc 50 e5 34 b9 a1 03 34 a5 8a a4 33 3b 91 8b 34
       4.271336e-07 1.225916e-07 7.6620644e-08 2.5996437e-07
0001f0 4d e2 5f 34 95 fd 63 34 76 24 69 33 2d 85 3f 33
       2.0850821e-07 2.1233275e-07 5.42827e-08 4.4591776e-08
000200 82 e9 bf 33 6a 45 cb 33 d2 59 a8 33 c3 5d 1b 34
       8.9366054e-08 9.4655505e-08 7.839448e-08 1.446961e-07
000210 5f 90 a8 33 d1 f8 1a 34 4d fc 9b 33 4e 27 04 35
       7.8493706e-08 1.4432887e-07 7.263643e-08 4.923103e-07
000220 b6 dd 1d 33 55 2a 0e 33 5a 79 92 34 f0 ae 5a 34
       3.6756056e-08 3.3100452e-08 2.7282914e-07 2.0366474e-07
000230 89 f6 56 33 ff d7 26 33 61 a0 ff 32 40 50 2d 33
       5.004998e-08 3.8846334e-08 2.9758839e-08 4.035269e-08
000240 00 22 14 33 22 89 21 33 eb ac 3a 33 4f e0 de 32
       3.4489858e-08 3.7610455e-08 4.3463768e-08 2.5946205e-08
000250 15 52 4c 33 b3 b5 02 33 14 a3 9d 34 ad 50 2f 33
       4.7572104e-08 3.0433238e-08 2.9362184e-07 4.0818737e-08
000260 bd 31 38 33 30 a9 52 34 23 aa 2d 34 fa 03 db 32
       4.2886075e-08 1.9619324e-07 1.6173776e-07 2.5496764e-08
000270 69 46 c0 32 63 0e e9 32 21 e8 f4 32 3d c4 07 33
       2.238376e-08 2.7131312e-08 2.8510899e-08 3.1610615e-08
000280 0a a5 16 33 63 64 16 33 29 a7 b5 32 b8 87 40 33
       3.50747e-08 3.5015898e-08 2.1147189e-08 4.482692e-08
000290 da f8 fd 32 1a 6d 0a 35 28 a5 3b 33 7d b0 10 33
       2.9566241e-08 5.156777e-07 4.368954e-08 3.3688128e-08
0002a0 35 7d 95 34 67 a4 59 34 de 27 33 33 7f af 24 33
       2.7844513e-07 2.0269509e-07 4.1712944e-08 3.834384e-08
0002b0 21 b4 e4 32 a1 5c 1f 33 a8 68 26 33 50 e9 20 33
       2.6624607e-08 3.7104318e-08 3.874507e-08 3.74651e-08
0002c0 89 00 25 33 fd db de 32 24 36 42 33 09 66 ee 32
       3.8417543e-08 2.594424e-08 4.5218385e-08 2.7753247e-08
0002d0 0e 70 2e 35 79 85 51 33 1a 02 80 33 5f 4c d7 34
       6.498311e-07 4.8782997e-08 5.960847e-08 4.0102438e-07
0002e0 66 7c 8d 34 c6 fd 80 33 f4 df 78 33 6c f0 23 33
       2.6353808e-07 6.0066256e-08 5.7945684e-08 3.8170057e-08
0002f0 06 d4 62 33 51 73 40 33 1d d8 85 33 f6 68 30 33
       5.281256e-08 4.4808363e-08 6.232606e-08 4.1073655e-08
000300 18 32 16 33 ff c5 12 33 36 b7 3a 33 03 f8 7f 34
       3.4970157e-08 3.417335e-08 4.347313e-08 2.3838952e-07
000310 de 07 51 33 46 71 51 33 f7 ae 21 34 18 85 f5 33
       4.866876e-08 4.8764626e-08 1.5057945e-07 1.1432911e-07
000320 f5 a8 06 33 a5 46 c1 32 1f 7e da 32 e7 4d 0d 33
       3.135297e-08 2.2500283e-08 2.5435893e-08 3.2899973e-08
000330 ab 0a 22 33 62 2e 2f 33 1e 51 38 33 dc 85 d3 32
       3.7728267e-08 4.0787548e-08 4.2914614e-08 2.4624505e-08
000340 4e 58 3e 33 68 3f f7 32 e1 be 8b 34 00 4e 40 33
       4.4318135e-08 2.8783418e-08 2.602965e-07 4.4774424e-08
000350 3f c0 29 33 e7 3b 59 34 83 f2 2f 34 c1 8b fd 32
       3.9523226e-08 2.0231492e-07 1.638637e-07 2.951663e-08
000360 c8 68 06 33 9b 7f 09 33 3d 1f 0b 33 5b b1 04 33
       3.1294604e-08 3.2013855e-08 3.239187e-08 3.089495e-08
000370 a9 82 0d 33 05 8f df 32 7b f6 91 32 7d 8e 56 33
       3.2947955e-08 2.6025655e-08 1.6992308e-08 4.995535e-08
000380 e5 75 09 33 9a c7 11 35 07 f9 32 33 c9 30 14 33
       3.2005023e-08 5.430717e-07 4.1670344e-08 3.4503305e-08
000390 8e ae 9d 34 1b 2b 67 34 79 5a 44 33 e7 2f 1d 33
       2.9370534e-07 2.1529233e-07 4.571709e-08 3.6597978e-08
0003a0 67 18 eb 32 71 7e 2d 33 a3 c5 0b 33 76 0b 27 33
       2.7368698e-08 4.03947e-08 3.254321e-08 3.889314e-08
0003b0 0d 50 32 33 0e 3b e1 32 fe 15 48 33 25 5f 02 33
       4.151666e-08 2.6220302e-08 4.658613e-08 3.0354517e-08
0003c0 00 9d e0 34 44 aa 12 33 a9 71 ee 32 9c c8 77 34
       4.1837484e-07 3.414813e-08 2.7758533e-08 2.3076649e-07
0003d0 8b ca 37 34 6a 87 31 33 5f ca 06 33 11 fa a6 32
       1.7116888e-07 4.1334182e-08 3.138336e-08 1.943866e-08
0003e0 27 c4 08 33 d7 58 f3 32 28 66 08 33 6f 35 19 33
       3.1843367e-08 2.8329323e-08 3.1757878e-08 3.5671686e-08
0003f0 07 d1 c2 32 25 31 23 33 07 ce cc 32 d3 8c 4d 34
       2.2679627e-08 3.799609e-08 2.3842416e-08 1.9143344e-07
