results/drn/checkpoints/mlp_2.ckpt (torch, 144008 bytes, 18 tensors)

model.model.0.weight f4 [512, 15]
0.21212885 -0.06650423 -0.05790246 -0.054411557 0.06655956 -0.03394208 -0.010835832 -0.07738348
-0.022271238 -0.16887283 0.014289825 0.037494894 0.019775568 0.009720743 0.029247623 0.22705902
-0.075006925 -0.112108074 -0.09163945 0.10412508 -0.02881807 -0.07827009 -0.061360437 -0.066173054
-0.05588531 0.001571902 -0.05338712 -0.02265846 -0.012053196 -0.06300495 -0.28171927 0.13688725
0.040756226 0.19883558 -0.010516255 -0.015417905 -0.06877244 0.17006241 -0.07773691 0.14762999
-0.15512165 -0.2438516 -0.054827698 -0.12998028 -0.053911287 0.23271896 0.111387216 0.027070656
0.007125733 0.02093139 0.07789502 0.057333786 0.08185937 0.0504679 0.054470405 -1.50260075e-05
-0.025148265 0.018009342 0.009615503 -0.014642655 0.04403732 -0.13434593 0.08009285 0.23251377
0.17611854 0.0655179 -0.013909993 -0.010809334 0.023270732 -0.013307506 -0.0139209 -0.0423483
-0.050230674 -0.0772832 -0.05714931 0.23253164 0.02196504 -0.075946316 0.010429738 0.006260552
-0.0379739 0.02755522 0.0031803988 0.02783374 0.016326196 -0.007253445 -0.016597636 -0.02077778
-0.02541324 -0.036359962 -0.01259788 0.016759854 -0.092567034 0.03343414 0.032283515 0.16729271
-0.10207545 -0.10309595 0.042218775 -0.01917291 -0.14690478 0.23176163 -0.398164 0.04286874
0.22164637 0.328953 0.046443928 0.04436212 -0.18675573 0.100979164 0.0152028855 -0.038948264
0.010413876 0.016192548 -0.023847817 -0.034274004 -0.008326129 0.027492845 -0.025733048 -0.0059344824
0.16552918 0.061020415 -0.020572087 0.14806582 0.06789181 -0.028838407 0.002592131 -0.012956165
-0.026297506 -0.08840551 -0.13765223 -0.022166742 0.000111345966 -0.027068509 0.078406766 0.14343967
-0.03771246 -0.00069598533 0.18598421 -0.029467162 0.015679229 0.030018102 0.0961701 0.0677206
0.15402761 0.06442503 -0.07146007 -0.054027922 0.023804901 0.038023308 0.22569019 0.00529491
0.011523746 0.0741178 -0.004517966 -0.075222686 -0.12020382 -0.00982283 0.040731713 -0.014257381
-0.027241463 0.009013287 -0.06831171 -0.05485824 -0.00055727566 0.12965511 -0.11777761 -0.016874732
-0.2646597 -0.24767543 -0.023996515 0.017562324 0.050611515 0.15523852 -0.035978187 -0.003256839
0.030049255 0.058144882 0.067079216 0.029327704 -0.20562412 -0.14094014 -0.16569534 0.117323734
-0.059878454 0.012963482 0.059107892 0.06662183 0.10010027 -0.043314375 -0.005468605 -0.1793353
-0.14785276 -0.14569102 -0.11208325 -0.35795045 0.011623945 -0.16695975 0.10036865 0.09037599
-0.06260745 0.055407334 0.017250225 -0.13268137 0.0074566733 -0.08959313 0.029191215 0.04565646
-0.03822888 -0.05242476 -0.10978235 0.016508894 -0.0065444163 -0.0010886817 -0.11852708 -0.12059671
-0.0017484007 0.0114918975 -0.0059331264 0.041258097 0.052876752 -0.033003148 0.08941471 0.13010135
0.003676844 -0.21623069 -0.11600359 0.013917156 0.1292509 -0.085644595 0.06256363 -0.024775058
-0.018051906 -0.003950609 0.040713944 0.09607859 -0.14273281 -0.12569448 -0.06277921 -0.062152084
-0.11419585 -0.040365867 -0.08453877 -0.25652644 0.24929376 -0.097252876 0.13355371 0.008326119
0.12729579 0.0062853573 -0.13936219 -0.068450764 -0.12713741 -0.21090096 -0.13319814 0.16459188
00000000: 4e38 593e 5f33 88bd 212b 6dbd a7de 5ebd
00000010: 6150 883d da06 0bbd c688 31bc 3b7b 9ebd
00000020: 2c72 b6bc 00ed 2cbe df1f 6a3c 3f94 193d
00000030: 5f00 a23c c043 1f3c b698 ef3c 2982 683e
00000040: 3b9d 99bd eb98 e5bd 77ad bbbd 883f d53d
00000050: e013 ecbc 124c a0bd 1555 7bbd bd85 87bd
00000060: ffe7 64bd 4708 ce3a 74ac 5abd 3c9e b9bc
00000070: c57a 45bc bd08 81bd 823d 90be 2c2c 0c3e
00000080: 00f0 263d 8e9b 4b3e 5f4c 2cbc 619b 7cbc
00000090: 91d8 8cbd d724 2e3e 8734 9fbd 512c 173e
000000a0: 36d8 1ebe 3cb4 79be 0293 60bd 8d19 05be
000000b0: 15d2 5cbd e14d 6e3e fb1e e43d 48c3 dd3c
000000c0: fb7e e93b 4e78 ab3c 6d87 9f3d d5d6 6a3d
000000d0: e3a5 a73d 6eb7 4e3d 5c1c 5f3d 3618 7cb7
000000e0: bc03 cebc 5488 933c 588a 1d3c bfe7 6fbc
000000f0: 7a60 343d fb91 09be b807 a43d 1718 6e3e
00000100: 6b58 343e 402e 863d bde6 63bc a219 31bc
00000110: 43a2 be3c ba07 5abc 7d14 64bc 6975 2dbd
00000120: aebe 4dbd a846 9ebd 6515 6abd c61c 6e3e
00000130: 07f0 b33c be89 9bbd 7ee1 2a3c 5125 cd3b
00000140: 858a 1bbd 7cbb e13c 3d6e 503b 9503 e43c
00000150: 84be 853c 4fae edbb c4f7 87bc 2a36 aabc
00000160: 6d2f d0bc 2fee 14bd 5767 4ebc f64b 893c
00000170: c993 bdbd 3df2 083d b83b 043d c84e 2b3e
00000180: ef0c d1bd f823 d3bd 98ed 2c3d 8210 9dbc
00000190: 356e 16be ec52 6d3e 27dc cbbe 2297 2f3d
000001a0: 44f7 623e 876c a83e fd3b 3e3d 0eb5 353d
000001b0: e53c 3fbe 2ace ce3d 8615 793c 3788 1fbd
000001c0: f69e 2a3c 3ca6 843c 7f5c c3bc e662 0cbd
000001d0: 516a 08bc ad38 e13c 1dce d2bc 0c76 c2bb
000001e0: 7b80 293e 8bf0 793d cb86 a8bc 919e 173e
000001f0: dc0a 8b3d 863e ecbc bee0 293b 1846 54bc
00000200: de6d d7bc f30d b5bd b5f4 0cbe 0797 b5bc
00000210: 6982 e938 c7be ddbc ba93 a03d d9e1 123e
00000220: 6178 1abd c972 36ba a572 3e3e 1e65 f1bc
00000230: ba71 803c 86e8 f53c d4f4 c43d 19b1 8a3d
00000240: 6ab9 1d3e 45f1 833d a859 92bd 624c 5dbd
00000250: 7f02 c33c 54be 1b3d 541b 673e ed80 ad3b
00000260: 18ce 3c3c 13cb 973d 720b 94bb 5a0e 9abd
00000270: 6c2d f6bd efef 20bc 4cd6 263d ca97 69bc
00000280: 7d29 dfbc 77ac 133c 03e7 8bbd 09b3 60bd
00000290: 2316 12ba 4fc4 043e 6335 f1bd e13c 8abc
000002a0: 7a81 87be a19e 7dbe 5794 c4bc ddde 8f3c
000002b0: 054e 4f3d d9f6 1e3e dd5d 13bd b170 55bb
000002c0: db29 f63c 5429 6e3d d460 893d a740 f03c
000002d0: 218f 52be 9d52 10be 0aac 29be 6d47 f03d
000002e0: 1c43 75bd c964 543c 1e1b 723d 0771 883d
000002f0: 5f01 cd3d 6a6a 31bd fc31 b3bb aca3 37be
00000300: b766 17be 0730 15be e78b e5bd 4845 b7be
00000310: 5c72 3e3c 7ff7 2abe 148e cd3d 0c17 b93d
00000320: 5638 80bd cdf2 623d 5850 8d3c a0dd 07be
00000330: 1c57 f43b 9a7c b7bd 6a22 ef3c 4502 3b3d
00000340: e395 1cbd 58bb 56bd 92d5 e0bd a93d 873c
00000350: 8b72 d6bb 19b2 8eba 53be f2bd 68fb f6bd
00000360: 982a e5ba 8348 3c3c ac6a c2bb 40fe 283d
00000370: 4b95 583d 4f2e 07bd 0f1f b73d 4a39 053e
00000380: 35f7 703b 946b 5dbe 4a93 edbd c804 643c
00000390: 595a 043e 6f66 afbd 5c21 803d 10f5 cabc
000003a0: 97e1 93bc 1c74 81bb aac3 263d dac4 c43d
000003b0: 8d28 12be 0eb6 00be 6392 80bd 2f93 7ebd
000003c0: 84df e9bd ae56 25bd aa22 adbd 6f57 83be
000003d0: dd46 7f3e 842c c7bd 4ec2 083e 466a 083c
000003e0: d459 023e 66f5 cd3b f6b4 0ebe ea2f 8cbd
000003f0: 4f30 02be 6cf6 57be 1865 08be c68a 283e

model.model.0.bias f4 [512]
-0.010416081 0.030022968 -0.31888828 0.040659565 -0.31321672 0.14584549 -0.2832884 -0.052359715
-0.094500855 0.04457719 -0.014880515 -0.13634081 -0.6009396 -0.070942275 0.1605269 0.08326249
-0.33822924 0.020697562 0.06896248 0.11584332 0.10280871 0.033481404 0.016652722 0.05646733
-0.071309626 -0.0708387 -0.21786438 -0.30494422 0.053684548 -0.07239539 -0.37875566 -0.03558681
-0.29507986 -0.0062528797 -0.14893027 -0.037317496 0.19632353 0.058190238 0.11275875 0.0065889326
-0.012707088 0.112554856 0.023286404 0.08900863 0.04283671 0.09521012 0.021203572 0.046378132
0.006607376 0.14104286 -0.2542048 0.027508812 -0.10032925 -0.68509805 -0.13791415 -0.44274196
0.006782703 -0.0052291425 0.103759184 0.11507932 -0.4211299 0.08715383 -0.14365393 -0.14521906
0.20811547 -0.03617242 -0.28225595 0.10310492 -0.18859659 -0.13907392 0.095039815 -0.24262264
-0.0044130264 0.010228375 -0.4421568 0.098887354 0.12711084 -0.2436893 0.050026197 0.2056676
0.16653655 -0.18377024 -0.27322072 0.12385488 0.11143109 -0.47976646 -0.25303265 -0.042180438
0.12707283 0.10135277 -0.09847802 -0.39802504 0.0979864 0.12017598 0.1362217 0.114778936
0.15188451 -0.2997747 -0.016685413 -0.10159606 -0.31178278 0.15133221 -0.36049452 -0.08830094
0.12768483 -0.36154756 0.0072477655 -0.07398136 0.01860467 -0.0719904 0.07371884 -0.16032356
0.11662231 -0.3176992 -0.005031993 -0.22570473 0.11868152 -0.042129308 -0.07350674 -0.10237879
0.06914402 0.06796275 -0.13701482 0.009637936 -0.051428314 0.004866835 0.027948083 0.034658987
-0.018029809 0.048561107 0.10735209 -0.10079298 0.05128629 0.10154391 -0.045911986 -0.02615037
0.14503153 0.026027493 -0.25324968 0.105243124 -0.25422102 -0.08207612 -0.5407136 0.07630408
-0.5299096 -0.030899066 -0.0320393 0.1650604 -0.26369455 0.02707268 0.12810434 0.09135775
0.09264162 0.024685893 0.01388489 -0.35053182 -0.40152428 -0.5155422 -0.2842909 0.005690605
0.15770581 0.14787576 -0.08683111 -0.0075484132 0.07067726 -0.029058695 0.069692396 -0.07874816
-0.19939779 0.15014786 -0.027766133 0.06413601 -0.059551444 -0.47499385 -0.090308025 -0.0068768347
-0.27626914 -0.19783588 0.12668374 0.024276402 0.06027059 0.10036494 -0.15119374 -0.0380499
-0.6292249 -0.36821014 -0.06841223 0.024335794 0.064179435 0.021899527 0.031897664 -0.032654256
-0.03204037 0.20694698 0.10272281 0.15234779 0.05919364 -0.046699833 0.024017548 0.07864027
-0.041176897 -0.081042 -0.19364789 0.05970027 0.03772138 -0.3350359 -0.10599831 0.06822136
0.10957286 0.09347812 0.10790786 -0.28134748 0.097920775 -0.38574794 0.0428848 0.046330757
-0.1324865 -0.51080585 0.13291842 -0.079758 0.007806641 0.19061463 -0.045945734 0.101259574
0.08578591 -0.16993894 -0.4839744 0.15857787 -0.24766283 -0.59766954 0.18722604 -0.59562767
-0.08229716 0.13859932 0.099788964 0.13288566 0.061591014 0.06314937 -0.0055877515 -0.005787208
0.074709415 0.15411118 -0.29710314 0.061184 -0.440732 -0.02252113 -0.23901467 0.10529819
-0.11208377 -0.05607434 0.072578035 0.14327708 -0.16239643 0.17567794 -0.009832592 -0.09661082
00000000: 36a8 2abc baf2 f53c 5345 a3be a58a 263d
00000010: f15d a0be 8558 153e 2d0b 91be 2477 56bd
00000020: aa89 c1bd 9296 363d 67cd 73bc ed9c 0bbe
00000030: 2dd7 19bf 2f4a 91bd 2a61 243e 8685 aa3d
00000040: 622c adbe ef8d a93c 333c 8d3d 433f ed3d
00000050: 5f8d d23d cc23 093d 4a6b 883c 494a 673d
00000060: c80a 92bd e113 91bd d717 5fbe a621 9cbe
00000070: 54e4 5b3d 0944 94bd 43ec c1be 7ac3 11bd
00000080: b514 97be f5e4 ccbb 2d81 18be 3bda 18bd
00000090: 0909 493e e358 6e3d 0fee e63d f9e7 d73b
000000a0: 6431 50bc 2983 e63d 21c3 be3c 284a b63d
000000b0: 8c75 2f3d 86fd c23d 1db3 ad3c fff6 3d3d
000000c0: b082 d83b 8a6d 103e 2227 82be 295a e13c
000000d0: 6c79 cdbd 9662 2fbf 5e39 0dbe 13af e2be
000000e0: 7041 de3b 3a59 abbb b27f d43d b5ae eb3d
000000f0: 579e d7be b57d b23d 041a 13be 4eb4 14be
00000100: 391c 553e 8829 14bd da83 90be ac28 d33d
00000110: 771f 41be 6569 0ebe 3ca4 c23d 1272 78be
00000120: 269b 90bb ea94 273c 6062 e2be 7485 ca3d
00000130: 5829 023e b089 79be 45e8 4c3d 879a 523e
00000140: 8f88 2a3e 442e 3cbe 96e3 8bbe a1a7 fd3d
00000150: fc35 e43d f3a3 f5be 7f8d 81be 65c5 2cbd
00000160: 611f 023e 0b92 cf3d d8ae c9bd f0c9 cbbe
00000170: 18ad c83d d31e f63d b47d 0b3e 3811 eb3d
00000180: 9d87 1b3e 127c 99be d9af 88bc 9811 d0bd
00000190: fea1 9fbe d5f6 1a3e bd92 b8be 20d7 b4bd
000001a0: d0bf 023e c31c b9be aa7e ed3b 8a83 97bd
000001b0: d268 983c b46f 93bd e7f9 963d dc2b 24be
000001c0: add7 ee3d 78a9 a2be 6be3 a4bb 241f 67be
000001d0: 4c0f f33d c88f 2cbd b48a 96bd f9ab d1bd
000001e0: 619b 8d3d 0e30 8b3d 9d4d 0cbe 6fe8 1d3c
000001f0: 7fa6 52bd f979 9f3b 61f3 e43c 95f6 0d3d
00000200: 40b3 93bc 03e8 463d 6adb db3d 8d6c cebd
00000210: 9311 523d 41f6 cf3d 350e 3cbd 4d39 d6bc
00000220: 2583 143e 9c37 d53c f1a9 81be b589 d73d
00000230: 4229 82be 8617 a8bd 356c 0abf 5045 9c3d
00000240: 28a8 07bf 0a20 fdbc a43b 03bd 9805 293e
00000250: f902 87be 86c7 dd3c c92d 033e c619 bb3d
00000260: e4ba bd3d 123a ca3c 737d 633c e878 b3be
00000270: 9794 cdbe 93fa 03bf 948e 91be 4178 ba3b
00000280: a27d 213e be6c 173e 82d4 b1bd ae58 f7bb
00000290: 3dbf 903d 800c eebc e3ba 8e3d b746 a1bd
000002a0: ef2e 4cbe 5cc0 193e cd75 e3bc be59 833d
000002b0: 37ec 73bd 6532 f3be 6af3 b8bd 1257 e1bb
000002c0: 2673 8dbe 7d95 4abe 62b9 013e 4edf c63c
000002d0: 4bde 763d 228c cd3d 88d2 1abe 36da 1bbd
000002e0: e214 21bf 0a86 bcbe b61b 8cbd dc5b c73c
000002f0: 8270 833d a366 b33c 20a7 023d 78c0 05bd
00000300: c33c 03bd e9e9 533e 5660 d23d 0f01 1c3e
00000310: 0875 723d 5348 3fbd 73c0 c43c 260e a13d
00000320: 1ba9 28bd 59f9 a5bd a24b 46be 4588 743d
00000330: bc81 1a3d d389 abbe a415 d9bd a4b7 8b3d
00000340: bc67 e03d 7571 bf3d ccfe dc3d c70c 90be
00000350: b08a c83d c180 c5be f9a7 2f3d 52c5 3d3d
00000360: 8baa 07be 2cc4 02bf c41b 083e 2a58 a3bd
00000370: dace ff3b 7b30 433e 9831 3cbd 2e61 cf3d
00000380: 86b0 af3d 7904 2ebe 7ecb f7be 3d62 223e
00000390: 539b 7dbe df00 19bf 2fb8 3f3e 0e7b 18bf
000003a0: 6a8b a8bd fbec 0d3e 285e cc3d 2e13 083e
000003b0: dc46 7c3d 7554 813d 7519 b7bb 9fa2 bdbb
000003c0: 4001 993d 52cf 1d3e e71d 98be 139c 7a3d
000003d0: a0a7 e1be 3c7e b8bc 43c0 74be 94a6 d73d
000003e0: 2d8c e5bd 35ae 65bd cba3 943d 3ab7 123e
000003f0: 404b 26be ebe4 333e e118 21bc e5db c5bd

model.model.3.weight f4 [2, 512]
0.02221976 0.01624934 -0.026935313 0.016844371 0.027442535 0.01735806 0.048853822 0.021335445
0.019902604 0.013587732 0.017562836 -0.03143606 -0.17286174 -0.0228159 -0.01416972 -0.0215529
-0.050347783 0.0163817 0.018946705 -0.023752967 -0.017449578 0.016867088 -0.019960701 -0.018087888
0.024168702 0.02240124 -0.026823176 0.024167536 0.018156115 0.024033546 -0.12977672 -0.021992724
-0.07513488 -0.019361677 0.019069122 0.01422986 -0.013046027 0.017557515 -0.018684035 -0.016075943
0.019736104 0.016212242 0.020838175 -0.02131609 0.015612577 0.016079733 0.014990893 -0.022006253
0.013049184 -0.015181909 0.02105484 -0.02073415 0.01901519 0.31999993 0.020635018 -0.046887923
-0.022773469 0.020487992 -0.019359495 0.015337829 0.04488733 0.015538889 0.023623658 -0.011199819
-0.016079824 -0.014005654 -0.02851942 -0.017462743 0.046208985 0.022773102 0.014963208 -0.017680006
0.016049588 -0.023555186 0.14574145 0.015808482 -0.019687535 -0.023737013 -0.016195718 -0.017051416
0.0136584975 0.020772344 -0.03829628 -0.017082639 -0.017431263 -0.026968565 -0.026199099 0.015302245
-0.013761012 -0.016409598 -0.020905152 -0.03366577 0.013601553 0.0145023605 -0.020009752 0.014575158
-0.021404764 -0.049785793 -0.018268656 0.01915766 0.046449944 -0.021603668 -0.058122605 0.016033877
-0.024707291 -0.037236802 0.027100394 0.021438098 0.013384421 0.015472245 -0.0152526405 0.03382138
0.013640318 0.024757585 -0.020387223 -0.02638027 -0.018698236 0.022096524 -0.02403883 -0.018327022
0.016882112 -0.020881608 0.017651983 0.018916273 -0.01968208 -0.027817715 -0.022178981 0.014703499
-0.031824052 0.017345311 0.015702307 -0.025246529 -0.02342745 0.014331733 -0.018934827 -0.020058636
-0.018077957 0.014844354 0.020653814 -0.018609343 0.01598243 -0.018946836 -0.16923201 0.0124629205
-0.1526825 -0.018293137 -0.021340398 -0.021692768 0.03317925 0.020928672 -0.019032598 0.014723546
-0.016646583 -0.013056399 0.019137813 -0.048873894 -0.14939639 -0.06329212 0.033935715 -0.016511934
-0.01873838 -0.017932197 0.017904416 0.018433763 0.022274666 -0.019279603 0.015753873 -0.01957218
-0.021246077 -0.013035001 -0.02297887 0.017836438 -0.02279396 -0.08008474 -0.03090243 -0.0152699845
0.019914534 -0.031600535 -0.021765208 -0.016405327 0.015677724 -0.015316203 -0.017488088 -0.02115813
0.22097103 -0.035227835 -0.022463283 0.01267278 0.017084487 0.018117338 -0.030612435 -0.022192394
-0.020307655 -0.016487466 0.017655376 -0.014001215 0.01789947 0.01962675 0.021293497 0.015555823
-0.018546747 -0.026797574 0.03743318 0.020906849 0.01848899 -0.01885906 0.017340885 -0.020625465
-0.020122847 -0.022365088 0.011998282 0.08201604 0.019554252 0.065138675 0.020671807 -0.016153669
0.023454426 0.32344097 -0.022650963 0.023384567 0.017111285 -0.018542923 -0.02258153 -0.024695465
-0.020878628 0.025855374 0.061383434 -0.014730642 -0.0650407 0.20741755 -0.018704532 0.21576442
-0.022396337 -0.016236464 -0.017559446 -0.017568402 -0.02031553 0.02379761 0.0030078946 -0.024338232
-0.013950248 -0.019553034 0.023559961 0.016275378 -0.11388713 -0.018478256 -0.019245083 -0.016594889
0.018303283 -0.018709471 0.015107523 -0.013493913 0.021329232 0.0146346195 0.023344584 0.018765023
00000000: 3706 b63c 561d 853c 72a7 dcbc 35fd 893c
00000010: 2bcf e03c 7e32 8e3c f21a 483d acc7 ae3c
00000020: c90a a33c 149f 5e3c f0df 8f3c 19c3 00bd
00000030: ab02 31be 69e8 babc 1d28 68bc b58f b0bc
00000040: 7a39 4ebd ea32 863c 1f36 9b3c 9595 c2bc
00000050: 6bf2 8ebc d92c 8a3c a084 a3bc 0d2d 94bc
00000060: 71fd c53c ce82 b73c 47bc dbbc fffa c53c
00000070: 22bc 943c 00e2 c43c 30e4 04be 162a b4bc
00000080: 51e0 99bd 619c 9ebc d936 9c3c 5c24 693c
00000090: 01bf 55bc c7d4 8f3c 430f 99bc b2b1 83bc
000000a0: 9cad a13c 89cf 843c d2b4 aa3c 159f aebc
000000b0: e5cb 7f3c a5b9 833c 5d9c 753c 7546 b4bc
000000c0: 3fcc 553c 8bbd 78bc 337b ac3c aada a9bc
000000d0: bec5 9b3c 08d7 a33e c50a a93c 8d0d 40bd
000000e0: 6d8f babc 6fd6 a73c ce97 9ebc 844b 7b3c
000000f0: c7db 373d d396 7e3c 6786 c13c 727f 37bc
00000100: d6b9 83bc f877 65bc 8fa1 e9bc 070e 8fbc
00000110: a245 3d3d a88e ba3c 3e28 753c a9d5 90bc
00000120: 6d7a 833c cef6 c0bc 3f3d 153e ca80 813c
00000130: c147 a1bc 2074 c2bc e2ac 84bc 69af 8bbc
00000140: e4c7 5f3c c32a aa3c 8fdc 1cbd e4f0 8bbc
00000150: 02cc 8ebc 2eed dcbc 7e9f d6bc 44b6 7a3c
00000160: de75 61bc 6c6d 86bc 4841 abbc 1ee5 09bd
00000170: 0cd9 5e3c 4f9b 6d3c 7eeb a3bc a5cc 6e3c
00000180: 0b59 afbc 30ec 4bbd 26a8 95bc 86f0 9c3c
00000190: 4c42 3e3d 2dfa b0bc f811 6ebd 7a59 833c
000001a0: f266 cabc 9e85 18bd a501 de3c f39e af3c
000001b0: 554a 5b3c 4d7f 7d3c 36e6 79bc 4a88 0a3d
000001c0: a47b 5f3c 6bd0 ca3c 1b03 a7bc 701b d8bc
000001d0: 0b2d 99bc c503 b53c 15ed c4bc 8d22 96bc
000001e0: 5b4c 8a3c e80f abbc e49a 903c 4df6 9a3c
000001f0: 503c a1bc fae1 e3bc b2b0 b5bc f2e6 703c
00000200: f059 02bd c117 8e3c 20a2 803c cfd1 cebc
00000210: ecea bfbc a5cf 6a3c 361d 9bbc 0252 a4bc
00000220: 3918 94bc bc35 733c 3032 a93c 9f72 98bc
00000230: 96ed 823c 6536 9bbc 284b 2dbe 4731 4c3c
00000240: cd58 1cbe 7ddb 95bc 0fd2 aebc 08b5 b1bc
00000250: f7e6 073d 9b72 ab3c 40ea 9bbc 073b 713c
00000260: 6a5e 88bc 82ea 55bc e7c6 9c3c fe2f 48bd
00000270: 5efb 18be 4d9f 81bd 2d00 0b3d 0944 87bc
00000280: 3b81 99bc 8be6 92bc 48ac 923c 6702 973c
00000290: 5c79 b63c 42f0 9dbc 440e 813c d655 a0bc
000002a0: 410c aebc c290 55bc 2f3e bcbc b91d 923c
000002b0: 66ba babc 7803 a4bd 1827 fdbc f52e 7abc
000002c0: ce23 a33c 906f 01bd f34c b2bc 7764 86bc
000002d0: 926e 803c d0f0 7abc 2e43 8fbc d153 adbc
000002e0: 3b46 623e 104b 10bd eb04 b8bc 7ea1 4f3c
000002f0: c4f4 8b3c d06a 943c eec6 fabc d3cc b5bc
00000300: 3d5c a6bc b910 87bc 02a2 903c 5a65 65bc
00000310: e9a1 923c 47c8 a03c b36f ae3c dadd 7e3c
00000320: 59ef 97bc 9686 dbbc 8953 193d d744 ab3c
00000330: 3976 973c 517e 9abc 790e 8e3c bcf6 a8bc
00000340: abd8 a4bc fd36 b7bc 7194 443c 07f8 a73d
00000350: 3d30 a03c 6d67 853d ec57 a93c b354 84bc
00000360: 7f23 c03c 0e9a a53e 838e b9bc fe90 bf3c
00000370: f72c 8c3c 54e7 97bc e7fc b8bc 254e cabc
00000380: a809 abbc a6ce d33c 326d 7b3d ca58 71bc
00000390: 0f34 85bd 4465 543e 3f3a 99bc 59f1 5c3e
000003a0: 8678 b7bc 5502 85bc d4d8 8fbc 9ceb 8fbc
000003b0: c16c a6bc 35f3 c23c 1920 453b f960 c7bc
000003c0: 958f 64bc af2d a0bc d200 c13c f153 853c
000003d0: a83d e9bd b65f 97bc dda7 9dbc 01f2 87bc
000003e0: c4f0 953c 9b44 99bc 8b85 773c 9315 5dbc
000003f0: a4ba ae3c 0bc6 6f3c 243d bf3c 1bb9 993c

model.model.3.bias f4 [2]
0.17473473 -0.9140605
00000000: a9ed 323e deff 69bf

model.lat_embed.weight f4 [160, 5]
-0.29651073 -0.8031998 -0.17245317 0.60932994 1.130332 -0.3044435 0.47702897 -1.0046378
-0.026793806 0.60679686 -0.6514625 0.65158826 -0.64977413 -0.46664995 0.2607545 -0.52798593
-0.89931196 -0.4583001 0.47907233 0.8990244 -1.1160821 0.4754113 -0.48926556 0.28008977
-0.037697304 -0.21321633 -0.11098265 0.71378464 1.0010546 0.42957646 -0.82278746 0.66467065
-1.205535 1.0876791 -0.6409297 -0.85353714 0.57715005 -0.5400464 0.944121 0.7094908
-1.070683 0.19257258 -1.6916084 1.4662188 -0.13334596 -0.31949493 0.3045783 0.02189144
1.0083781 1.0640169 -0.6624073 0.24770103 -0.12149252 1.1170388 0.7976151 -0.36163133
0.7161874 0.42482933 0.7933966 0.5045235 -0.33942473 0.7617799 0.43060896 0.77821314
0.67245054 -0.9381127 0.46657124 -0.5917394 0.56757516 -0.62904185 -0.6656007 0.6783405
-0.20614634 0.6956754 -1.2616601 -1.1513505 0.6260984 -0.39424697 0.49597678 -0.35030618
-0.65233797 0.8925078 -0.44000176 0.53018296 -0.10161267 -1.1040763 0.45683882 0.9880049
0.46323484 0.6818905 -1.0939082 0.24045213 1.1801753 0.284389 0.31807876 -1.032732
0.7308736 -0.4248767 0.33420816 0.21209283 -1.3423525 0.68102145 -0.13860625 0.4424334
-0.013100038 -1.028434 0.9699826 0.17288321 0.041661732 -0.3816904 -0.4164696 1.4447227
-0.50568986 0.42204675 -0.63414925 -0.66784257 1.145976 -0.32541093 0.4226238 -0.5590895
-0.21883957 0.8142 -0.074862234 0.8460576 -0.7847591 0.9086847 -0.16320527 0.87169605
1.5267677 0.22184901 -0.15820736 0.71465796 1.8905125 0.03139111 -0.8413527 0.4603685
0.5446483 0.9922882 0.3816286 -0.55917037 0.21194057 -0.68858385 0.7344507 1.3675035
0.33970112 0.7863329 0.7482153 0.7991421 0.8399525 -0.76525927 0.32965228 0.5689771
0.5424078 0.653784 -0.86187166 -0.11009293 0.9528556 0.36069667 0.22291104 -0.46889713
1.0947976 0.9015095 -0.9325372 1.1005385 0.29473302 0.7032714 0.2414836 -0.9756852
1.5590761 -0.09436954 0.7907787 0.51661015 -0.8143054 1.2425766 -0.5133268 1.1055126
0.35525426 -1.0973836 1.2407194 -0.063774474 1.3321896 0.7946407 -0.83494115 0.8170342
0.29533213 1.2514418 0.2503812 -0.19545773 0.88280916 0.048435096 1.1525469 0.1429101
-0.23179048 0.8328249 -0.0453861 1.0548596 0.4947715 -0.10786498 -0.16725305 -0.010319002
0.874568 -0.25769436 0.18082473 0.50927144 -0.2449085 1.140808 0.25687107 -0.19150239
0.1735444 -0.056349825 0.6839294 -0.35887182 1.1711453 0.6095935 -1.1114017 1.1308941
-0.30197093 0.36559975 0.4247158 -0.32130006 1.2625372 -0.3061696 0.33503225 0.28855762
-0.3227855 1.0244125 0.53431517 0.48506573 -0.93813854 -0.38615197 0.8939836 0.41477615
0.45748767 -1.1693971 -0.14793764 1.083422 -0.36608672 0.10345367 0.3215847 -0.26609987
1.2837627 0.108297974 0.06629305 -0.028190598 -0.42706195 1.1700885 -0.26419827 0.016799929
0.3204072 -0.19175969 0.9072696 -0.6639717 -0.24459498 0.4039587 -0.045835048 0.86353093
00000000: 41d0 97be 819e 4dbf 9097 30be 0cfd 1b3f
00000010: b8ae 903f 05e0 9bbe 243d f43e f997 80bf
00000020: af7e dbbc 0a57 1b3f 3fc6 26bf 7dce 263f
00000030: 9957 26bf beec eebe 9d81 853e 162a 07bf
00000040: 4f39 66bf 50a6 eabe f848 f53e 7726 663f
00000050: c7db 8ebf 1c69 f33e 0481 fabe ed67 8f3e
00000060: 7d68 1abd 6255 5abe df4a e3bd 97ba 363f
00000070: 8f22 803f 72f1 db3e 33a2 52bf db27 2a3f
00000080: f94e 9abf 1239 8b3f f813 24bf 6981 5abf
00000090: 1bc0 133f 7b40 0abf eab1 713f 30a1 353f
000000a0: 240c 89bf bf31 453e a086 d8bf 0fad bb3f
000000b0: d88b 08be d794 a3be b0f1 9b3e ad55 b33c
000000c0: 8912 813f b531 883f 8693 29bf 57a5 7d3e
000000d0: 12d1 f8bd 21fb 8e3f 8130 4c3f be27 b9be
000000e0: 0f58 373f 3b83 d93e 0a1c 4b3f 7428 013f
000000f0: 14c9 adbe 0204 433f c778 dc3e fa38 473f
00000100: b825 2c3f 2728 70bf 6de2 ee3e 3c7c 17bf
00000110: 9b4c 113f e308 21bf cf64 2abf b9a7 2d3f
00000120: 0718 53be c817 323f 147e a1bf 745f 93bf
00000130: fc47 203f bdda c9be abf0 fd3e 555b b3be
00000140: 9fff 26bf 647b 643f e947 e1be 12ba 073f
00000150: 4e1a d0bd 5f52 8dbf c7e6 e93e e4ed 7c3f
00000160: 1e2d ed3e 6090 2e3f 2f05 8cbf 1539 763e
00000170: fc0f 973f 6f9b 913e 38db a23e 9030 84bf
00000180: 881a 3b3f 7089 d9be 551d ab3e dd2e 593e
00000190: 35d2 abbf 6c57 2e3f ccee 0dbe a186 e23e
000001a0: 8ba1 56bc baa3 83bf c850 783f 4c08 313e
000001b0: 7ea5 2a3d ed6c c3be 813b d5be acec b83f
000001c0: e474 01bf 8316 d83e 9b57 22bf bbf7 2abf
000001d0: 57af 923f 439c a6be 2662 d83e 7d20 0fbf
000001e0: 7b17 60be 696f 503f 5f51 99bd 3b97 583f
000001f0: f9e5 48bf 8f9f 683f 481f 27be 7927 5f3f
00000200: 206d c33f 632c 633e 1c01 22be d3f3 363f
00000210: 50fc f13f f793 003d e462 57bf 6cb5 eb3e
00000220: 126e 0b3f 9906 7e3f d364 c33e ca25 0fbf
00000230: f306 593e 0847 30bf f604 3c3f 5b0a af3f
00000240: 4eed ad3e 1d4d 493f 0a8b 3f3f 9494 4c3f
00000250: 2107 573f 08e8 43bf 2fc8 a83e 7ca8 113f
00000260: 3ddb 0a3f 635e 273f 9fa3 5cbf 6778 e1bd
00000270: 58ee 733f 3cad b83e cb42 643e 4913 f0be
00000280: 5422 8c3f 54c9 663f c2ba 6ebf 72de 8c3f
00000290: 3fe7 963e 9809 343f 7a47 773e 81c6 79bf
000002a0: ce8f c73f d144 c1bd 7970 4a3f 9040 043f
000002b0: 5276 50bf c00c 9f3f 6369 03bf 7081 8d3f
000002c0: e3e3 b53e 1177 8cbf e5cf 9e3f 319c 82bd
000002d0: 3085 aa3f 936d 4b3f b4be 55bf 2729 513f
000002e0: c635 973e 3f2f a03f f731 803e 1226 48be
000002f0: c8ff 613f e163 463d a886 933f 0657 123e
00000300: 7c5a 6dbe 0334 553f c6e6 39bd a405 873f
00000310: b152 fd3e 51e8 dcbd 6244 2bbe 0811 29bc
00000320: b0e3 5f3f 84f0 83be 1e2a 393e 9d5f 023f
00000330: 4bc9 7abe ff05 923f 9b84 833e 3419 44be
00000340: a0b5 313e 13cf 66bd ff15 2f3f 0cbe b7be
00000350: 17e8 953f 520e 1c3f 6942 8ebf 23c1 903f
00000360: ef9b 9abe e42f bb3e 5974 d93e 7181 a4be
00000370: d29a a13f 43c2 9cbe 5989 ab3e d3bd 933e
00000380: 2444 a5be f31f 833f e1c8 083f 895a f83e
00000390: d929 70bf b6b5 c5be 1cdc 643f 8a5d d43e
000003a0: d33b ea3e ceae 95bf f77c 17be 92ad 8a3f
000003b0: b86f bbbe 85df d33d c0a6 a43e 3e3e 88be
000003c0: 5652 a43f 54cb dd3d a7c4 873d f8ef e6bc
000003d0: dda7 dabe 76c5 953f ff44 87be 01a0 893c
000003e0: 6a0c a43e a75c 44be d242 683f 0dfa 29bf
000003f0: 1b77 7abe add3 ce3e 88bd 3bbd 5d10 5d3f

model.lon_embed.weight f4 [220, 5]
0.040574253 -1.326398 1.470045 -0.5819089 -0.7942349 -2.106973 1.6960217 0.31446126
-0.46040773 -0.31191772 -0.8981318 -0.1051866 0.5811037 0.8675112 1.8554571 -0.19634044
1.5588919 0.85380065 -0.56740624 0.6257113 1.1762153 1.2311345 -0.58585083 0.4208349
-0.9054388 1.0316978 0.9928888 -0.5332558 -0.32197136 -0.7269156 0.6530543 -1.1587492
-0.43820786 -0.25424308 1.0405382 0.39294574 -0.15781337 0.97083116 0.5513169 -0.004362019
1.3346958 -0.95412755 0.14500839 -1.9565357 1.8922173 -1.5668916 0.6760127 0.012474856
-0.1873348 -0.06148218 -1.0801362 0.014858914 -0.079542816 1.9792088 0.6671091 -1.3817962
0.28097263 0.89362824 0.7740471 -0.5556901 0.72971386 0.94984174 0.875946 0.9761276
-0.9041603 0.08585891 0.8819209 0.467475 0.74859804 0.6447384 -0.03242285 1.5933101
1.0087014 -0.40818453 -0.4872346 0.2537306 0.76089305 0.9837227 0.22615047 0.059390523
4.2046264e-05 0.2697329 0.9440475 0.5102432 0.6890841 0.35003632 -0.87536174 0.39248067
1.4353846 1.7427018 0.84338593 -0.3783838 0.9469567 1.1573383 0.79862523 0.35281405
1.5406591 1.0222056 -0.54786056 -0.511584 1.1449256 -0.07058304 0.57269305 1.0975175
0.6879523 0.32840425 0.31889084 1.0783777 0.3938304 0.74037933 0.85846364 1.0515033
1.2992464 0.10148668 -0.68684655 -1.990474 0.7283822 0.7364906 -0.26074696 0.72723395
0.08512715 0.30231544 1.267685 0.70950335 0.3617 1.4703509 -0.19747746 1.73138
1.1408136 -0.74738836 -0.23511006 0.28849018 0.42047274 1.0046188 0.8132998 -0.216193
-0.50229824 0.8238613 1.0043232 1.7258434 -0.29926467 -0.31133994 1.5413805 0.25746807
1.5608878 -0.06415496 0.5935599 1.2772598 0.44238934 -0.050023068 0.5316935 0.5303159
1.4890991 0.64054304 -0.40960947 2.0849278 -1.3219429 0.28447643 0.8677338 1.8729424
0.31404492 -0.11772413 0.49931264 2.1413803 -0.109575294 0.47330758 0.4023923 0.8935162
1.4845699 -1.1941383 0.3141261 0.18880591 1.0519509 1.7083684 -1.2339451 1.3301069
-1.2554241 -0.6670939 1.1211809 2.0364819 0.9240135 -1.2573366 -0.71353567 1.2289864
2.2491536 1.2782538 -1.2548095 -0.4312113 0.8989204 1.7821913 -0.08695612 -0.09972116
1.7885492 0.5732832 -0.48953986 -0.66611624 -0.30483723 -0.106720105 2.1815715 0.21392305
-0.59926283 -0.0896297 1.5664378 0.40641135 -0.1864594 -1.0705574 0.57839596 0.94340754
0.29129848 -0.37284666 -0.7412762 0.15021375 1.5496851 0.275061 -0.08492078 -0.78131956
-0.039386503 1.3344325 0.0062393593 0.36727387 1.3891504 -0.42852572 -0.12991174 0.25501025
1.2623138 0.6343834 -0.65047026 0.046320625 1.7858217 0.34050888 0.514198 -1.0810065
0.6311378 0.5965107 0.841649 0.02955165 -0.9553474 -0.25328395 1.710707 0.49444103
0.61267453 -1.0501552 0.2556127 0.40989286 1.2807746 0.5969821 -1.0157237 0.36700106
0.7128066 0.9314108 -0.2550642 -0.16180064 0.087677315 1.4927665 -0.21794662 -0.5737228
00000000: 3031 263d 69c7 a9bf 6f2a bc3f fbf7 14bf
00000010: fa52 4bbf a5d8 06c0 3d17 d93f 1101 a13e
00000020: 90ba ebbe aeb3 9fbe f7eb 65bf 126c d7bd
00000030: 36c3 143f 3715 5e3f 9e7f ed3f 780d 49be
00000040: c589 c73f ae92 5a3f 8941 11bf 9e2e 203f
00000050: 398e 963f d195 9d3f 52fa 15bf ac77 d73e
00000060: d6ca 67bf ac0e 843f f62d 7e3f 7483 08bf
00000070: 6ed9 a4be 2417 3abf 912e 273f e551 94bf
00000080: c85c e0be 262c 82be 5b30 853f 2f30 c93e
00000090: d499 21be 6488 783f 1b23 0d3f 44ef 8ebb
000000a0: 50d7 aa3f b441 74bf 147d 143e c36f fabf
000000b0: 2d34 f23f e78f c8bf 2b0f 2d3f 5763 4c3c
000000c0: b2d4 3fbe bdd4 7bbd e741 8abf cd72 733c
000000d0: 58e7 a2bd b756 fd3f a9c7 2a3f b3de b0bf
000000e0: a5db 8f3e d2c4 643f f327 463f b541 0ebf
000000f0: 87ce 3a3f d428 733f ff3d 603f 80e3 793f
00000100: 0d77 67bf ccd6 af3d 91c5 613f e258 ef3e
00000110: 1fa4 3f3f 930d 253f d3cd 04bd 96f1 cb3f
00000120: 211d 813f 90fd d0be d076 f9be fae8 813e
00000130: e3c9 423f 40d5 7b3f fd93 673e 7a43 733d
00000140: d55a 3038 6e1a 8a3e 19ad 713f 4c9f 023f
00000150: d167 303f f637 b33e b517 60bf 3af3 c83e
00000160: afba b73f da10 df3f 24e8 573f 85bb c1be
00000170: c16b 723f a923 943f b472 4c3f 0ba4 b43e
00000180: 5134 c53f a2d7 823f 9740 0cbf 2bf7 02bf
00000190: ec8c 923f d78d 90bd 039c 123f 747b 8c3f
000001a0: a41d 303f 9a24 a83e a945 a33e 4808 8a3f
000001b0: 23a4 c93e 8089 3d3f 46c4 5b3f a997 863f
000001c0: b54d a63f 40d8 cf3d 2dd5 2fbf dac7 febf
000001d0: 4177 3a3f a68a 3c3f a080 85be 012c 3a3f
000001e0: 2557 ae3d 17c9 9a3e 8143 a23f 03a2 353f
000001f0: be30 b93e 7534 bc3f 8837 4abe dc9d dd3f
00000200: 2e06 923f d854 3fbf b1c0 70be fcb4 933e
00000210: 3448 d73e 5997 803f 6a34 503f b361 5dbe
00000220: 9e96 00bf 93e8 523f aa8d 803f 70e8 dc3f
00000230: 3839 99be f367 9fbe f54b c53f dbd2 833e
00000240: 2ccb c73f ad63 83bd 8bf3 173f 407d a33f
00000250: db80 e23e fde4 4cbd 111d 083f c8c2 073f
00000260: cd9a be3f a1fa 233f 55b8 d1be 756f 0540
00000270: 6d35 a9bf e5a6 913e cd23 5e3f 94bc ef3f
00000280: 7fca a03e 5919 f1bd e8a5 ff3e 600c 0940
00000290: 0369 e0bd 5f55 f23e 5d06 ce3e 7abd 643f
000002a0: 6306 be3f 86d9 98bf 23d5 a03e 5656 413e
000002b0: 54a6 863f d1ab da3f eaf1 9dbf f140 aa3f
000002c0: bdb1 a0bf aac6 2abf db82 8f3f b855 0240
000002d0: 268c 6c3f 68f0 a0bf 46aa 36bf 6d4f 9d3f
000002e0: 22f2 0f40 d29d a33f 999d a0bf bac7 dcbe
000002f0: a61f 663f d81e e43f 0d16 b2bd 9c3a ccbd
00000300: 2eef e43f b0c2 123f f8a4 fabe 9886 2abf
00000310: a013 9cbe 1290 dabd de9e 0b40 a50e 5b3e
00000320: 4a69 19bf c78f b7bd 0981 c83f 2615 d03e
00000330: 37ef 3ebe 0608 89bf c211 143f 2883 713f
00000340: 1325 953e c2e5 bebe 47c4 3dbf a2d1 193e
00000350: 155c c63f ccd4 8c3e f2ea adbd 8f04 48bf
00000360: be53 21bd afce aa3f 8a73 cc3b 520b bc3e
00000370: aecf b13f b967 dbbe 9507 05be b490 823e
00000380: 8093 a13f f366 223f 3885 26bf b2ba 3d3d
00000390: ce95 e43f 2e57 ae3e 7ba2 033f 6c5e 8abf
000003a0: 3f92 213f edb4 183f 4f76 573f 4d16 f23c
000003b0: a691 74bf 6fae 81be 72f8 da3f 6027 fd3e
000003c0: 3dd8 1c3f 7c6b 86bf abdf 823e 7add d13e
000003d0: 6cf0 a33f d2d3 183f 3c03 82bf 90e7 bb3e
000003e0: 7e7a 363f f070 6e3f c697 82be 11af 25be
000003f0: 2a90 b33d f912 bf3f 662d 5fbe 7fdf 12bf

exp_avg f4 [512, 15]
0.00012882643 0.00011382475 -7.385673e-05 5.7858855e-05 4.5072164e-05 8.137805e-05 7.059908e-06 -8.165135e-05
-5.4902997e-05 -1.794189e-05 -3.5821136e-05 -4.098364e-05 2.0991383e-05 -7.452387e-05 -3.791502e-05 5.144142e-05
5.3607182e-05 -4.8691734e-05 3.098623e-05 2.8907692e-05 8.900322e-05 1.0617229e-06 -3.3628385e-05 -4.147724e-05
-1.5294787e-05 -3.493609e-05 5.4942116e-06 1.5505919e-05 -4.249412e-05 -3.8046703e-05 -9.905237e-05 -2.9864648e-05
2.9042412e-05 -0.000100897145 -4.9602844e-05 -9.100113e-05 -1.9802847e-05 3.4249522e-05 -2.8190067e-05 -2.3800607e-05
-1.3392012e-05 -4.6091714e-06 -6.142105e-05 -9.131895e-06 3.802235e-05 3.1847692e-06 6.3117295e-05 -2.9766075e-05
-1.346955e-05 6.2013673e-06 3.7451475e-05 -3.619002e-05 -2.4528856e-05 -1.4661993e-05 -3.489748e-05 -1.3987355e-05
-3.8016806e-05 -2.931723e-05 -4.4262742e-05 -5.9120653e-06 -1.9338573e-05 8.973951e-05 -8.0355516e-05 -2.3557053e-05
-1.6178348e-05 1.2170565e-05 3.858123e-05 -2.7717377e-05 -2.7802691e-05 -4.188678e-05 -3.8502698e-05 -3.7033748e-05
3.1038595e-05 3.7230818e-06 -1.7629314e-06 3.823093e-05 7.746106e-05 -4.4451725e-05 3.0412932e-05 2.5106448e-05
9.030306e-05 1.6263733e-05 -7.012995e-05 -9.214366e-06 -3.8166727e-05 -1.0611362e-05 -7.0249366e-06 1.99392e-05
-8.685297e-09 -5.6497843e-06 0.0001790744 -2.4528994e-05 -0.00010003141 0.00013204264 0.00011432642 6.23236e-05
8.247989e-05 1.3329203e-05 -5.48658e-06 -3.0322379e-05 -2.864125e-05 9.310301e-05 -1.3640852e-05 -2.4863715e-05
-5.559248e-05 4.3895412e-05 1.4922428e-05 -3.182153e-05 2.8609435e-05 4.4336255e-05 4.420869e-05 5.6033728e-06
-2.152817e-05 -7.040027e-05 -3.5939425e-05 -3.4369394e-05 -1.5132412e-05 7.404362e-07 -4.2525604e-05 -2.53705e-06
4.9954426e-05 6.3296015e-05 -4.164197e-05 1.95266e-05 2.6407277e-05 4.7430956e-05 5.77934e-05 -3.0319417e-05
-6.097209e-05 -1.0011617e-05 -2.5262249e-05 -2.328665e-05 -3.254129e-05 -8.086146e-05 1.5519527e-05 2.9779945e-05
7.1685594e-05 -5.7541984e-05 7.787967e-06 3.1173e-05 4.893669e-05 8.1164035e-07 -7.708816e-06 -3.669006e-05
-3.63383e-05 -3.6124733e-05 -1.6573833e-05 -1.6405116e-05 -3.2923626e-06 -2.7058808e-05 3.436292e-05 7.107781e-05
-3.8003294e-05 1.1375653e-06 2.647822e-05 6.9275826e-05 2.1181182e-05 -4.8598584e-05 -3.55748e-05 -3.8872236e-05
-1.6208889e-05 -1.2608789e-05 2.6126672e-06 -5.2149917e-06 1.3166144e-05 -6.923945e-05 -7.540674e-05 2.9496463e-05
-6.96448e-05 -7.5160366e-05 -8.0754304e-05 2.2435037e-05 7.985083e-05 -7.691722e-05 -3.2689022e-05 -2.2759912e-05
-7.33539e-07 -6.907777e-05 -3.7988466e-05 6.3685984e-05 0.00035098143 -1.0782377e-05 5.8683236e-05 0.00024180458
0.00021193575 -7.952418e-05 -0.0001065117 -0.00018061991 3.205829e-06 -0.0002382907 -4.673356e-05 1.8036664e-05
-3.4080782e-05 0.00011805587 8.427747e-06 -5.913842e-05 -2.4770834e-05 1.6551903e-05 -5.6152865e-05 -1.5285304e-05
-5.917805e-05 5.9767983e-05 2.4875491e-05 -6.800246e-05 -4.9920018e-05 -2.775845e-05 -2.9797424e-05 -3.4129887e-05
-4.142689e-06 9.37133e-06 -2.1930291e-05 -5.5053006e-05 3.158402e-05 -3.9195536e-05 -2.1402095e-05 -7.135924e-05
1.0882075e-05 2.1227614e-05 -7.766959e-05 -3.2385222e-05 -4.951406e-05 -1.5712672e-05 -6.3490625e-05 9.536311e-06
9.031107e-06 6.2707236e-06 -7.330979e-05 8.437213e-05 -2.6119757e-05 -5.400102e-06 -7.8914185e-05 3.0942912e-05
6.708261e-06 -8.108725e-05 -2.225197e-05 2.1926871e-05 -5.5679408e-05 5.1659626e-06 -1.49521375e-05 3.4833483e-05
-0.00013966735 -4.7852667e-05 -4.5170837e-05 -0.00014195261 3.730202e-05 -5.9617625e-05 3.6395857e-05 1.6923785e-05
-8.3496016e-05 -8.8821645e-05 -6.71987e-05 -0.00010167726 -7.482967e-05 -4.0945582e-05 -4.8181904e-05 5.578567e-05
00000000: 9515 0739 33b5 ee38 88e3 9ab8 79ad 7238
00000010: de0b 3d38 82a9 aa38 26e4 ec36 3c3c abb8
00000020: a547 66b8 ea81 96b7 a73e 16b8 d9e5 2bb8
00000030: a716 b037 b349 9cb8 f106 1fb8 cec2 5738
00000040: 46d8 6038 5a3a 4cb8 36f7 0138 cc7e f237
00000050: 3da7 ba38 8580 8e35 340c 0db8 d9f7 2db8
00000060: 4e4d 80b7 5788 12b8 eb5a b836 b512 8237
00000070: b73b 32b8 5694 1fb8 56ba cfb8 d885 fab7
00000080: 1ba0 f337 be98 d3b8 a60c 50b8 dcd7 beb8
00000090: 4a1e a6b7 25a7 0f38 b579 ecb7 6aa7 c7b7
000000a0: 41ae 60b7 7ba8 9ab6 2dcf 80b8 3135 19b7
000000b0: 307a 1f38 ebb9 5536 d75d 8438 29b2 f9b7
000000c0: 47fb 61b7 5715 d036 3715 1d38 bdca 17b8
000000d0: 51c3 cdb7 c8fc 75b7 e25e 12b8 3bab 6ab7
000000e0: 3c74 1fb8 46ee f5b7 c2a6 39b8 4160 c6b6
000000f0: 4539 a2b7 8832 bc38 8a84 a8b8 639c c5b7
00000100: bdb6 87b7 2e30 4c37 48d2 2138 9d82 e8b7
00000110: d339 e9b7 96af 2fb8 f57d 21b8 af54 1bb8
00000120: 702f 0238 0fda 7936 dd9d ecb5 265a 2038
00000130: 9772 a238 ad71 3ab8 461f ff37 b09b d237
00000140: 1661 bd38 1a6e 8837 bb12 93b8 6797 1ab7
00000150: 3615 20b8 7407 32b7 bfb7 ebb6 1b43 a737
00000160: 5736 15b2 4793 bdb6 ebc5 3b39 9dc3 cdb7
00000170: f4c7 d1b8 ed74 0a39 88c2 ef38 bab3 8238
00000180: 0ef9 ac38 7ea0 5f37 5d19 b8b6 d05c feb7
00000190: 9e42 f0b7 4c40 c338 03db 64b7 6c92 d0b7
000001a0: f92b 69b8 571c 3838 575b 7a37 1c78 05b8
000001b0: 4bfe ef37 b1f5 3938 b86c 3938 9b04 bc36
000001c0: 6597 b4b7 dba3 93b8 aabd 16b8 db27 10b8
000001d0: 37e1 7db7 63c2 4635 855d 32b8 3042 2ab6
000001e0: 2886 5138 cabd 8438 baa8 2eb8 0ecd a337
000001f0: 3285 dd37 9af0 4638 3167 7238 7456 feb7
00000200: 48bc 7fb8 91f7 27b7 44ea d3b7 b357 c3b7
00000210: f27c 08b8 2a94 a9b8 ee2f 8237 f2cf f937
00000220: e955 9638 3c59 71b8 10a9 0237 c1bf 0238
00000230: 5f41 4d38 80df 5935 1d55 01b7 a7e3 19b8
00000240: f469 18b8 a384 17b8 0908 8bb7 b89d 89b7
00000250: 5cf2 5cb6 59fc e2b7 e820 1038 9c0f 9538
00000260: ba65 1fb8 72ae 9835 8b1d de37 2d48 9138
00000270: 3eae b137 55d6 4bb8 2736 15b8 bf0a 23b8
00000280: 53f8 87b7 568a 53b7 4855 2f36 70fc aeb6
00000290: 28e4 5c37 a634 91b8 af23 9eb8 2c6f f737
000002a0: 440e 92b8 6a9f 9db8 a35a a9b8 e032 bc37
000002b0: 9775 a738 9e4e a1b8 921b 09b8 8aec beb7
000002c0: 6be8 44b5 d8dd 90b8 ce55 1fb8 278f 8538
000002d0: ee03 b839 f5e5 34b7 a522 7638 ec8c 7d39
000002e0: 123b 5e39 38c6 a6b8 095f dfb8 ca64 3db9
000002f0: b923 5736 acdd 79b9 c703 44b8 714d 9737
00000300: f6f1 0eb8 c394 f738 e664 0d37 650b 78b8
00000310: f6ca cfb7 f1d8 8a37 ae85 6bb8 f138 80b7
00000320: f335 78b8 62af 7a38 b6ab d037 8b9c 8eb8
00000330: 3661 51b8 d1da e8b7 7bf5 f9b7 b026 0fb8
00000340: 6d01 8bb6 8e39 1d37 f1f6 b7b7 b7e8 66b8
00000350: 1579 0438 e365 24b8 a688 b3b7 b3a6 95b8
00000360: 2892 3637 f411 b237 8be2 a2b8 5ed5 07b8
00000370: 51ad 4fb8 b5ce 83b7 4526 85b8 25fe 1f37
00000380: 4f84 1737 1b69 d236 e5bd 99b8 f1f0 b038
00000390: c01b dbb7 8632 b5b6 bb7e a5b8 b3c8 0138
000003a0: 8617 e136 630d aab8 bea9 bab7 99ef b737
000003b0: 4f89 69b8 4857 ad36 f1da 7ab7 2b1a 1238
000003c0: ab73 12b9 69b5 48b8 d175 3db8 1dd9 14b9
000003d0: bd74 1c38 f00d 7ab8 c1a7 1838 8df7 8d37
000003e0: 951a afb8 c245 bab8 07ed 8cb8 903b d5b8
000003f0: e0ed 9cb8 fcbc 2bb8 ed16 4ab8 68fb 6938

exp_avg_sq f4 [512, 15]
5.290054e-07 4.5248797e-08 3.6813194e-08 2.9544793e-07 2.1589304e-07 4.8337835e-08 3.9954074e-08 3.7768196e-08
5.3154373e-08 3.7675942e-08 3.530783e-08 5.5928727e-08 5.0005678e-08 5.1946856e-08 4.6179494e-08 3.7348906e-07
3.0706385e-08 2.5378025e-08 2.1006596e-07 1.5308486e-07 3.105767e-08 2.6078355e-08 2.6077371e-08 3.6366053e-08
2.0709978e-08 2.2468898e-08 4.160548e-08 3.3541625e-08 3.158559e-08 3.1092537e-08 2.0427676e-07 2.8510343e-08
2.8619102e-08 1.2693152e-07 1.1586103e-07 2.7033593e-08 1.8117511e-08 4.8743743e-08 3.229963e-08 2.2310688e-08
1.5888396e-08 7.178413e-08 3.077059e-08 2.7175837e-08 3.1766323e-08 3.7197375e-07 3.1346048e-08 2.4971188e-08
2.070595e-07 1.5217674e-07 3.3725033e-08 2.727511e-08 2.986701e-08 3.629955e-08 1.9170868e-08 2.405895e-08
4.230595e-08 3.413868e-08 3.331517e-08 3.252995e-08 8.118315e-07 4.2224613e-08 3.1219393e-08 4.9595815e-07
3.3517307e-07 5.730078e-08 3.9788254e-08 4.2171187e-08 5.5184444e-08 2.770112e-08 3.2500914e-08 6.269484e-08
4.6550053e-08 4.8839507e-08 4.6485184e-08 3.6890847e-07 3.5940552e-08 2.9682166e-08 2.0893351e-07 1.544086e-07
3.8076653e-08 2.9844728e-08 3.319024e-08 3.930488e-08 2.365605e-08 2.6368234e-08 4.4368388e-08 3.8178655e-08
3.6775027e-08 3.5534068e-08 4.327626e-07 6.1077124e-08 5.501987e-08 2.3965023e-07 1.8625435e-07 9.0757844e-08
5.544284e-08 5.2609877e-08 7.3960216e-08 3.076709e-08 6.248092e-08 5.3821047e-08 1.05436676e-07 5.9727554e-08
6.27378e-08 6.231588e-07 4.7024482e-08 3.830304e-08 3.3411098e-07 2.4783606e-07 4.8833943e-08 3.6866552e-08
4.2821682e-08 5.096461e-08 3.000312e-08 3.4396773e-08 6.1702316e-08 5.172685e-08 5.004875e-08 4.7452012e-08
4.5267296e-07 2.7530993e-08 2.1351992e-08 2.5479707e-07 1.8299184e-07 3.1881363e-08 2.5376268e-08 2.8016624e-08
3.3985867e-08 2.0848411e-08 2.1911072e-08 4.0004707e-08 3.1624538e-08 3.2342204e-08 3.1497482e-08 3.1389146e-07
2.291212e-08 1.9369384e-08 1.7612867e-07 1.27678e-07 2.8142793e-08 2.116798e-08 2.5675321e-08 2.6764056e-08
1.4922113e-08 1.9199133e-08 3.3340747e-08 2.5920746e-08 2.7397206e-08 2.583391e-08 4.074597e-07 2.751901e-08
2.3095744e-08 2.2586963e-07 1.6350988e-07 3.1796795e-08 2.5555865e-08 2.8401965e-08 3.306945e-08 2.1151813e-08
2.1606045e-08 3.7306943e-08 3.1699205e-08 3.028601e-08 2.9819308e-08 3.1594206e-07 5.3106195e-08 4.796402e-08
2.853576e-07 2.8557554e-07 4.9189463e-08 3.5722678e-08 6.0972056e-08 4.677482e-08 5.2552842e-08 3.6107693e-08
5.28129e-08 4.7058652e-08 4.728943e-08 4.141059e-08 1.7334382e-06 2.0484444e-07 2.0128815e-07 9.735165e-07
1.0011559e-06 2.2000715e-07 1.4400014e-07 3.304406e-07 1.2762321e-07 3.7345902e-07 7.273284e-08 2.2800846e-07
1.7755491e-07 1.3944074e-07 1.5612565e-07 1.9010136e-07 2.4583695e-08 2.212823e-08 1.3308848e-07 1.0160316e-07
2.1781917e-08 1.7670256e-08 2.5465841e-08 2.9232446e-08 2.1266505e-08 1.4226616e-08 3.149415e-08 2.610597e-08
2.2454435e-08 2.0729894e-08 1.3553718e-07 3.29103e-08 2.8432451e-08 1.00863154e-07 9.1937046e-08 2.7426937e-08
2.1521465e-08 2.8492156e-08 3.175594e-08 2.4078778e-08 2.2171728e-08 3.7447112e-08 3.2913896e-08 3.2316297e-08
3.0302292e-08 2.8437356e-07 5.280651e-08 4.4513136e-08 2.0804573e-07 1.7293613e-07 4.8084278e-08 3.900006e-08
4.9573398e-08 5.538627e-08 3.770235e-08 3.5103447e-08 7.765735e-08 5.1698848e-08 4.725916e-08 5.2691934e-08
4.5154815e-07 4.7225143e-08 5.1765532e-08 3.1787727e-07 1.6488924e-07 7.631132e-08 5.4585662e-08 7.367128e-08
5.908185e-08 7.8696665e-08 3.1986936e-08 8.561524e-08 6.256001e-08 6.556884e-08 5.9933484e-08 3.972483e-07
00000000: f900 0e35 9457 4233 891c 1e33 0e9e 9e34
00000010: 3ad0 6734 039c 4f33 f899 2b33 9236 2233
00000020: da4b 6433 23d1 2133 5fa5 1733 4936 7033
00000030: d3c5 5633 2c1c 5f33 e456 4633 f283 c834
00000040: 07e2 0333 defe d932 7e8e 6134 a55f 2434
00000050: 4564 0533 e902 e032 bf00 e032 e630 1c33
00000060: b9e5 b132 a101 c132 b6b1 3233 680f 1033
00000070: b9a8 0733 9b8a 0533 2b57 5b34 e8e6 f432
00000080: 12d6 f532 ac4a 0834 46cf f833 8037 e832
00000090: d4a0 9b32 505a 5133 d2b9 0a33 b9a5 bf32
000000a0: f47a 8832 be27 9a33 9f28 0433 4c70 e932
000000b0: 716f 0833 afb3 c734 58a1 0633 3980 d632
000000c0: 1554 5e34 0666 2334 11d9 1033 9a4a ea32
000000d0: 2047 0033 c7e7 1b33 2fad a432 31aa ce32
000000e0: e2b3 3533 e09f 1233 6b16 0f33 0fb7 0b33
000000f0: a3ec 5935 745a 3533 1616 0633 fc21 0535
00000100: d6f1 b334 e01a 7633 a6e3 2a33 b61f 3533
00000110: f003 6d33 68f3 ed32 2297 0b33 daa2 8633
00000120: 53ee 4733 9bc3 5133 00a7 4733 650e c634
00000130: 0e5d 1a33 c6f7 fe32 3557 6034 83cb 2534
00000140: b989 2333 a02e 0033 0e8d 0e33 2cd0 2833
00000150: 3434 cb32 5c80 e232 8f8f 3e33 e0f9 2333
00000160: 92f2 1d33 1f9e 1833 7056 e834 8129 8333
00000170: fd4e 6c33 47a9 8034 35fd 4734 a7e6 c233
00000180: 0c20 6e33 2cf5 6133 0fd4 9e33 c624 0433
00000190: 402d 8633 de28 6733 6d6c e233 9243 8033
000001a0: 78ba 8633 2647 2735 f7f7 4933 a382 2433
000001b0: dd5f b334 540e 8534 7dbd 5133 3457 1e33
000001c0: f0ea 3733 2ee4 5a33 c8dc 0033 a7bb 1333
000001d0: 3581 8433 462a 5e33 2ff5 5633 0ace 4b33
000001e0: e606 f334 4b7d ec32 8769 b732 0bcb 8834
000001f0: 6a7c 4434 eeed 0833 01fb d932 35a9 f032
00000200: dbf7 1133 2416 b332 f536 bc32 a4d1 2b33
00000210: 8cd3 0733 a1e8 0a33 d947 0733 ea84 a834
00000220: 49d0 c432 ba61 a632 e11d 3d34 dd17 0934
00000230: a8be f132 e1d4 b532 a18c dc32 c8e6 e532
00000240: 132e 8032 57eb a432 8a32 0f33 53a8 de32
00000250: 1857 eb32 5ee9 dd32 d6c0 da34 f162 ec32
00000260: 1464 c632 9286 7234 4191 2f34 f290 0833
00000270: f185 db32 95f8 f332 3f08 0e33 54b1 b532
00000280: 3298 b932 6b3b 2033 a525 0833 d213 0233
00000290: ad12 0033 bf9e a934 e116 6433 ff00 4e33
000002a0: 4033 9934 3451 9934 6344 5333 806d 1933
000002b0: beef 8233 75e5 4833 76b6 6133 d414 1b33
000002c0: 66d4 6233 891d 4a33 471b 4b33 6ddb 3133
000002d0: 7ca8 e835 36f3 5b34 aa21 5834 c6a9 8235
000002e0: 745f 8635 1b3b 6c34 759e 1a34 6967 b134
000002f0: cd08 0934 d17f c834 4d31 9c33 7dd2 7434
00000300: eca5 3e34 2eb9 1534 7ea3 2734 aa1e 4c34
00000310: 1e2c d332 7e14 be32 15e7 0e34 ee30 da33
00000320: f11a bb32 4ec9 9732 fabf da32 d41a fb32
00000330: 8aad b632 5269 7432 2f44 0733 a33f e032
00000340: d3e1 c032 8511 b232 2d88 1134 4259 0d33
00000350: 9f3b f432 1b9a d833 ed6e c533 7998 eb32
00000360: 34de b832 eabe f432 0664 0833 cbd5 ce32
00000370: 2574 be32 89d5 2033 365d 0d33 25cc 0a33
00000380: b925 0233 01ac 9834 5fcd 6233 b62e 3f33
00000390: 2d63 5f34 52b0 3934 3985 4e33 0581 2733
000003a0: 87ea 5433 d9e1 6d33 2cee 2133 a6c4 1633
000003b0: 94c4 a633 7c0b 5e33 fff9 4a33 654f 6233
000003c0: 4e6c f234 98d4 4a33 ce54 5e33 b8a8 aa34
000003d0: 690c 3134 98e0 a333 9271 6a33 3735 9e33
000003e0: 2ec1 7d33 f3ff a833 0262 0933 7adb b733
000003f0: bb58 8633 dace 8c33 c8b4 8033 6445 d534
